#loc = loc("./.inductor_cache\\ip\\cipvtvqwjdvujb4mfis64wva65gwpozt6lbtb5ucsmecp3k5rnor.py":18:0)
module {
  tt.func public @triton_tem_fused_transpose_view_zeros_54(%arg0: !tt.ptr<f32> {tt.divisibility = 16 : i32} loc("./.inductor_cache\\ip\\cipvtvqwjdvujb4mfis64wva65gwpozt6lbtb5ucsmecp3k5rnor.py":18:0), %arg1: !tt.ptr<f32> {tt.divisibility = 16 : i32} loc("./.inductor_cache\\ip\\cipvtvqwjdvujb4mfis64wva65gwpozt6lbtb5ucsmecp3k5rnor.py":18:0), %arg2: !tt.ptr<f32> {tt.divisibility = 16 : i32} loc("./.inductor_cache\\ip\\cipvtvqwjdvujb4mfis64wva65gwpozt6lbtb5ucsmecp3k5rnor.py":18:0), %arg3: !tt.ptr<f32> {tt.divisibility = 16 : i32} loc("./.inductor_cache\\ip\\cipvtvqwjdvujb4mfis64wva65gwpozt6lbtb5ucsmecp3k5rnor.py":18:0), %arg4: !tt.ptr<f32> {tt.divisibility = 16 : i32} loc("./.inductor_cache\\ip\\cipvtvqwjdvujb4mfis64wva65gwpozt6lbtb5ucsmecp3k5rnor.py":18:0), %arg5: !tt.ptr<f32> {tt.divisibility = 16 : i32} loc("./.inductor_cache\\ip\\cipvtvqwjdvujb4mfis64wva65gwpozt6lbtb5ucsmecp3k5rnor.py":18:0), %arg6: !tt.ptr<f32> {tt.divisibility = 16 : i32} loc("./.inductor_cache\\ip\\cipvtvqwjdvujb4mfis64wva65gwpozt6lbtb5ucsmecp3k5rnor.py":18:0), %arg7: !tt.ptr<f32> {tt.divisibility = 16 : i32} loc("./.inductor_cache\\ip\\cipvtvqwjdvujb4mfis64wva65gwpozt6lbtb5ucsmecp3k5rnor.py":18:0), %arg8: !tt.ptr<i32> {tt.divisibility = 16 : i32} loc("./.inductor_cache\\ip\\cipvtvqwjdvujb4mfis64wva65gwpozt6lbtb5ucsmecp3k5rnor.py":18:0), %arg9: !tt.ptr<i32> {tt.divisibility = 16 : i32} loc("./.inductor_cache\\ip\\cipvtvqwjdvujb4mfis64wva65gwpozt6lbtb5ucsmecp3k5rnor.py":18:0), %arg10: !tt.ptr<i32> {tt.divisibility = 16 : i32} loc("./.inductor_cache\\ip\\cipvtvqwjdvujb4mfis64wva65gwpozt6lbtb5ucsmecp3k5rnor.py":18:0), %arg11: !tt.ptr<i32> {tt.divisibility = 16 : i32} loc("./.inductor_cache\\ip\\cipvtvqwjdvujb4mfis64wva65gwpozt6lbtb5ucsmecp3k5rnor.py":18:0), %arg12: !tt.ptr<i32> {tt.divisibility = 16 : i32} loc("./.inductor_cache\\ip\\cipvtvqwjdvujb4mfis64wva65gwpozt6lbtb5ucsmecp3k5rnor.py":18:0), %arg13: !tt.ptr<i32> {tt.divisibility = 16 : i32} loc("./.inductor_cache\\ip\\cipvtvqwjdvujb4mfis64wva65gwpozt6lbtb5ucsmecp3k5rnor.py":18:0), %arg14: !tt.ptr<i32> {tt.divisibility = 16 : i32} loc("./.inductor_cache\\ip\\cipvtvqwjdvujb4mfis64wva65gwpozt6lbtb5ucsmecp3k5rnor.py":18:0), %arg15: !tt.ptr<i32> {tt.divisibility = 16 : i32} loc("./.inductor_cache\\ip\\cipvtvqwjdvujb4mfis64wva65gwpozt6lbtb5ucsmecp3k5rnor.py":18:0), %arg16: !tt.ptr<i32> {tt.divisibility = 16 : i32} loc("./.inductor_cache\\ip\\cipvtvqwjdvujb4mfis64wva65gwpozt6lbtb5ucsmecp3k5rnor.py":18:0), %arg17: !tt.ptr<i1> {tt.divisibility = 16 : i32} loc("./.inductor_cache\\ip\\cipvtvqwjdvujb4mfis64wva65gwpozt6lbtb5ucsmecp3k5rnor.py":18:0), %arg18: !tt.ptr<f32> {tt.divisibility = 16 : i32} loc("./.inductor_cache\\ip\\cipvtvqwjdvujb4mfis64wva65gwpozt6lbtb5ucsmecp3k5rnor.py":18:0), %arg19: !tt.ptr<f32> {tt.divisibility = 16 : i32} loc("./.inductor_cache\\ip\\cipvtvqwjdvujb4mfis64wva65gwpozt6lbtb5ucsmecp3k5rnor.py":18:0), %arg20: !tt.ptr<f32> {tt.divisibility = 16 : i32} loc("./.inductor_cache\\ip\\cipvtvqwjdvujb4mfis64wva65gwpozt6lbtb5ucsmecp3k5rnor.py":18:0)) attributes {noinline = false} {
    %cst = arith.constant dense<768> : tensor<16x1xi32> loc(#loc1)
    %cst_0 = arith.constant dense<768> : tensor<1x16xi32> loc(#loc1)
    %cst_1 = arith.constant dense<0> : tensor<1x16xi32> loc(#loc1)
    %cst_2 = arith.constant dense<0> : tensor<1x16xi8> loc(#loc1)
    %c0_i32 = arith.constant 0 : i32 loc(#loc1)
    %cst_3 = arith.constant dense<1.44269502> : tensor<16x16xf32> loc(#loc1)
    %cst_4 = arith.constant dense<2> : tensor<1x16xi32> loc(#loc1)
    %cst_5 = arith.constant dense<2> : tensor<16x1xi32> loc(#loc1)
    %cst_6 = arith.constant dense<0> : tensor<16x1xi32> loc(#loc1)
    %cst_7 = arith.constant dense<0> : tensor<16x1xi8> loc(#loc1)
    %cst_8 = arith.constant dense<0xFF800000> : tensor<16x16xf32> loc(#loc1)
    %cst_9 = arith.constant dense<1.250000e-01> : tensor<16x16xf32> loc(#loc1)
    %cst_10 = arith.constant dense<0.000000e+00> : tensor<16x16xf32> loc(#loc1)
    %cst_11 = arith.constant dense<0.000000e+00> : tensor<64x16xf32> loc(#loc1)
    %c112_i32 = arith.constant 112 : i32 loc(#loc1)
    %cst_12 = arith.constant dense<64> : tensor<1x16xi32> loc(#loc1)
    %cst_13 = arith.constant dense<0.000000e+00> : tensor<16x64xf32> loc(#loc1)
    %cst_14 = arith.constant dense<256> : tensor<16x1xi32> loc(#loc1)
    %cst_15 = arith.constant dense<64> : tensor<1x64xi32> loc(#loc1)
    %cst_16 = arith.constant dense<1.250000e-01> : tensor<16x64xf32> loc(#loc1)
    %cst_17 = arith.constant dense<64> : tensor<16x1xi32> loc(#loc1)
    %c128_i32 = arith.constant 128 : i32 loc(#loc1)
    %cst_18 = arith.constant dense<0.000000e+00> : tensor<16xf32> loc(#loc1)
    %cst_19 = arith.constant dense<0xFF800000> : tensor<16xf32> loc(#loc1)
    %cst_20 = arith.constant dense<64> : tensor<16xi32> loc(#loc1)
    %c16_i32 = arith.constant 16 : i32 loc(#loc1)
    %c8_i32 = arith.constant 8 : i32 loc(#loc1)
    %c16384_i32 = arith.constant 16384 : i32 loc(#loc1)
    %c4096_i32 = arith.constant 4096 : i32 loc(#loc1)
    %c64_i32 = arith.constant 64 : i32 loc(#loc1)
    %c1_i32 = arith.constant 1 : i32 loc(#loc1)
    %c49152_i32 = arith.constant 49152 : i32 loc(#loc2)
    %c768_i32 = arith.constant 768 : i32 loc(#loc2)
    %c256_i32 = arith.constant 256 : i32 loc(#loc1)
    %c4_i32 = arith.constant 4 : i32 loc(#loc1)
    %0 = tt.get_program_id x : i32 loc(#loc3)
    %1 = tt.get_program_id y : i32 loc(#loc4)
    %2 = tt.get_program_id z : i32 loc(#loc5)
    %3 = arith.remsi %1, %c256_i32 : i32 loc(#loc6)
    %4 = arith.muli %2, %c4096_i32 : i32 loc(#loc7)
    %5 = arith.muli %3, %c16384_i32 : i32 loc(#loc8)
    %6 = arith.addi %4, %5 : i32 loc(#loc9)
    %7 = arith.extsi %6 : i32 to i64 loc(#loc10)
    %8 = arith.muli %2, %c64_i32 : i32 loc(#loc11)
    %9 = arith.muli %3, %c49152_i32 : i32 loc(#loc12)
    %10 = arith.addi %8, %9 : i32 loc(#loc13)
    %11 = arith.extsi %10 : i32 to i64 loc(#loc14)
    %12 = arith.muli %1, %c16384_i32 : i32 loc(#loc15)
    %13 = arith.addi %8, %12 : i32 loc(#loc16)
    %14 = arith.extsi %13 : i32 to i64 loc(#loc17)
    %15 = tt.addptr %arg1, %7 : !tt.ptr<f32>, i64 loc(#loc18)
    %16 = tt.addptr %arg2, %11 : !tt.ptr<f32>, i64 loc(#loc19)
    %17 = tt.addptr %arg7, %14 : !tt.ptr<f32>, i64 loc(#loc20)
    %18 = tt.make_range {end = 64 : i32, start = 0 : i32} : tensor<64xi32> loc(#loc21)
    %19 = arith.cmpi sge, %0, %c4_i32 : i32 loc(#loc22)
    scf.if %19 {
      %20 = arith.subi %0, %c4_i32 : i32 loc(#loc24)
      %21 = arith.divsi %20, %c4_i32 : i32 loc(#loc25)
      %22 = arith.addi %21, %2 : i32 loc(#loc26)
      %23 = arith.remsi %20, %c4_i32 : i32 loc(#loc27)
      %24 = arith.divsi %23, %c8_i32 : i32 loc(#loc28)
      %25 = arith.muli %22, %c4096_i32 : i32 loc(#loc29)
      %26 = arith.addi %25, %12 : i32 loc(#loc30)
      %27 = arith.extsi %26 : i32 to i64 loc(#loc31)
      %28 = arith.muli %22, %c64_i32 : i32 loc(#loc32)
      %29 = arith.addi %28, %12 : i32 loc(#loc33)
      %30 = arith.extsi %29 : i32 to i64 loc(#loc34)
      %31 = arith.muli %1, %c4_i32 : i32 loc(#loc35)
      %32 = arith.addi %31, %22 : i32 loc(#loc36)
      %33 = arith.muli %32, %c64_i32 : i32 loc(#loc37)
      %34 = arith.extsi %33 : i32 to i64 loc(#loc38)
      %35 = tt.addptr %arg0, %27 : !tt.ptr<f32>, i64 loc(#loc39)
      %36 = tt.addptr %arg5, %30 : !tt.ptr<f32>, i64 loc(#loc40)
      %37 = tt.addptr %arg6, %27 : !tt.ptr<f32>, i64 loc(#loc41)
      %38 = tt.addptr %arg3, %34 : !tt.ptr<f32>, i64 loc(#loc42)
      %39 = tt.addptr %arg4, %34 : !tt.ptr<f32>, i64 loc(#loc43)
      %40 = arith.muli %23, %c16_i32 : i32 loc(#loc44)
      %41 = tt.make_range {end = 16 : i32, start = 0 : i32} : tensor<16xi32> loc(#loc45)
      %42 = tt.splat %40 : i32 -> tensor<16xi32> loc(#loc46)
      %43 = arith.addi %42, %41 : tensor<16xi32> loc(#loc46)
      %44 = tt.expand_dims %43 {axis = 1 : i32} : tensor<16xi32> -> tensor<16x1xi32> loc(#loc300)
      %45 = arith.muli %44, %cst_17 : tensor<16x1xi32> loc(#loc301)
      %46 = tt.splat %35 : !tt.ptr<f32> -> tensor<16x1x!tt.ptr<f32>> loc(#loc302)
      %47 = tt.addptr %46, %45 : tensor<16x1x!tt.ptr<f32>>, tensor<16x1xi32> loc(#loc302)
      %48 = tt.expand_dims %18 {axis = 0 : i32} : tensor<64xi32> -> tensor<1x64xi32> loc(#loc303)
      %49 = tt.broadcast %47 : tensor<16x1x!tt.ptr<f32>> -> tensor<16x64x!tt.ptr<f32>> loc(#loc304)
      %50 = tt.broadcast %48 : tensor<1x64xi32> -> tensor<16x64xi32> loc(#loc304)
      %51 = tt.addptr %49, %50 : tensor<16x64x!tt.ptr<f32>>, tensor<16x64xi32> loc(#loc304)
      %52 = arith.cmpi slt, %44, %cst_17 : tensor<16x1xi32> loc(#loc305)
      %53 = tt.broadcast %52 : tensor<16x1xi1> -> tensor<16x64xi1> loc(#loc306)
      %54 = tt.load %51, %53, %cst_13 : tensor<16x64x!tt.ptr<f32>> loc(#loc306)
      %55 = arith.muli %44, %cst_14 : tensor<16x1xi32> loc(#loc307)
      %56 = tt.splat %36 : !tt.ptr<f32> -> tensor<16x1x!tt.ptr<f32>> loc(#loc308)
      %57 = tt.addptr %56, %55 : tensor<16x1x!tt.ptr<f32>>, tensor<16x1xi32> loc(#loc308)
      %58 = tt.broadcast %57 : tensor<16x1x!tt.ptr<f32>> -> tensor<16x64x!tt.ptr<f32>> loc(#loc309)
      %59 = tt.addptr %58, %50 : tensor<16x64x!tt.ptr<f32>>, tensor<16x64xi32> loc(#loc309)
      %60 = tt.load %59, %53, %cst_13 : tensor<16x64x!tt.ptr<f32>> loc(#loc310)
      %61 = arith.cmpi slt, %43, %cst_20 : tensor<16xi32> loc(#loc56)
      %62 = tt.splat %39 : !tt.ptr<f32> -> tensor<16x!tt.ptr<f32>> loc(#loc57)
      %63 = tt.addptr %62, %43 : tensor<16x!tt.ptr<f32>>, tensor<16xi32> loc(#loc57)
      %64 = tt.load %63, %61 : tensor<16x!tt.ptr<f32>> loc(#loc58)
      %65 = tt.splat %38 : !tt.ptr<f32> -> tensor<16x!tt.ptr<f32>> loc(#loc59)
      %66 = tt.addptr %65, %43 : tensor<16x!tt.ptr<f32>>, tensor<16xi32> loc(#loc59)
      %67 = tt.load %66, %61 : tensor<16x!tt.ptr<f32>> loc(#loc60)
      %68 = arith.cmpf oeq, %67, %cst_19 : tensor<16xf32> loc(#loc61)
      %69 = arith.select %68, %cst_18, %67 : tensor<16xi1>, tensor<16xf32> loc(#loc62)
      %70 = tt.expand_dims %69 {axis = 1 : i32} : tensor<16xf32> -> tensor<16x1xf32> loc(#loc63)
      %71 = tt.addptr %arg9, %24 : !tt.ptr<i32>, i32 loc(#loc64)
      %72 = tt.load %71 : !tt.ptr<i32> loc(#loc65)
      %73 = arith.muli %72, %c128_i32 : i32 loc(#loc66)
      %74 = tt.addptr %arg8, %24 : !tt.ptr<i32>, i32 loc(#loc67)
      %75 = tt.load %74 : !tt.ptr<i32> loc(#loc68)
      %76 = tt.splat %73 : i32 -> tensor<16xi32> loc(#loc69)
      %77 = arith.addi %76, %41 : tensor<16xi32> loc(#loc69)
      %78 = tt.expand_dims %77 {axis = 0 : i32} : tensor<16xi32> -> tensor<1x16xi32> loc(#loc311)
      %79 = arith.muli %78, %cst_12 : tensor<1x16xi32> loc(#loc312)
      %80 = tt.splat %15 : !tt.ptr<f32> -> tensor<1x16x!tt.ptr<f32>> loc(#loc313)
      %81 = tt.addptr %80, %79 : tensor<1x16x!tt.ptr<f32>>, tensor<1x16xi32> loc(#loc313)
      %82 = tt.expand_dims %18 {axis = 1 : i32} : tensor<64xi32> -> tensor<64x1xi32> loc(#loc314)
      %83 = tt.broadcast %81 : tensor<1x16x!tt.ptr<f32>> -> tensor<64x16x!tt.ptr<f32>> loc(#loc315)
      %84 = tt.broadcast %82 : tensor<64x1xi32> -> tensor<64x16xi32> loc(#loc315)
      %85 = tt.addptr %83, %84 : tensor<64x16x!tt.ptr<f32>>, tensor<64x16xi32> loc(#loc315)
      %86 = arith.muli %78, %cst_0 : tensor<1x16xi32> loc(#loc316)
      %87 = tt.splat %16 : !tt.ptr<f32> -> tensor<1x16x!tt.ptr<f32>> loc(#loc317)
      %88 = tt.addptr %87, %86 : tensor<1x16x!tt.ptr<f32>>, tensor<1x16xi32> loc(#loc317)
      %89 = tt.broadcast %88 : tensor<1x16x!tt.ptr<f32>> -> tensor<64x16x!tt.ptr<f32>> loc(#loc318)
      %90 = tt.addptr %89, %84 : tensor<64x16x!tt.ptr<f32>>, tensor<64x16xi32> loc(#loc318)
      %91 = arith.muli %75, %c8_i32 : i32 loc(#loc319)
      %92 = arith.minsi %91, %c4_i32 : i32 loc(#loc320)
      %93:4 = scf.for %arg21 = %c0_i32 to %92 step %c1_i32 iter_args(%arg22 = %cst_13, %arg23 = %85, %arg24 = %90, %arg25 = %77) -> (tensor<16x64xf32>, tensor<64x16x!tt.ptr<f32>>, tensor<64x16x!tt.ptr<f32>>, tensor<16xi32>)  : i32 {
        %121 = tt.expand_dims %arg25 {axis = 0 : i32} : tensor<16xi32> -> tensor<1x16xi32> loc(#loc764)
        %122 = arith.cmpi slt, %121, %cst_12 : tensor<1x16xi32> loc(#loc765)
        %123 = tt.broadcast %122 : tensor<1x16xi1> -> tensor<64x16xi1> loc(#loc766)
        %124 = tt.load %arg23, %123, %cst_11 : tensor<64x16x!tt.ptr<f32>> loc(#loc766)
        %125 = tt.dot %54, %124, %cst_10, inputPrecision = tf32 : tensor<16x64xf32> * tensor<64x16xf32> -> tensor<16x16xf32> loc(#loc545)
        %126 = arith.mulf %125, %cst_9 : tensor<16x16xf32> loc(#loc546)
        %127 = arith.remsi %121, %cst_12 : tensor<1x16xi32> loc(#loc767)
        %128 = arith.remsi %44, %cst_17 : tensor<16x1xi32> loc(#loc768)
        %129 = tt.broadcast %122 : tensor<1x16xi1> -> tensor<16x16xi1> loc(#loc549)
        %130 = arith.select %129, %126, %cst_8 : tensor<16x16xi1>, tensor<16x16xf32> loc(#loc549)
        %131 = tt.splat %arg16 : !tt.ptr<i32> -> tensor<16x1x!tt.ptr<i32>> loc(#loc550)
        %132 = tt.addptr %131, %128 : tensor<16x1x!tt.ptr<i32>>, tensor<16x1xi32> loc(#loc550)
        %133 = tt.load %132 : tensor<16x1x!tt.ptr<i32>> loc(#loc551)
        %134 = tt.splat %arg16 : !tt.ptr<i32> -> tensor<1x16x!tt.ptr<i32>> loc(#loc552)
        %135 = tt.addptr %134, %127 : tensor<1x16x!tt.ptr<i32>>, tensor<1x16xi32> loc(#loc552)
        %136 = tt.load %135 : tensor<1x16x!tt.ptr<i32>> loc(#loc553)
        %137 = tt.broadcast %133 : tensor<16x1xi32> -> tensor<16x16xi32> loc(#loc554)
        %138 = tt.broadcast %136 : tensor<1x16xi32> -> tensor<16x16xi32> loc(#loc554)
        %139 = arith.cmpi sgt, %137, %138 : tensor<16x16xi32> loc(#loc554)
        %140 = arith.cmpi eq, %137, %138 : tensor<16x16xi32> loc(#loc555)
        %141 = tt.splat %arg17 : !tt.ptr<i1> -> tensor<16x1x!tt.ptr<i1>> loc(#loc556)
        %142 = tt.addptr %141, %128 : tensor<16x1x!tt.ptr<i1>>, tensor<16x1xi32> loc(#loc556)
        %143 = tt.bitcast %142 : tensor<16x1x!tt.ptr<i1>> -> tensor<16x1x!tt.ptr<i8>> loc(#loc557)
        %144 = tt.load %143 : tensor<16x1x!tt.ptr<i8>> loc(#loc557)
        %145 = arith.cmpi ne, %144, %cst_7 : tensor<16x1xi8> loc(#loc557)
        %146 = arith.extui %145 : tensor<16x1xi1> to tensor<16x1xi32> loc(#loc558)
        %147 = arith.cmpi eq, %146, %cst_6 : tensor<16x1xi32> loc(#loc558)
        %148 = tt.broadcast %128 : tensor<16x1xi32> -> tensor<16x16xi32> loc(#loc559)
        %149 = tt.broadcast %127 : tensor<1x16xi32> -> tensor<16x16xi32> loc(#loc559)
        %150 = arith.cmpi sge, %148, %149 : tensor<16x16xi32> loc(#loc559)
        %151 = tt.broadcast %147 : tensor<16x1xi1> -> tensor<16x16xi1> loc(#loc560)
        %152 = arith.ori %151, %150 : tensor<16x16xi1> loc(#loc560)
        %153 = arith.andi %140, %152 : tensor<16x16xi1> loc(#loc561)
        %154 = arith.muli %128, %cst_5 : tensor<16x1xi32> loc(#loc562)
        %155 = tt.splat %arg18 : !tt.ptr<f32> -> tensor<16x1x!tt.ptr<f32>> loc(#loc563)
        %156 = tt.addptr %155, %154 : tensor<16x1x!tt.ptr<f32>>, tensor<16x1xi32> loc(#loc563)
        %157 = tt.load %156 : tensor<16x1x!tt.ptr<f32>> loc(#loc564)
        %158 = arith.muli %127, %cst_4 : tensor<1x16xi32> loc(#loc565)
        %159 = tt.splat %arg18 : !tt.ptr<f32> -> tensor<1x16x!tt.ptr<f32>> loc(#loc566)
        %160 = tt.addptr %159, %158 : tensor<1x16x!tt.ptr<f32>>, tensor<1x16xi32> loc(#loc566)
        %161 = tt.load %160 : tensor<1x16x!tt.ptr<f32>> loc(#loc567)
        %162 = tt.broadcast %157 : tensor<16x1xf32> -> tensor<16x16xf32> loc(#loc568)
        %163 = tt.broadcast %161 : tensor<1x16xf32> -> tensor<16x16xf32> loc(#loc568)
        %164 = arith.subf %162, %163 : tensor<16x16xf32> loc(#loc568)
        %165 = arith.mulf %164, %164 : tensor<16x16xf32> loc(#loc569)
        %166 = tt.addptr %arg18, %c1_i32 : !tt.ptr<f32>, i32 loc(#loc570)
        %167 = tt.splat %166 : !tt.ptr<f32> -> tensor<16x1x!tt.ptr<f32>> loc(#loc571)
        %168 = tt.addptr %167, %154 : tensor<16x1x!tt.ptr<f32>>, tensor<16x1xi32> loc(#loc571)
        %169 = tt.load %168 : tensor<16x1x!tt.ptr<f32>> loc(#loc572)
        %170 = tt.splat %166 : !tt.ptr<f32> -> tensor<1x16x!tt.ptr<f32>> loc(#loc573)
        %171 = tt.addptr %170, %158 : tensor<1x16x!tt.ptr<f32>>, tensor<1x16xi32> loc(#loc573)
        %172 = tt.load %171 : tensor<1x16x!tt.ptr<f32>> loc(#loc574)
        %173 = tt.broadcast %169 : tensor<16x1xf32> -> tensor<16x16xf32> loc(#loc575)
        %174 = tt.broadcast %172 : tensor<1x16xf32> -> tensor<16x16xf32> loc(#loc575)
        %175 = arith.subf %173, %174 : tensor<16x16xf32> loc(#loc575)
        %176 = arith.mulf %175, %175 : tensor<16x16xf32> loc(#loc576)
        %177 = arith.addf %165, %176 : tensor<16x16xf32> loc(#loc577)
        %178 = tt.load %arg19 : !tt.ptr<f32> loc(#loc578)
        %179 = tt.splat %178 : f32 -> tensor<16x16xf32> loc(#loc579)
        %180 = arith.cmpf olt, %177, %179 : tensor<16x16xf32> loc(#loc579)
        %181 = arith.andi %153, %180 : tensor<16x16xi1> loc(#loc580)
        %182 = arith.ori %139, %181 : tensor<16x16xi1> loc(#loc581)
        %183 = arith.select %182, %130, %cst_8 : tensor<16x16xi1>, tensor<16x16xf32> loc(#loc582)
        %184 = arith.mulf %183, %cst_3 : tensor<16x16xf32> loc(#loc583)
        %185 = tt.broadcast %70 : tensor<16x1xf32> -> tensor<16x16xf32> loc(#loc584)
        %186 = arith.subf %184, %185 : tensor<16x16xf32> loc(#loc584)
        %187 = math.exp2 %186 : tensor<16x16xf32> loc(#loc585)
        %188 = tt.load %arg24, %123, %cst_11 : tensor<64x16x!tt.ptr<f32>> loc(#loc769)
        %189 = tt.dot %60, %188, %cst_10, inputPrecision = tf32 : tensor<16x64xf32> * tensor<64x16xf32> -> tensor<16x16xf32> loc(#loc587)
        %190 = tt.expand_dims %64 {axis = 1 : i32} : tensor<16xf32> -> tensor<16x1xf32> loc(#loc588)
        %191 = tt.broadcast %190 : tensor<16x1xf32> -> tensor<16x16xf32> loc(#loc589)
        %192 = arith.subf %189, %191 : tensor<16x16xf32> loc(#loc589)
        %193 = arith.mulf %187, %192 : tensor<16x16xf32> loc(#loc590)
        %194 = arith.select %129, %193, %cst_10 : tensor<16x16xi1>, tensor<16x16xf32> loc(#loc591)
        %195 = arith.select %182, %194, %cst_10 : tensor<16x16xi1>, tensor<16x16xf32> loc(#loc592)
        %196 = tt.trans %124 {order = array<i32: 1, 0>} : tensor<64x16xf32> -> tensor<16x64xf32> loc(#loc593)
        %197 = tt.dot %195, %196, %arg22, inputPrecision = tf32 : tensor<16x16xf32> * tensor<16x64xf32> -> tensor<16x64xf32> loc(#loc594)
        %198 = arith.divsi %arg21, %c8_i32 : i32 loc(#loc595)
        %199 = tt.addptr %71, %198 : !tt.ptr<i32>, i32 loc(#loc596)
        %200 = tt.load %199 evictionPolicy = evict_last : !tt.ptr<i32> loc(#loc597)
        %201 = arith.addi %198, %c1_i32 : i32 loc(#loc598)
        %202 = arith.cmpi slt, %201, %75 : i32 loc(#loc599)
        %203 = tt.addptr %199, %c1_i32 : !tt.ptr<i32>, i32 loc(#loc600)
        %204 = tt.load %203, %202 evictionPolicy = evict_last : !tt.ptr<i32> loc(#loc601)
        %205 = arith.addi %arg21, %c1_i32 : i32 loc(#loc602)
        %206 = arith.remsi %205, %c8_i32 : i32 loc(#loc603)
        %207 = arith.cmpi eq, %206, %c0_i32 : i32 loc(#loc604)
        %208 = arith.subi %204, %200 : i32 loc(#loc605)
        %209 = arith.muli %208, %c128_i32 : i32 loc(#loc606)
        %210 = arith.subi %209, %c112_i32 : i32 loc(#loc607)
        %211 = arith.extui %207 : i1 to i32 loc(#loc608)
        %212 = arith.muli %210, %211 : i32 loc(#loc608)
        %213 = arith.subi %c1_i32, %211 : i32 loc(#loc609)
        %214 = arith.muli %213, %c16_i32 : i32 loc(#loc610)
        %215 = arith.addi %212, %214 : i32 loc(#loc611)
        %216 = arith.muli %215, %c64_i32 : i32 loc(#loc392)
        %217 = tt.splat %216 : i32 -> tensor<64x16xi32> loc(#loc393)
        %218 = tt.addptr %arg23, %217 : tensor<64x16x!tt.ptr<f32>>, tensor<64x16xi32> loc(#loc393)
        %219 = arith.muli %215, %c768_i32 : i32 loc(#loc394)
        %220 = tt.splat %219 : i32 -> tensor<64x16xi32> loc(#loc395)
        %221 = tt.addptr %arg24, %220 : tensor<64x16x!tt.ptr<f32>>, tensor<64x16xi32> loc(#loc395)
        %222 = tt.splat %215 : i32 -> tensor<16xi32> loc(#loc396)
        %223 = arith.addi %arg25, %222 : tensor<16xi32> loc(#loc396)
        scf.yield %197, %218, %221, %223 : tensor<16x64xf32>, tensor<64x16x!tt.ptr<f32>>, tensor<64x16x!tt.ptr<f32>>, tensor<16xi32> loc(#loc397)
      } loc(#loc321)
      %94 = tt.addptr %arg13, %24 : !tt.ptr<i32>, i32 loc(#loc162)
      %95 = tt.load %94 : !tt.ptr<i32> loc(#loc163)
      %96 = arith.muli %95, %c128_i32 : i32 loc(#loc164)
      %97 = tt.addptr %arg12, %24 : !tt.ptr<i32>, i32 loc(#loc165)
      %98 = tt.load %97 : !tt.ptr<i32> loc(#loc166)
      %99 = tt.splat %96 : i32 -> tensor<16xi32> loc(#loc167)
      %100 = arith.addi %99, %41 : tensor<16xi32> loc(#loc167)
      %101 = tt.expand_dims %100 {axis = 0 : i32} : tensor<16xi32> -> tensor<1x16xi32> loc(#loc398)
      %102 = arith.muli %101, %cst_12 : tensor<1x16xi32> loc(#loc399)
      %103 = tt.addptr %80, %102 : tensor<1x16x!tt.ptr<f32>>, tensor<1x16xi32> loc(#loc400)
      %104 = tt.broadcast %103 : tensor<1x16x!tt.ptr<f32>> -> tensor<64x16x!tt.ptr<f32>> loc(#loc401)
      %105 = tt.addptr %104, %84 : tensor<64x16x!tt.ptr<f32>>, tensor<64x16xi32> loc(#loc401)
      %106 = arith.muli %101, %cst_0 : tensor<1x16xi32> loc(#loc402)
      %107 = tt.addptr %87, %106 : tensor<1x16x!tt.ptr<f32>>, tensor<1x16xi32> loc(#loc403)
      %108 = tt.broadcast %107 : tensor<1x16x!tt.ptr<f32>> -> tensor<64x16x!tt.ptr<f32>> loc(#loc404)
      %109 = tt.addptr %108, %84 : tensor<64x16x!tt.ptr<f32>>, tensor<64x16xi32> loc(#loc404)
      %110 = arith.muli %98, %c8_i32 : i32 loc(#loc405)
      %111 = arith.minsi %110, %c4_i32 : i32 loc(#loc406)
      %112:4 = scf.for %arg21 = %c0_i32 to %111 step %c1_i32 iter_args(%arg22 = %93#0, %arg23 = %105, %arg24 = %109, %arg25 = %100) -> (tensor<16x64xf32>, tensor<64x16x!tt.ptr<f32>>, tensor<64x16x!tt.ptr<f32>>, tensor<16xi32>)  : i32 {
        %121 = tt.expand_dims %arg25 {axis = 0 : i32} : tensor<16xi32> -> tensor<1x16xi32> loc(#loc770)
        %122 = arith.cmpi slt, %121, %cst_12 : tensor<1x16xi32> loc(#loc771)
        %123 = tt.broadcast %122 : tensor<1x16xi1> -> tensor<64x16xi1> loc(#loc772)
        %124 = tt.load %arg23, %123, %cst_11 : tensor<64x16x!tt.ptr<f32>> loc(#loc772)
        %125 = tt.dot %54, %124, %cst_10, inputPrecision = tf32 : tensor<16x64xf32> * tensor<64x16xf32> -> tensor<16x16xf32> loc(#loc612)
        %126 = arith.mulf %125, %cst_9 : tensor<16x16xf32> loc(#loc613)
        %127 = tt.broadcast %122 : tensor<1x16xi1> -> tensor<16x16xi1> loc(#loc614)
        %128 = arith.select %127, %126, %cst_8 : tensor<16x16xi1>, tensor<16x16xf32> loc(#loc614)
        %129 = arith.mulf %128, %cst_3 : tensor<16x16xf32> loc(#loc615)
        %130 = tt.broadcast %70 : tensor<16x1xf32> -> tensor<16x16xf32> loc(#loc616)
        %131 = arith.subf %129, %130 : tensor<16x16xf32> loc(#loc616)
        %132 = math.exp2 %131 : tensor<16x16xf32> loc(#loc617)
        %133 = tt.load %arg24, %123, %cst_11 : tensor<64x16x!tt.ptr<f32>> loc(#loc773)
        %134 = tt.dot %60, %133, %cst_10, inputPrecision = tf32 : tensor<16x64xf32> * tensor<64x16xf32> -> tensor<16x16xf32> loc(#loc618)
        %135 = tt.expand_dims %64 {axis = 1 : i32} : tensor<16xf32> -> tensor<16x1xf32> loc(#loc619)
        %136 = tt.broadcast %135 : tensor<16x1xf32> -> tensor<16x16xf32> loc(#loc620)
        %137 = arith.subf %134, %136 : tensor<16x16xf32> loc(#loc620)
        %138 = arith.mulf %132, %137 : tensor<16x16xf32> loc(#loc621)
        %139 = arith.select %127, %138, %cst_10 : tensor<16x16xi1>, tensor<16x16xf32> loc(#loc622)
        %140 = tt.trans %124 {order = array<i32: 1, 0>} : tensor<64x16xf32> -> tensor<16x64xf32> loc(#loc623)
        %141 = tt.dot %139, %140, %arg22, inputPrecision = tf32 : tensor<16x16xf32> * tensor<16x64xf32> -> tensor<16x64xf32> loc(#loc624)
        %142 = arith.divsi %arg21, %c8_i32 : i32 loc(#loc625)
        %143 = tt.addptr %94, %142 : !tt.ptr<i32>, i32 loc(#loc626)
        %144 = tt.load %143 evictionPolicy = evict_last : !tt.ptr<i32> loc(#loc627)
        %145 = arith.addi %142, %c1_i32 : i32 loc(#loc628)
        %146 = arith.cmpi slt, %145, %98 : i32 loc(#loc629)
        %147 = tt.addptr %143, %c1_i32 : !tt.ptr<i32>, i32 loc(#loc630)
        %148 = tt.load %147, %146 evictionPolicy = evict_last : !tt.ptr<i32> loc(#loc631)
        %149 = arith.addi %arg21, %c1_i32 : i32 loc(#loc632)
        %150 = arith.remsi %149, %c8_i32 : i32 loc(#loc633)
        %151 = arith.cmpi eq, %150, %c0_i32 : i32 loc(#loc634)
        %152 = arith.subi %148, %144 : i32 loc(#loc635)
        %153 = arith.muli %152, %c128_i32 : i32 loc(#loc636)
        %154 = arith.subi %153, %c112_i32 : i32 loc(#loc637)
        %155 = arith.extui %151 : i1 to i32 loc(#loc638)
        %156 = arith.muli %154, %155 : i32 loc(#loc638)
        %157 = arith.subi %c1_i32, %155 : i32 loc(#loc639)
        %158 = arith.muli %157, %c16_i32 : i32 loc(#loc640)
        %159 = arith.addi %156, %158 : i32 loc(#loc641)
        %160 = arith.muli %159, %c64_i32 : i32 loc(#loc408)
        %161 = tt.splat %160 : i32 -> tensor<64x16xi32> loc(#loc409)
        %162 = tt.addptr %arg23, %161 : tensor<64x16x!tt.ptr<f32>>, tensor<64x16xi32> loc(#loc409)
        %163 = arith.muli %159, %c768_i32 : i32 loc(#loc410)
        %164 = tt.splat %163 : i32 -> tensor<64x16xi32> loc(#loc411)
        %165 = tt.addptr %arg24, %164 : tensor<64x16x!tt.ptr<f32>>, tensor<64x16xi32> loc(#loc411)
        %166 = tt.splat %159 : i32 -> tensor<16xi32> loc(#loc412)
        %167 = arith.addi %arg25, %166 : tensor<16xi32> loc(#loc412)
        scf.yield %141, %162, %165, %167 : tensor<16x64xf32>, tensor<64x16x!tt.ptr<f32>>, tensor<64x16x!tt.ptr<f32>>, tensor<16xi32> loc(#loc413)
      } loc(#loc407)
      %113 = tt.splat %37 : !tt.ptr<f32> -> tensor<16x1x!tt.ptr<f32>> loc(#loc169)
      %114 = tt.addptr %113, %45 : tensor<16x1x!tt.ptr<f32>>, tensor<16x1xi32> loc(#loc169)
      %115 = tt.broadcast %114 : tensor<16x1x!tt.ptr<f32>> -> tensor<16x64x!tt.ptr<f32>> loc(#loc170)
      %116 = tt.addptr %115, %50 : tensor<16x64x!tt.ptr<f32>>, tensor<16x64xi32> loc(#loc170)
      %117 = arith.mulf %112#0, %cst_16 : tensor<16x64xf32> loc(#loc171)
      %118 = arith.cmpi slt, %48, %cst_15 : tensor<1x64xi32> loc(#loc172)
      %119 = tt.broadcast %118 : tensor<1x64xi1> -> tensor<16x64xi1> loc(#loc173)
      %120 = arith.andi %53, %119 : tensor<16x64xi1> loc(#loc173)
      tt.store %116, %117, %120 : tensor<16x64x!tt.ptr<f32>> loc(#loc174)
    } else {
      %20 = arith.divsi %0, %c8_i32 : i32 loc(#loc175)
      %21 = arith.muli %0, %c16_i32 : i32 loc(#loc176)
      %22 = tt.make_range {end = 16 : i32, start = 0 : i32} : tensor<16xi32> loc(#loc177)
      %23 = tt.splat %21 : i32 -> tensor<16xi32> loc(#loc178)
      %24 = arith.addi %23, %22 : tensor<16xi32> loc(#loc178)
      %25 = tt.expand_dims %24 {axis = 1 : i32} : tensor<16xi32> -> tensor<16x1xi32> loc(#loc414)
      %26 = arith.muli %25, %cst_17 : tensor<16x1xi32> loc(#loc415)
      %27 = tt.splat %15 : !tt.ptr<f32> -> tensor<16x1x!tt.ptr<f32>> loc(#loc416)
      %28 = tt.addptr %27, %26 : tensor<16x1x!tt.ptr<f32>>, tensor<16x1xi32> loc(#loc416)
      %29 = tt.expand_dims %18 {axis = 0 : i32} : tensor<64xi32> -> tensor<1x64xi32> loc(#loc417)
      %30 = tt.broadcast %28 : tensor<16x1x!tt.ptr<f32>> -> tensor<16x64x!tt.ptr<f32>> loc(#loc418)
      %31 = tt.broadcast %29 : tensor<1x64xi32> -> tensor<16x64xi32> loc(#loc418)
      %32 = tt.addptr %30, %31 : tensor<16x64x!tt.ptr<f32>>, tensor<16x64xi32> loc(#loc418)
      %33 = arith.cmpi slt, %25, %cst_17 : tensor<16x1xi32> loc(#loc419)
      %34 = tt.broadcast %33 : tensor<16x1xi1> -> tensor<16x64xi1> loc(#loc420)
      %35 = tt.load %32, %34, %cst_13 : tensor<16x64x!tt.ptr<f32>> loc(#loc420)
      %36 = arith.muli %25, %cst : tensor<16x1xi32> loc(#loc421)
      %37 = tt.splat %16 : !tt.ptr<f32> -> tensor<16x1x!tt.ptr<f32>> loc(#loc422)
      %38 = tt.addptr %37, %36 : tensor<16x1x!tt.ptr<f32>>, tensor<16x1xi32> loc(#loc422)
      %39 = tt.broadcast %38 : tensor<16x1x!tt.ptr<f32>> -> tensor<16x64x!tt.ptr<f32>> loc(#loc423)
      %40 = tt.addptr %39, %31 : tensor<16x64x!tt.ptr<f32>>, tensor<16x64xi32> loc(#loc423)
      %41 = tt.load %40, %34, %cst_13 : tensor<16x64x!tt.ptr<f32>> loc(#loc424)
      %42 = arith.addi %4, %12 : i32 loc(#loc181)
      %43 = arith.extsi %42 : i32 to i64 loc(#loc182)
      %44 = arith.muli %1, %c4_i32 : i32 loc(#loc183)
      %45 = arith.addi %44, %2 : i32 loc(#loc184)
      %46 = arith.muli %45, %c64_i32 : i32 loc(#loc185)
      %47 = arith.extsi %46 : i32 to i64 loc(#loc186)
      %48 = tt.addptr %arg0, %43 : !tt.ptr<f32>, i64 loc(#loc187)
      %49 = tt.addptr %arg5, %14 : !tt.ptr<f32>, i64 loc(#loc188)
      %50 = tt.addptr %arg3, %47 : !tt.ptr<f32>, i64 loc(#loc189)
      %51 = tt.addptr %arg4, %47 : !tt.ptr<f32>, i64 loc(#loc190)
      %52 = tt.addptr %arg11, %20 : !tt.ptr<i32>, i32 loc(#loc191)
      %53 = tt.load %52 : !tt.ptr<i32> loc(#loc192)
      %54 = arith.muli %53, %c128_i32 : i32 loc(#loc193)
      %55 = tt.addptr %arg10, %20 : !tt.ptr<i32>, i32 loc(#loc194)
      %56 = tt.load %55 : !tt.ptr<i32> loc(#loc195)
      %57 = tt.splat %54 : i32 -> tensor<16xi32> loc(#loc196)
      %58 = arith.addi %57, %22 : tensor<16xi32> loc(#loc196)
      %59 = tt.expand_dims %58 {axis = 0 : i32} : tensor<16xi32> -> tensor<1x16xi32> loc(#loc425)
      %60 = arith.muli %59, %cst_12 : tensor<1x16xi32> loc(#loc426)
      %61 = tt.splat %48 : !tt.ptr<f32> -> tensor<1x16x!tt.ptr<f32>> loc(#loc427)
      %62 = tt.addptr %61, %60 : tensor<1x16x!tt.ptr<f32>>, tensor<1x16xi32> loc(#loc427)
      %63 = tt.expand_dims %18 {axis = 1 : i32} : tensor<64xi32> -> tensor<64x1xi32> loc(#loc428)
      %64 = tt.broadcast %62 : tensor<1x16x!tt.ptr<f32>> -> tensor<64x16x!tt.ptr<f32>> loc(#loc429)
      %65 = tt.broadcast %63 : tensor<64x1xi32> -> tensor<64x16xi32> loc(#loc429)
      %66 = tt.addptr %64, %65 : tensor<64x16x!tt.ptr<f32>>, tensor<64x16xi32> loc(#loc429)
      %67 = tt.expand_dims %58 {axis = 1 : i32} : tensor<16xi32> -> tensor<16x1xi32> loc(#loc430)
      %68 = arith.muli %67, %cst_14 : tensor<16x1xi32> loc(#loc431)
      %69 = tt.splat %49 : !tt.ptr<f32> -> tensor<16x1x!tt.ptr<f32>> loc(#loc432)
      %70 = tt.addptr %69, %68 : tensor<16x1x!tt.ptr<f32>>, tensor<16x1xi32> loc(#loc432)
      %71 = tt.broadcast %70 : tensor<16x1x!tt.ptr<f32>> -> tensor<16x64x!tt.ptr<f32>> loc(#loc433)
      %72 = tt.addptr %71, %31 : tensor<16x64x!tt.ptr<f32>>, tensor<16x64xi32> loc(#loc433)
      %73 = arith.muli %56, %c8_i32 : i32 loc(#loc434)
      %74 = arith.minsi %73, %c4_i32 : i32 loc(#loc435)
      %75:5 = scf.for %arg21 = %c0_i32 to %74 step %c1_i32 iter_args(%arg22 = %cst_13, %arg23 = %cst_13, %arg24 = %66, %arg25 = %72, %arg26 = %58) -> (tensor<16x64xf32>, tensor<16x64xf32>, tensor<64x16x!tt.ptr<f32>>, tensor<16x64x!tt.ptr<f32>>, tensor<16xi32>)  : i32 {
        %113 = tt.expand_dims %arg26 {axis = 0 : i32} : tensor<16xi32> -> tensor<1x16xi32> loc(#loc774)
        %114 = arith.cmpi slt, %113, %cst_12 : tensor<1x16xi32> loc(#loc775)
        %115 = tt.broadcast %114 : tensor<1x16xi1> -> tensor<64x16xi1> loc(#loc776)
        %116 = tt.load %arg24, %115, %cst_11 : tensor<64x16x!tt.ptr<f32>> loc(#loc776)
        %117 = arith.cmpi slt, %arg26, %cst_20 : tensor<16xi32> loc(#loc645)
        %118 = tt.splat %50 : !tt.ptr<f32> -> tensor<16x!tt.ptr<f32>> loc(#loc646)
        %119 = tt.addptr %118, %arg26 : tensor<16x!tt.ptr<f32>>, tensor<16xi32> loc(#loc646)
        %120 = tt.load %119, %117 : tensor<16x!tt.ptr<f32>> loc(#loc647)
        %121 = arith.cmpf oeq, %120, %cst_19 : tensor<16xf32> loc(#loc648)
        %122 = arith.select %121, %cst_18, %120 : tensor<16xi1>, tensor<16xf32> loc(#loc649)
        %123 = tt.dot %35, %116, %cst_10, inputPrecision = tf32 : tensor<16x64xf32> * tensor<64x16xf32> -> tensor<16x16xf32> loc(#loc650)
        %124 = arith.mulf %123, %cst_9 : tensor<16x16xf32> loc(#loc651)
        %125 = arith.remsi %113, %cst_12 : tensor<1x16xi32> loc(#loc777)
        %126 = arith.remsi %25, %cst_17 : tensor<16x1xi32> loc(#loc778)
        %127 = tt.broadcast %114 : tensor<1x16xi1> -> tensor<16x16xi1> loc(#loc654)
        %128 = arith.select %127, %124, %cst_8 : tensor<16x16xi1>, tensor<16x16xf32> loc(#loc654)
        %129 = tt.splat %arg16 : !tt.ptr<i32> -> tensor<1x16x!tt.ptr<i32>> loc(#loc655)
        %130 = tt.addptr %129, %125 : tensor<1x16x!tt.ptr<i32>>, tensor<1x16xi32> loc(#loc655)
        %131 = tt.load %130 : tensor<1x16x!tt.ptr<i32>> loc(#loc656)
        %132 = tt.splat %arg16 : !tt.ptr<i32> -> tensor<16x1x!tt.ptr<i32>> loc(#loc657)
        %133 = tt.addptr %132, %126 : tensor<16x1x!tt.ptr<i32>>, tensor<16x1xi32> loc(#loc657)
        %134 = tt.load %133 : tensor<16x1x!tt.ptr<i32>> loc(#loc658)
        %135 = tt.broadcast %131 : tensor<1x16xi32> -> tensor<16x16xi32> loc(#loc659)
        %136 = tt.broadcast %134 : tensor<16x1xi32> -> tensor<16x16xi32> loc(#loc659)
        %137 = arith.cmpi sgt, %135, %136 : tensor<16x16xi32> loc(#loc659)
        %138 = arith.cmpi eq, %135, %136 : tensor<16x16xi32> loc(#loc660)
        %139 = tt.splat %arg17 : !tt.ptr<i1> -> tensor<1x16x!tt.ptr<i1>> loc(#loc661)
        %140 = tt.addptr %139, %125 : tensor<1x16x!tt.ptr<i1>>, tensor<1x16xi32> loc(#loc661)
        %141 = tt.bitcast %140 : tensor<1x16x!tt.ptr<i1>> -> tensor<1x16x!tt.ptr<i8>> loc(#loc662)
        %142 = tt.load %141 : tensor<1x16x!tt.ptr<i8>> loc(#loc662)
        %143 = arith.cmpi ne, %142, %cst_2 : tensor<1x16xi8> loc(#loc662)
        %144 = arith.extui %143 : tensor<1x16xi1> to tensor<1x16xi32> loc(#loc663)
        %145 = arith.cmpi eq, %144, %cst_1 : tensor<1x16xi32> loc(#loc663)
        %146 = tt.broadcast %125 : tensor<1x16xi32> -> tensor<16x16xi32> loc(#loc664)
        %147 = tt.broadcast %126 : tensor<16x1xi32> -> tensor<16x16xi32> loc(#loc664)
        %148 = arith.cmpi sge, %146, %147 : tensor<16x16xi32> loc(#loc664)
        %149 = tt.broadcast %145 : tensor<1x16xi1> -> tensor<16x16xi1> loc(#loc665)
        %150 = arith.ori %149, %148 : tensor<16x16xi1> loc(#loc665)
        %151 = arith.andi %138, %150 : tensor<16x16xi1> loc(#loc666)
        %152 = arith.muli %125, %cst_4 : tensor<1x16xi32> loc(#loc667)
        %153 = tt.splat %arg18 : !tt.ptr<f32> -> tensor<1x16x!tt.ptr<f32>> loc(#loc668)
        %154 = tt.addptr %153, %152 : tensor<1x16x!tt.ptr<f32>>, tensor<1x16xi32> loc(#loc668)
        %155 = tt.load %154 : tensor<1x16x!tt.ptr<f32>> loc(#loc669)
        %156 = arith.muli %126, %cst_5 : tensor<16x1xi32> loc(#loc670)
        %157 = tt.splat %arg18 : !tt.ptr<f32> -> tensor<16x1x!tt.ptr<f32>> loc(#loc671)
        %158 = tt.addptr %157, %156 : tensor<16x1x!tt.ptr<f32>>, tensor<16x1xi32> loc(#loc671)
        %159 = tt.load %158 : tensor<16x1x!tt.ptr<f32>> loc(#loc672)
        %160 = tt.broadcast %155 : tensor<1x16xf32> -> tensor<16x16xf32> loc(#loc673)
        %161 = tt.broadcast %159 : tensor<16x1xf32> -> tensor<16x16xf32> loc(#loc673)
        %162 = arith.subf %160, %161 : tensor<16x16xf32> loc(#loc673)
        %163 = arith.mulf %162, %162 : tensor<16x16xf32> loc(#loc674)
        %164 = tt.addptr %arg18, %c1_i32 : !tt.ptr<f32>, i32 loc(#loc675)
        %165 = tt.splat %164 : !tt.ptr<f32> -> tensor<1x16x!tt.ptr<f32>> loc(#loc676)
        %166 = tt.addptr %165, %152 : tensor<1x16x!tt.ptr<f32>>, tensor<1x16xi32> loc(#loc676)
        %167 = tt.load %166 : tensor<1x16x!tt.ptr<f32>> loc(#loc677)
        %168 = tt.splat %164 : !tt.ptr<f32> -> tensor<16x1x!tt.ptr<f32>> loc(#loc678)
        %169 = tt.addptr %168, %156 : tensor<16x1x!tt.ptr<f32>>, tensor<16x1xi32> loc(#loc678)
        %170 = tt.load %169 : tensor<16x1x!tt.ptr<f32>> loc(#loc679)
        %171 = tt.broadcast %167 : tensor<1x16xf32> -> tensor<16x16xf32> loc(#loc680)
        %172 = tt.broadcast %170 : tensor<16x1xf32> -> tensor<16x16xf32> loc(#loc680)
        %173 = arith.subf %171, %172 : tensor<16x16xf32> loc(#loc680)
        %174 = arith.mulf %173, %173 : tensor<16x16xf32> loc(#loc681)
        %175 = arith.addf %163, %174 : tensor<16x16xf32> loc(#loc682)
        %176 = tt.load %arg19 : !tt.ptr<f32> loc(#loc683)
        %177 = tt.splat %176 : f32 -> tensor<16x16xf32> loc(#loc684)
        %178 = arith.cmpf olt, %175, %177 : tensor<16x16xf32> loc(#loc684)
        %179 = arith.andi %151, %178 : tensor<16x16xi1> loc(#loc685)
        %180 = arith.ori %137, %179 : tensor<16x16xi1> loc(#loc686)
        %181 = arith.select %180, %128, %cst_8 : tensor<16x16xi1>, tensor<16x16xf32> loc(#loc687)
        %182 = arith.mulf %181, %cst_3 : tensor<16x16xf32> loc(#loc688)
        %183 = tt.expand_dims %122 {axis = 0 : i32} : tensor<16xf32> -> tensor<1x16xf32> loc(#loc689)
        %184 = tt.broadcast %183 : tensor<1x16xf32> -> tensor<16x16xf32> loc(#loc690)
        %185 = arith.subf %182, %184 : tensor<16x16xf32> loc(#loc690)
        %186 = math.exp2 %185 : tensor<16x16xf32> loc(#loc691)
        %187 = tt.expand_dims %arg26 {axis = 1 : i32} : tensor<16xi32> -> tensor<16x1xi32> loc(#loc779)
        %188 = arith.cmpi slt, %187, %cst_17 : tensor<16x1xi32> loc(#loc780)
        %189 = tt.broadcast %188 : tensor<16x1xi1> -> tensor<16x64xi1> loc(#loc781)
        %190 = tt.load %arg25, %189, %cst_13 : tensor<16x64x!tt.ptr<f32>> loc(#loc781)
        %191 = tt.dot %186, %190, %arg23, inputPrecision = tf32 : tensor<16x16xf32> * tensor<16x64xf32> -> tensor<16x64xf32> loc(#loc695)
        %192 = tt.splat %51 : !tt.ptr<f32> -> tensor<16x!tt.ptr<f32>> loc(#loc696)
        %193 = tt.addptr %192, %arg26 : tensor<16x!tt.ptr<f32>>, tensor<16xi32> loc(#loc696)
        %194 = tt.load %193, %117 : tensor<16x!tt.ptr<f32>> loc(#loc697)
        %195 = tt.trans %190 {order = array<i32: 1, 0>} : tensor<16x64xf32> -> tensor<64x16xf32> loc(#loc698)
        %196 = tt.dot %41, %195, %cst_10, inputPrecision = tf32 : tensor<16x64xf32> * tensor<64x16xf32> -> tensor<16x16xf32> loc(#loc699)
        %197 = tt.expand_dims %194 {axis = 0 : i32} : tensor<16xf32> -> tensor<1x16xf32> loc(#loc700)
        %198 = tt.broadcast %197 : tensor<1x16xf32> -> tensor<16x16xf32> loc(#loc701)
        %199 = arith.subf %196, %198 : tensor<16x16xf32> loc(#loc701)
        %200 = arith.mulf %186, %199 : tensor<16x16xf32> loc(#loc702)
        %201 = arith.select %127, %200, %cst_10 : tensor<16x16xi1>, tensor<16x16xf32> loc(#loc703)
        %202 = arith.select %180, %201, %cst_10 : tensor<16x16xi1>, tensor<16x16xf32> loc(#loc704)
        %203 = tt.trans %116 {order = array<i32: 1, 0>} : tensor<64x16xf32> -> tensor<16x64xf32> loc(#loc705)
        %204 = tt.dot %202, %203, %arg22, inputPrecision = tf32 : tensor<16x16xf32> * tensor<16x64xf32> -> tensor<16x64xf32> loc(#loc706)
        %205 = arith.divsi %arg21, %c8_i32 : i32 loc(#loc707)
        %206 = tt.addptr %52, %205 : !tt.ptr<i32>, i32 loc(#loc708)
        %207 = tt.load %206 evictionPolicy = evict_last : !tt.ptr<i32> loc(#loc709)
        %208 = arith.addi %205, %c1_i32 : i32 loc(#loc710)
        %209 = arith.cmpi slt, %208, %56 : i32 loc(#loc711)
        %210 = tt.addptr %206, %c1_i32 : !tt.ptr<i32>, i32 loc(#loc712)
        %211 = tt.load %210, %209 evictionPolicy = evict_last : !tt.ptr<i32> loc(#loc713)
        %212 = arith.addi %arg21, %c1_i32 : i32 loc(#loc714)
        %213 = arith.remsi %212, %c8_i32 : i32 loc(#loc715)
        %214 = arith.cmpi eq, %213, %c0_i32 : i32 loc(#loc716)
        %215 = arith.subi %211, %207 : i32 loc(#loc717)
        %216 = arith.muli %215, %c128_i32 : i32 loc(#loc718)
        %217 = arith.subi %216, %c112_i32 : i32 loc(#loc719)
        %218 = arith.extui %214 : i1 to i32 loc(#loc720)
        %219 = arith.muli %217, %218 : i32 loc(#loc720)
        %220 = arith.subi %c1_i32, %218 : i32 loc(#loc721)
        %221 = arith.muli %220, %c16_i32 : i32 loc(#loc722)
        %222 = arith.addi %219, %221 : i32 loc(#loc723)
        %223 = arith.muli %222, %c64_i32 : i32 loc(#loc519)
        %224 = tt.splat %223 : i32 -> tensor<64x16xi32> loc(#loc520)
        %225 = tt.addptr %arg24, %224 : tensor<64x16x!tt.ptr<f32>>, tensor<64x16xi32> loc(#loc520)
        %226 = arith.muli %222, %c256_i32 : i32 loc(#loc521)
        %227 = tt.splat %226 : i32 -> tensor<16x64xi32> loc(#loc522)
        %228 = tt.addptr %arg25, %227 : tensor<16x64x!tt.ptr<f32>>, tensor<16x64xi32> loc(#loc522)
        %229 = tt.splat %222 : i32 -> tensor<16xi32> loc(#loc523)
        %230 = arith.addi %arg26, %229 : tensor<16xi32> loc(#loc523)
        scf.yield %204, %191, %225, %228, %230 : tensor<16x64xf32>, tensor<16x64xf32>, tensor<64x16x!tt.ptr<f32>>, tensor<16x64x!tt.ptr<f32>>, tensor<16xi32> loc(#loc524)
      } loc(#loc436)
      %76 = tt.addptr %arg15, %20 : !tt.ptr<i32>, i32 loc(#loc280)
      %77 = tt.load %76 : !tt.ptr<i32> loc(#loc281)
      %78 = arith.muli %77, %c128_i32 : i32 loc(#loc282)
      %79 = tt.addptr %arg14, %20 : !tt.ptr<i32>, i32 loc(#loc283)
      %80 = tt.load %79 : !tt.ptr<i32> loc(#loc284)
      %81 = tt.splat %78 : i32 -> tensor<16xi32> loc(#loc285)
      %82 = arith.addi %81, %22 : tensor<16xi32> loc(#loc285)
      %83 = tt.expand_dims %82 {axis = 0 : i32} : tensor<16xi32> -> tensor<1x16xi32> loc(#loc525)
      %84 = arith.muli %83, %cst_12 : tensor<1x16xi32> loc(#loc526)
      %85 = tt.addptr %61, %84 : tensor<1x16x!tt.ptr<f32>>, tensor<1x16xi32> loc(#loc527)
      %86 = tt.broadcast %85 : tensor<1x16x!tt.ptr<f32>> -> tensor<64x16x!tt.ptr<f32>> loc(#loc528)
      %87 = tt.addptr %86, %65 : tensor<64x16x!tt.ptr<f32>>, tensor<64x16xi32> loc(#loc528)
      %88 = tt.expand_dims %82 {axis = 1 : i32} : tensor<16xi32> -> tensor<16x1xi32> loc(#loc529)
      %89 = arith.muli %88, %cst_14 : tensor<16x1xi32> loc(#loc530)
      %90 = tt.addptr %69, %89 : tensor<16x1x!tt.ptr<f32>>, tensor<16x1xi32> loc(#loc531)
      %91 = tt.broadcast %90 : tensor<16x1x!tt.ptr<f32>> -> tensor<16x64x!tt.ptr<f32>> loc(#loc532)
      %92 = tt.addptr %91, %31 : tensor<16x64x!tt.ptr<f32>>, tensor<16x64xi32> loc(#loc532)
      %93 = arith.muli %80, %c8_i32 : i32 loc(#loc533)
      %94 = arith.minsi %93, %c4_i32 : i32 loc(#loc534)
      %95:5 = scf.for %arg21 = %c0_i32 to %94 step %c1_i32 iter_args(%arg22 = %75#0, %arg23 = %75#1, %arg24 = %87, %arg25 = %92, %arg26 = %82) -> (tensor<16x64xf32>, tensor<16x64xf32>, tensor<64x16x!tt.ptr<f32>>, tensor<16x64x!tt.ptr<f32>>, tensor<16xi32>)  : i32 {
        %113 = tt.expand_dims %arg26 {axis = 0 : i32} : tensor<16xi32> -> tensor<1x16xi32> loc(#loc782)
        %114 = arith.cmpi slt, %113, %cst_12 : tensor<1x16xi32> loc(#loc783)
        %115 = tt.broadcast %114 : tensor<1x16xi1> -> tensor<64x16xi1> loc(#loc784)
        %116 = tt.load %arg24, %115, %cst_11 : tensor<64x16x!tt.ptr<f32>> loc(#loc784)
        %117 = arith.cmpi slt, %arg26, %cst_20 : tensor<16xi32> loc(#loc724)
        %118 = tt.splat %50 : !tt.ptr<f32> -> tensor<16x!tt.ptr<f32>> loc(#loc725)
        %119 = tt.addptr %118, %arg26 : tensor<16x!tt.ptr<f32>>, tensor<16xi32> loc(#loc725)
        %120 = tt.load %119, %117 : tensor<16x!tt.ptr<f32>> loc(#loc726)
        %121 = arith.cmpf oeq, %120, %cst_19 : tensor<16xf32> loc(#loc727)
        %122 = arith.select %121, %cst_18, %120 : tensor<16xi1>, tensor<16xf32> loc(#loc728)
        %123 = tt.dot %35, %116, %cst_10, inputPrecision = tf32 : tensor<16x64xf32> * tensor<64x16xf32> -> tensor<16x16xf32> loc(#loc729)
        %124 = arith.mulf %123, %cst_9 : tensor<16x16xf32> loc(#loc730)
        %125 = tt.broadcast %114 : tensor<1x16xi1> -> tensor<16x16xi1> loc(#loc731)
        %126 = arith.select %125, %124, %cst_8 : tensor<16x16xi1>, tensor<16x16xf32> loc(#loc731)
        %127 = arith.mulf %126, %cst_3 : tensor<16x16xf32> loc(#loc732)
        %128 = tt.expand_dims %122 {axis = 0 : i32} : tensor<16xf32> -> tensor<1x16xf32> loc(#loc733)
        %129 = tt.broadcast %128 : tensor<1x16xf32> -> tensor<16x16xf32> loc(#loc734)
        %130 = arith.subf %127, %129 : tensor<16x16xf32> loc(#loc734)
        %131 = math.exp2 %130 : tensor<16x16xf32> loc(#loc735)
        %132 = tt.expand_dims %arg26 {axis = 1 : i32} : tensor<16xi32> -> tensor<16x1xi32> loc(#loc785)
        %133 = arith.cmpi slt, %132, %cst_17 : tensor<16x1xi32> loc(#loc786)
        %134 = tt.broadcast %133 : tensor<16x1xi1> -> tensor<16x64xi1> loc(#loc787)
        %135 = tt.load %arg25, %134, %cst_13 : tensor<16x64x!tt.ptr<f32>> loc(#loc787)
        %136 = tt.dot %131, %135, %arg23, inputPrecision = tf32 : tensor<16x16xf32> * tensor<16x64xf32> -> tensor<16x64xf32> loc(#loc736)
        %137 = tt.splat %51 : !tt.ptr<f32> -> tensor<16x!tt.ptr<f32>> loc(#loc737)
        %138 = tt.addptr %137, %arg26 : tensor<16x!tt.ptr<f32>>, tensor<16xi32> loc(#loc737)
        %139 = tt.load %138, %117 : tensor<16x!tt.ptr<f32>> loc(#loc738)
        %140 = tt.trans %135 {order = array<i32: 1, 0>} : tensor<16x64xf32> -> tensor<64x16xf32> loc(#loc739)
        %141 = tt.dot %41, %140, %cst_10, inputPrecision = tf32 : tensor<16x64xf32> * tensor<64x16xf32> -> tensor<16x16xf32> loc(#loc740)
        %142 = tt.expand_dims %139 {axis = 0 : i32} : tensor<16xf32> -> tensor<1x16xf32> loc(#loc741)
        %143 = tt.broadcast %142 : tensor<1x16xf32> -> tensor<16x16xf32> loc(#loc742)
        %144 = arith.subf %141, %143 : tensor<16x16xf32> loc(#loc742)
        %145 = arith.mulf %131, %144 : tensor<16x16xf32> loc(#loc743)
        %146 = arith.select %125, %145, %cst_10 : tensor<16x16xi1>, tensor<16x16xf32> loc(#loc744)
        %147 = tt.trans %116 {order = array<i32: 1, 0>} : tensor<64x16xf32> -> tensor<16x64xf32> loc(#loc745)
        %148 = tt.dot %146, %147, %arg22, inputPrecision = tf32 : tensor<16x16xf32> * tensor<16x64xf32> -> tensor<16x64xf32> loc(#loc746)
        %149 = arith.divsi %arg21, %c8_i32 : i32 loc(#loc747)
        %150 = tt.addptr %76, %149 : !tt.ptr<i32>, i32 loc(#loc748)
        %151 = tt.load %150 evictionPolicy = evict_last : !tt.ptr<i32> loc(#loc749)
        %152 = arith.addi %149, %c1_i32 : i32 loc(#loc750)
        %153 = arith.cmpi slt, %152, %80 : i32 loc(#loc751)
        %154 = tt.addptr %150, %c1_i32 : !tt.ptr<i32>, i32 loc(#loc752)
        %155 = tt.load %154, %153 evictionPolicy = evict_last : !tt.ptr<i32> loc(#loc753)
        %156 = arith.addi %arg21, %c1_i32 : i32 loc(#loc754)
        %157 = arith.remsi %156, %c8_i32 : i32 loc(#loc755)
        %158 = arith.cmpi eq, %157, %c0_i32 : i32 loc(#loc756)
        %159 = arith.subi %155, %151 : i32 loc(#loc757)
        %160 = arith.muli %159, %c128_i32 : i32 loc(#loc758)
        %161 = arith.subi %160, %c112_i32 : i32 loc(#loc759)
        %162 = arith.extui %158 : i1 to i32 loc(#loc760)
        %163 = arith.muli %161, %162 : i32 loc(#loc760)
        %164 = arith.subi %c1_i32, %162 : i32 loc(#loc761)
        %165 = arith.muli %164, %c16_i32 : i32 loc(#loc762)
        %166 = arith.addi %163, %165 : i32 loc(#loc763)
        %167 = arith.muli %166, %c64_i32 : i32 loc(#loc536)
        %168 = tt.splat %167 : i32 -> tensor<64x16xi32> loc(#loc537)
        %169 = tt.addptr %arg24, %168 : tensor<64x16x!tt.ptr<f32>>, tensor<64x16xi32> loc(#loc537)
        %170 = arith.muli %166, %c256_i32 : i32 loc(#loc538)
        %171 = tt.splat %170 : i32 -> tensor<16x64xi32> loc(#loc539)
        %172 = tt.addptr %arg25, %171 : tensor<16x64x!tt.ptr<f32>>, tensor<16x64xi32> loc(#loc539)
        %173 = tt.splat %166 : i32 -> tensor<16xi32> loc(#loc540)
        %174 = arith.addi %arg26, %173 : tensor<16xi32> loc(#loc540)
        scf.yield %148, %136, %169, %172, %174 : tensor<16x64xf32>, tensor<16x64xf32>, tensor<64x16x!tt.ptr<f32>>, tensor<16x64x!tt.ptr<f32>>, tensor<16xi32> loc(#loc541)
      } loc(#loc535)
      %96 = arith.muli %25, %cst_14 : tensor<16x1xi32> loc(#loc287)
      %97 = tt.splat %17 : !tt.ptr<f32> -> tensor<16x1x!tt.ptr<f32>> loc(#loc288)
      %98 = tt.addptr %97, %96 : tensor<16x1x!tt.ptr<f32>>, tensor<16x1xi32> loc(#loc288)
      %99 = tt.broadcast %98 : tensor<16x1x!tt.ptr<f32>> -> tensor<16x64x!tt.ptr<f32>> loc(#loc289)
      %100 = tt.addptr %99, %31 : tensor<16x64x!tt.ptr<f32>>, tensor<16x64xi32> loc(#loc289)
      %101 = arith.cmpi slt, %29, %cst_15 : tensor<1x64xi32> loc(#loc290)
      %102 = tt.broadcast %101 : tensor<1x64xi1> -> tensor<16x64xi1> loc(#loc291)
      %103 = arith.andi %34, %102 : tensor<16x64xi1> loc(#loc291)
      tt.store %100, %95#1, %103 : tensor<16x64x!tt.ptr<f32>> loc(#loc292)
      %104 = arith.mulf %95#0, %cst_16 : tensor<16x64xf32> loc(#loc293)
      %105 = tt.broadcast %26 : tensor<16x1xi32> -> tensor<16x64xi32> loc(#loc294)
      %106 = arith.addi %31, %105 : tensor<16x64xi32> loc(#loc294)
      %107 = tt.splat %4 : i32 -> tensor<16x64xi32> loc(#loc295)
      %108 = arith.addi %106, %107 : tensor<16x64xi32> loc(#loc295)
      %109 = tt.splat %12 : i32 -> tensor<16x64xi32> loc(#loc296)
      %110 = arith.addi %108, %109 : tensor<16x64xi32> loc(#loc296)
      %111 = tt.splat %arg20 : !tt.ptr<f32> -> tensor<16x64x!tt.ptr<f32>> loc(#loc297)
      %112 = tt.addptr %111, %110 : tensor<16x64x!tt.ptr<f32>>, tensor<16x64xi32> loc(#loc297)
      tt.store %112, %104, %34 : tensor<16x64x!tt.ptr<f32>> loc(#loc298)
    } loc(#loc23)
    tt.return loc(#loc299)
  } loc(#loc)
} loc(#loc)
#loc1 = loc(unknown)
#loc2 = loc("./.inductor_cache\\ip\\cipvtvqwjdvujb4mfis64wva65gwpozt6lbtb5ucsmecp3k5rnor.py":96:49)
#loc3 = loc("./.inductor_cache\\ip\\cipvtvqwjdvujb4mfis64wva65gwpozt6lbtb5ucsmecp3k5rnor.py":111:24)
#loc4 = loc("./.inductor_cache\\ip\\cipvtvqwjdvujb4mfis64wva65gwpozt6lbtb5ucsmecp3k5rnor.py":115:27)
#loc5 = loc("./.inductor_cache\\ip\\cipvtvqwjdvujb4mfis64wva65gwpozt6lbtb5ucsmecp3k5rnor.py":116:28)
#loc6 = loc("./.inductor_cache\\ip\\cipvtvqwjdvujb4mfis64wva65gwpozt6lbtb5ucsmecp3k5rnor.py":117:23)
#loc7 = loc("./.inductor_cache\\ip\\cipvtvqwjdvujb4mfis64wva65gwpozt6lbtb5ucsmecp3k5rnor.py":124:25)
#loc8 = loc("./.inductor_cache\\ip\\cipvtvqwjdvujb4mfis64wva65gwpozt6lbtb5ucsmecp3k5rnor.py":124:47)
#loc9 = loc("./.inductor_cache\\ip\\cipvtvqwjdvujb4mfis64wva65gwpozt6lbtb5ucsmecp3k5rnor.py":124:35)
#loc10 = loc("./.inductor_cache\\ip\\cipvtvqwjdvujb4mfis64wva65gwpozt6lbtb5ucsmecp3k5rnor.py":124:59)
#loc11 = loc("./.inductor_cache\\ip\\cipvtvqwjdvujb4mfis64wva65gwpozt6lbtb5ucsmecp3k5rnor.py":125:25)
#loc12 = loc("./.inductor_cache\\ip\\cipvtvqwjdvujb4mfis64wva65gwpozt6lbtb5ucsmecp3k5rnor.py":125:47)
#loc13 = loc("./.inductor_cache\\ip\\cipvtvqwjdvujb4mfis64wva65gwpozt6lbtb5ucsmecp3k5rnor.py":125:35)
#loc14 = loc("./.inductor_cache\\ip\\cipvtvqwjdvujb4mfis64wva65gwpozt6lbtb5ucsmecp3k5rnor.py":125:59)
#loc15 = loc("./.inductor_cache\\ip\\cipvtvqwjdvujb4mfis64wva65gwpozt6lbtb5ucsmecp3k5rnor.py":128:50)
#loc16 = loc("./.inductor_cache\\ip\\cipvtvqwjdvujb4mfis64wva65gwpozt6lbtb5ucsmecp3k5rnor.py":128:37)
#loc17 = loc("./.inductor_cache\\ip\\cipvtvqwjdvujb4mfis64wva65gwpozt6lbtb5ucsmecp3k5rnor.py":128:61)
#loc18 = loc("./.inductor_cache\\ip\\cipvtvqwjdvujb4mfis64wva65gwpozt6lbtb5ucsmecp3k5rnor.py":131:9)
#loc19 = loc("./.inductor_cache\\ip\\cipvtvqwjdvujb4mfis64wva65gwpozt6lbtb5ucsmecp3k5rnor.py":132:9)
#loc20 = loc("./.inductor_cache\\ip\\cipvtvqwjdvujb4mfis64wva65gwpozt6lbtb5ucsmecp3k5rnor.py":133:10)
#loc21 = loc("./.inductor_cache\\ip\\cipvtvqwjdvujb4mfis64wva65gwpozt6lbtb5ucsmecp3k5rnor.py":136:26)
#loc22 = loc("./.inductor_cache\\ip\\cipvtvqwjdvujb4mfis64wva65gwpozt6lbtb5ucsmecp3k5rnor.py":139:14)
#loc23 = loc("./.inductor_cache\\ip\\cipvtvqwjdvujb4mfis64wva65gwpozt6lbtb5ucsmecp3k5rnor.py":139:7)
#loc24 = loc("./.inductor_cache\\ip\\cipvtvqwjdvujb4mfis64wva65gwpozt6lbtb5ucsmecp3k5rnor.py":140:24)
#loc25 = loc("./.inductor_cache\\ip\\cipvtvqwjdvujb4mfis64wva65gwpozt6lbtb5ucsmecp3k5rnor.py":144:29)
#loc26 = loc("./.inductor_cache\\ip\\cipvtvqwjdvujb4mfis64wva65gwpozt6lbtb5ucsmecp3k5rnor.py":144:44)
#loc27 = loc("./.inductor_cache\\ip\\cipvtvqwjdvujb4mfis64wva65gwpozt6lbtb5ucsmecp3k5rnor.py":145:35)
#loc28 = loc("./.inductor_cache\\ip\\cipvtvqwjdvujb4mfis64wva65gwpozt6lbtb5ucsmecp3k5rnor.py":146:41)
#loc29 = loc("./.inductor_cache\\ip\\cipvtvqwjdvujb4mfis64wva65gwpozt6lbtb5ucsmecp3k5rnor.py":158:30)
#loc30 = loc("./.inductor_cache\\ip\\cipvtvqwjdvujb4mfis64wva65gwpozt6lbtb5ucsmecp3k5rnor.py":158:40)
#loc31 = loc("./.inductor_cache\\ip\\cipvtvqwjdvujb4mfis64wva65gwpozt6lbtb5ucsmecp3k5rnor.py":158:63)
#loc32 = loc("./.inductor_cache\\ip\\cipvtvqwjdvujb4mfis64wva65gwpozt6lbtb5ucsmecp3k5rnor.py":159:32)
#loc33 = loc("./.inductor_cache\\ip\\cipvtvqwjdvujb4mfis64wva65gwpozt6lbtb5ucsmecp3k5rnor.py":159:42)
#loc34 = loc("./.inductor_cache\\ip\\cipvtvqwjdvujb4mfis64wva65gwpozt6lbtb5ucsmecp3k5rnor.py":159:66)
#loc35 = loc("./.inductor_cache\\ip\\cipvtvqwjdvujb4mfis64wva65gwpozt6lbtb5ucsmecp3k5rnor.py":161:30)
#loc36 = loc("./.inductor_cache\\ip\\cipvtvqwjdvujb4mfis64wva65gwpozt6lbtb5ucsmecp3k5rnor.py":161:35)
#loc37 = loc("./.inductor_cache\\ip\\cipvtvqwjdvujb4mfis64wva65gwpozt6lbtb5ucsmecp3k5rnor.py":161:46)
#loc38 = loc("./.inductor_cache\\ip\\cipvtvqwjdvujb4mfis64wva65gwpozt6lbtb5ucsmecp3k5rnor.py":161:56)
#loc39 = loc("./.inductor_cache\\ip\\cipvtvqwjdvujb4mfis64wva65gwpozt6lbtb5ucsmecp3k5rnor.py":163:17)
#loc40 = loc("./.inductor_cache\\ip\\cipvtvqwjdvujb4mfis64wva65gwpozt6lbtb5ucsmecp3k5rnor.py":164:19)
#loc41 = loc("./.inductor_cache\\ip\\cipvtvqwjdvujb4mfis64wva65gwpozt6lbtb5ucsmecp3k5rnor.py":167:19)
#loc42 = loc("./.inductor_cache\\ip\\cipvtvqwjdvujb4mfis64wva65gwpozt6lbtb5ucsmecp3k5rnor.py":168:21)
#loc43 = loc("./.inductor_cache\\ip\\cipvtvqwjdvujb4mfis64wva65gwpozt6lbtb5ucsmecp3k5rnor.py":169:25)
#loc44 = loc("./.inductor_cache\\ip\\cipvtvqwjdvujb4mfis64wva65gwpozt6lbtb5ucsmecp3k5rnor.py":174:36)
#loc45 = loc("./.inductor_cache\\ip\\cipvtvqwjdvujb4mfis64wva65gwpozt6lbtb5ucsmecp3k5rnor.py":175:42)
#loc46 = loc("./.inductor_cache\\ip\\cipvtvqwjdvujb4mfis64wva65gwpozt6lbtb5ucsmecp3k5rnor.py":175:29)
#loc47 = loc("./.inductor_cache\\ip\\cipvtvqwjdvujb4mfis64wva65gwpozt6lbtb5ucsmecp3k5rnor.py":797:27)
#loc48 = loc("./.inductor_cache\\ip\\cipvtvqwjdvujb4mfis64wva65gwpozt6lbtb5ucsmecp3k5rnor.py":178:107)
#loc49 = loc("./.inductor_cache\\ip\\cipvtvqwjdvujb4mfis64wva65gwpozt6lbtb5ucsmecp3k5rnor.py":797:38)
#loc50 = loc("./.inductor_cache\\ip\\cipvtvqwjdvujb4mfis64wva65gwpozt6lbtb5ucsmecp3k5rnor.py":797:20)
#loc51 = loc("./.inductor_cache\\ip\\cipvtvqwjdvujb4mfis64wva65gwpozt6lbtb5ucsmecp3k5rnor.py":797:56)
#loc52 = loc("./.inductor_cache\\ip\\cipvtvqwjdvujb4mfis64wva65gwpozt6lbtb5ucsmecp3k5rnor.py":797:49)
#loc53 = loc("./.inductor_cache\\ip\\cipvtvqwjdvujb4mfis64wva65gwpozt6lbtb5ucsmecp3k5rnor.py":805:52)
#loc54 = loc("./.inductor_cache\\ip\\cipvtvqwjdvujb4mfis64wva65gwpozt6lbtb5ucsmecp3k5rnor.py":805:23)
#loc55 = loc("./.inductor_cache\\ip\\cipvtvqwjdvujb4mfis64wva65gwpozt6lbtb5ucsmecp3k5rnor.py":179:111)
#loc56 = loc("./.inductor_cache\\ip\\cipvtvqwjdvujb4mfis64wva65gwpozt6lbtb5ucsmecp3k5rnor.py":188:58)
#loc57 = loc("./.inductor_cache\\ip\\cipvtvqwjdvujb4mfis64wva65gwpozt6lbtb5ucsmecp3k5rnor.py":188:34)
#loc58 = loc("./.inductor_cache\\ip\\cipvtvqwjdvujb4mfis64wva65gwpozt6lbtb5ucsmecp3k5rnor.py":188:25)
#loc59 = loc("./.inductor_cache\\ip\\cipvtvqwjdvujb4mfis64wva65gwpozt6lbtb5ucsmecp3k5rnor.py":189:33)
#loc60 = loc("./.inductor_cache\\ip\\cipvtvqwjdvujb4mfis64wva65gwpozt6lbtb5ucsmecp3k5rnor.py":189:26)
#loc61 = loc("./.inductor_cache\\ip\\cipvtvqwjdvujb4mfis64wva65gwpozt6lbtb5ucsmecp3k5rnor.py":190:30)
#loc62 = loc("./.inductor_cache\\ip\\cipvtvqwjdvujb4mfis64wva65gwpozt6lbtb5ucsmecp3k5rnor.py":190:50)
#loc63 = loc("./.inductor_cache\\ip\\cipvtvqwjdvujb4mfis64wva65gwpozt6lbtb5ucsmecp3k5rnor.py":191:18)
#loc64 = loc("./.inductor_cache\\ip\\cipvtvqwjdvujb4mfis64wva65gwpozt6lbtb5ucsmecp3k5rnor.py":195:30)
#loc65 = loc("./.inductor_cache\\ip\\cipvtvqwjdvujb4mfis64wva65gwpozt6lbtb5ucsmecp3k5rnor.py":196:27)
#loc66 = loc("./.inductor_cache\\ip\\cipvtvqwjdvujb4mfis64wva65gwpozt6lbtb5ucsmecp3k5rnor.py":196:41)
#loc67 = loc("./.inductor_cache\\ip\\cipvtvqwjdvujb4mfis64wva65gwpozt6lbtb5ucsmecp3k5rnor.py":197:53)
#loc68 = loc("./.inductor_cache\\ip\\cipvtvqwjdvujb4mfis64wva65gwpozt6lbtb5ucsmecp3k5rnor.py":197:39)
#loc69 = loc("./.inductor_cache\\ip\\cipvtvqwjdvujb4mfis64wva65gwpozt6lbtb5ucsmecp3k5rnor.py":199:29)
#loc70 = loc("./.inductor_cache\\ip\\cipvtvqwjdvujb4mfis64wva65gwpozt6lbtb5ucsmecp3k5rnor.py":390:26)
#loc71 = loc("./.inductor_cache\\ip\\cipvtvqwjdvujb4mfis64wva65gwpozt6lbtb5ucsmecp3k5rnor.py":207:12)
#loc72 = loc("./.inductor_cache\\ip\\cipvtvqwjdvujb4mfis64wva65gwpozt6lbtb5ucsmecp3k5rnor.py":390:37)
#loc73 = loc("./.inductor_cache\\ip\\cipvtvqwjdvujb4mfis64wva65gwpozt6lbtb5ucsmecp3k5rnor.py":390:18)
#loc74 = loc("./.inductor_cache\\ip\\cipvtvqwjdvujb4mfis64wva65gwpozt6lbtb5ucsmecp3k5rnor.py":390:56)
#loc75 = loc("./.inductor_cache\\ip\\cipvtvqwjdvujb4mfis64wva65gwpozt6lbtb5ucsmecp3k5rnor.py":390:49)
#loc76 = loc("./.inductor_cache\\ip\\cipvtvqwjdvujb4mfis64wva65gwpozt6lbtb5ucsmecp3k5rnor.py":391:37)
#loc77 = loc("./.inductor_cache\\ip\\cipvtvqwjdvujb4mfis64wva65gwpozt6lbtb5ucsmecp3k5rnor.py":391:18)
#loc78 = loc("./.inductor_cache\\ip\\cipvtvqwjdvujb4mfis64wva65gwpozt6lbtb5ucsmecp3k5rnor.py":391:49)
#loc79 = loc("./.inductor_cache\\ip\\cipvtvqwjdvujb4mfis64wva65gwpozt6lbtb5ucsmecp3k5rnor.py":395:43)
#loc80 = loc("./.inductor_cache\\ip\\cipvtvqwjdvujb4mfis64wva65gwpozt6lbtb5ucsmecp3k5rnor.py":395:63)
#loc81 = loc("./.inductor_cache\\ip\\cipvtvqwjdvujb4mfis64wva65gwpozt6lbtb5ucsmecp3k5rnor.py":397:28)
#loc82 = loc("./.inductor_cache\\ip\\cipvtvqwjdvujb4mfis64wva65gwpozt6lbtb5ucsmecp3k5rnor.py":803:41)
#loc83 = loc("./.inductor_cache\\ip\\cipvtvqwjdvujb4mfis64wva65gwpozt6lbtb5ucsmecp3k5rnor.py":458:105)
#loc84 = loc("./.inductor_cache\\ip\\cipvtvqwjdvujb4mfis64wva65gwpozt6lbtb5ucsmecp3k5rnor.py":405:12)
#loc85 = loc("./.inductor_cache\\ip\\cipvtvqwjdvujb4mfis64wva65gwpozt6lbtb5ucsmecp3k5rnor.py":803:52)
#loc86 = loc("./.inductor_cache\\ip\\cipvtvqwjdvujb4mfis64wva65gwpozt6lbtb5ucsmecp3k5rnor.py":803:23)
#loc87 = loc("./.inductor_cache\\ip\\cipvtvqwjdvujb4mfis64wva65gwpozt6lbtb5ucsmecp3k5rnor.py":459:19)
#loc88 = loc("./.inductor_cache\\ip\\cipvtvqwjdvujb4mfis64wva65gwpozt6lbtb5ucsmecp3k5rnor.py":461:14)
#loc89 = loc("./.inductor_cache\\ip\\cipvtvqwjdvujb4mfis64wva65gwpozt6lbtb5ucsmecp3k5rnor.py":770:21)
#loc90 = loc("./.inductor_cache\\ip\\cipvtvqwjdvujb4mfis64wva65gwpozt6lbtb5ucsmecp3k5rnor.py":464:46)
#loc91 = loc("./.inductor_cache\\ip\\cipvtvqwjdvujb4mfis64wva65gwpozt6lbtb5ucsmecp3k5rnor.py":467:46)
#loc92 = loc("./.inductor_cache\\ip\\cipvtvqwjdvujb4mfis64wva65gwpozt6lbtb5ucsmecp3k5rnor.py":476:79)
#loc93 = loc("./.inductor_cache\\ip\\cipvtvqwjdvujb4mfis64wva65gwpozt6lbtb5ucsmecp3k5rnor.py":480:34)
#loc94 = loc("./.inductor_cache\\ip\\cipvtvqwjdvujb4mfis64wva65gwpozt6lbtb5ucsmecp3k5rnor.py":480:23)
#loc95 = loc("./.inductor_cache\\ip\\cipvtvqwjdvujb4mfis64wva65gwpozt6lbtb5ucsmecp3k5rnor.py":482:34)
#loc96 = loc("./.inductor_cache\\ip\\cipvtvqwjdvujb4mfis64wva65gwpozt6lbtb5ucsmecp3k5rnor.py":482:23)
#loc97 = loc("./.inductor_cache\\ip\\cipvtvqwjdvujb4mfis64wva65gwpozt6lbtb5ucsmecp3k5rnor.py":483:22)
#loc98 = loc("./.inductor_cache\\ip\\cipvtvqwjdvujb4mfis64wva65gwpozt6lbtb5ucsmecp3k5rnor.py":484:23)
#loc99 = loc("./.inductor_cache\\ip\\cipvtvqwjdvujb4mfis64wva65gwpozt6lbtb5ucsmecp3k5rnor.py":485:34)
#loc100 = loc("./.inductor_cache\\ip\\cipvtvqwjdvujb4mfis64wva65gwpozt6lbtb5ucsmecp3k5rnor.py":485:23)
#loc101 = loc("./.inductor_cache\\ip\\cipvtvqwjdvujb4mfis64wva65gwpozt6lbtb5ucsmecp3k5rnor.py":486:23)
#loc102 = loc("./.inductor_cache\\ip\\cipvtvqwjdvujb4mfis64wva65gwpozt6lbtb5ucsmecp3k5rnor.py":487:23)
#loc103 = loc("./.inductor_cache\\ip\\cipvtvqwjdvujb4mfis64wva65gwpozt6lbtb5ucsmecp3k5rnor.py":488:23)
#loc104 = loc("./.inductor_cache\\ip\\cipvtvqwjdvujb4mfis64wva65gwpozt6lbtb5ucsmecp3k5rnor.py":489:23)
#loc105 = loc("./.inductor_cache\\ip\\cipvtvqwjdvujb4mfis64wva65gwpozt6lbtb5ucsmecp3k5rnor.py":490:37)
#loc106 = loc("./.inductor_cache\\ip\\cipvtvqwjdvujb4mfis64wva65gwpozt6lbtb5ucsmecp3k5rnor.py":490:35)
#loc107 = loc("./.inductor_cache\\ip\\cipvtvqwjdvujb4mfis64wva65gwpozt6lbtb5ucsmecp3k5rnor.py":490:24)
#loc108 = loc("./.inductor_cache\\ip\\cipvtvqwjdvujb4mfis64wva65gwpozt6lbtb5ucsmecp3k5rnor.py":491:37)
#loc109 = loc("./.inductor_cache\\ip\\cipvtvqwjdvujb4mfis64wva65gwpozt6lbtb5ucsmecp3k5rnor.py":491:35)
#loc110 = loc("./.inductor_cache\\ip\\cipvtvqwjdvujb4mfis64wva65gwpozt6lbtb5ucsmecp3k5rnor.py":491:24)
#loc111 = loc("./.inductor_cache\\ip\\cipvtvqwjdvujb4mfis64wva65gwpozt6lbtb5ucsmecp3k5rnor.py":492:24)
#loc112 = loc("./.inductor_cache\\ip\\cipvtvqwjdvujb4mfis64wva65gwpozt6lbtb5ucsmecp3k5rnor.py":493:24)
#loc113 = loc("./.inductor_cache\\ip\\cipvtvqwjdvujb4mfis64wva65gwpozt6lbtb5ucsmecp3k5rnor.py":494:35)
#loc114 = loc("./.inductor_cache\\ip\\cipvtvqwjdvujb4mfis64wva65gwpozt6lbtb5ucsmecp3k5rnor.py":494:39)
#loc115 = loc("./.inductor_cache\\ip\\cipvtvqwjdvujb4mfis64wva65gwpozt6lbtb5ucsmecp3k5rnor.py":494:24)
#loc116 = loc("./.inductor_cache\\ip\\cipvtvqwjdvujb4mfis64wva65gwpozt6lbtb5ucsmecp3k5rnor.py":495:39)
#loc117 = loc("./.inductor_cache\\ip\\cipvtvqwjdvujb4mfis64wva65gwpozt6lbtb5ucsmecp3k5rnor.py":495:24)
#loc118 = loc("./.inductor_cache\\ip\\cipvtvqwjdvujb4mfis64wva65gwpozt6lbtb5ucsmecp3k5rnor.py":496:24)
#loc119 = loc("./.inductor_cache\\ip\\cipvtvqwjdvujb4mfis64wva65gwpozt6lbtb5ucsmecp3k5rnor.py":497:24)
#loc120 = loc("./.inductor_cache\\ip\\cipvtvqwjdvujb4mfis64wva65gwpozt6lbtb5ucsmecp3k5rnor.py":498:24)
#loc121 = loc("./.inductor_cache\\ip\\cipvtvqwjdvujb4mfis64wva65gwpozt6lbtb5ucsmecp3k5rnor.py":499:24)
#loc122 = loc("./.inductor_cache\\ip\\cipvtvqwjdvujb4mfis64wva65gwpozt6lbtb5ucsmecp3k5rnor.py":500:24)
#loc123 = loc("./.inductor_cache\\ip\\cipvtvqwjdvujb4mfis64wva65gwpozt6lbtb5ucsmecp3k5rnor.py":501:24)
#loc124 = loc("./.inductor_cache\\ip\\cipvtvqwjdvujb4mfis64wva65gwpozt6lbtb5ucsmecp3k5rnor.py":502:23)
#loc125 = loc("./.inductor_cache\\ip\\cipvtvqwjdvujb4mfis64wva65gwpozt6lbtb5ucsmecp3k5rnor.py":507:69)
#loc126 = loc("./.inductor_cache\\ip\\cipvtvqwjdvujb4mfis64wva65gwpozt6lbtb5ucsmecp3k5rnor.py":510:27)
#loc127 = loc("./.inductor_cache\\ip\\cipvtvqwjdvujb4mfis64wva65gwpozt6lbtb5ucsmecp3k5rnor.py":511:39)
#loc128 = loc("./.inductor_cache\\ip\\cipvtvqwjdvujb4mfis64wva65gwpozt6lbtb5ucsmecp3k5rnor.py":511:21)
#loc129 = loc("./.inductor_cache\\ip\\cipvtvqwjdvujb4mfis64wva65gwpozt6lbtb5ucsmecp3k5rnor.py":514:104)
#loc130 = loc("./.inductor_cache\\ip\\cipvtvqwjdvujb4mfis64wva65gwpozt6lbtb5ucsmecp3k5rnor.py":516:20)
#loc131 = loc("./.inductor_cache\\ip\\cipvtvqwjdvujb4mfis64wva65gwpozt6lbtb5ucsmecp3k5rnor.py":517:22)
#loc132 = loc("./.inductor_cache\\ip\\cipvtvqwjdvujb4mfis64wva65gwpozt6lbtb5ucsmecp3k5rnor.py":517:19)
#loc133 = loc("./.inductor_cache\\ip\\cipvtvqwjdvujb4mfis64wva65gwpozt6lbtb5ucsmecp3k5rnor.py":517:14)
#loc134 = loc("./.inductor_cache\\ip\\cipvtvqwjdvujb4mfis64wva65gwpozt6lbtb5ucsmecp3k5rnor.py":524:71)
#loc135 = loc("./.inductor_cache\\ip\\cipvtvqwjdvujb4mfis64wva65gwpozt6lbtb5ucsmecp3k5rnor.py":535:43)
#loc136 = loc("./.inductor_cache\\ip\\cipvtvqwjdvujb4mfis64wva65gwpozt6lbtb5ucsmecp3k5rnor.py":539:30)
#loc137 = loc("./.inductor_cache\\ip\\cipvtvqwjdvujb4mfis64wva65gwpozt6lbtb5ucsmecp3k5rnor.py":539:21)
#loc138 = loc("./.inductor_cache\\ip\\cipvtvqwjdvujb4mfis64wva65gwpozt6lbtb5ucsmecp3k5rnor.py":760:33)
#loc139 = loc("./.inductor_cache\\ip\\cipvtvqwjdvujb4mfis64wva65gwpozt6lbtb5ucsmecp3k5rnor.py":411:64)
#loc140 = loc("./.inductor_cache\\ip\\cipvtvqwjdvujb4mfis64wva65gwpozt6lbtb5ucsmecp3k5rnor.py":761:38)
#loc141 = loc("./.inductor_cache\\ip\\cipvtvqwjdvujb4mfis64wva65gwpozt6lbtb5ucsmecp3k5rnor.py":761:24)
#loc142 = loc("./.inductor_cache\\ip\\cipvtvqwjdvujb4mfis64wva65gwpozt6lbtb5ucsmecp3k5rnor.py":762:109)
#loc143 = loc("./.inductor_cache\\ip\\cipvtvqwjdvujb4mfis64wva65gwpozt6lbtb5ucsmecp3k5rnor.py":762:113)
#loc144 = loc("./.inductor_cache\\ip\\cipvtvqwjdvujb4mfis64wva65gwpozt6lbtb5ucsmecp3k5rnor.py":762:55)
#loc145 = loc("./.inductor_cache\\ip\\cipvtvqwjdvujb4mfis64wva65gwpozt6lbtb5ucsmecp3k5rnor.py":762:25)
#loc146 = loc("./.inductor_cache\\ip\\cipvtvqwjdvujb4mfis64wva65gwpozt6lbtb5ucsmecp3k5rnor.py":763:30)
#loc147 = loc("./.inductor_cache\\ip\\cipvtvqwjdvujb4mfis64wva65gwpozt6lbtb5ucsmecp3k5rnor.py":763:35)
#loc148 = loc("./.inductor_cache\\ip\\cipvtvqwjdvujb4mfis64wva65gwpozt6lbtb5ucsmecp3k5rnor.py":763:60)
#loc149 = loc("./.inductor_cache\\ip\\cipvtvqwjdvujb4mfis64wva65gwpozt6lbtb5ucsmecp3k5rnor.py":764:34)
#loc150 = loc("./.inductor_cache\\ip\\cipvtvqwjdvujb4mfis64wva65gwpozt6lbtb5ucsmecp3k5rnor.py":764:48)
#loc151 = loc("./.inductor_cache\\ip\\cipvtvqwjdvujb4mfis64wva65gwpozt6lbtb5ucsmecp3k5rnor.py":764:63)
#loc152 = loc("./.inductor_cache\\ip\\cipvtvqwjdvujb4mfis64wva65gwpozt6lbtb5ucsmecp3k5rnor.py":765:29)
#loc153 = loc("./.inductor_cache\\ip\\cipvtvqwjdvujb4mfis64wva65gwpozt6lbtb5ucsmecp3k5rnor.py":765:47)
#loc154 = loc("./.inductor_cache\\ip\\cipvtvqwjdvujb4mfis64wva65gwpozt6lbtb5ucsmecp3k5rnor.py":765:61)
#loc155 = loc("./.inductor_cache\\ip\\cipvtvqwjdvujb4mfis64wva65gwpozt6lbtb5ucsmecp3k5rnor.py":765:42)
#loc156 = loc("./.inductor_cache\\ip\\cipvtvqwjdvujb4mfis64wva65gwpozt6lbtb5ucsmecp3k5rnor.py":414:28)
#loc157 = loc("./.inductor_cache\\ip\\cipvtvqwjdvujb4mfis64wva65gwpozt6lbtb5ucsmecp3k5rnor.py":414:19)
#loc158 = loc("./.inductor_cache\\ip\\cipvtvqwjdvujb4mfis64wva65gwpozt6lbtb5ucsmecp3k5rnor.py":415:28)
#loc159 = loc("./.inductor_cache\\ip\\cipvtvqwjdvujb4mfis64wva65gwpozt6lbtb5ucsmecp3k5rnor.py":415:19)
#loc160 = loc("./.inductor_cache\\ip\\cipvtvqwjdvujb4mfis64wva65gwpozt6lbtb5ucsmecp3k5rnor.py":417:19)
#loc161 = loc("./.inductor_cache\\ip\\cipvtvqwjdvujb4mfis64wva65gwpozt6lbtb5ucsmecp3k5rnor.py":417:8)
#loc162 = loc("./.inductor_cache\\ip\\cipvtvqwjdvujb4mfis64wva65gwpozt6lbtb5ucsmecp3k5rnor.py":214:39)
#loc163 = loc("./.inductor_cache\\ip\\cipvtvqwjdvujb4mfis64wva65gwpozt6lbtb5ucsmecp3k5rnor.py":215:31)
#loc164 = loc("./.inductor_cache\\ip\\cipvtvqwjdvujb4mfis64wva65gwpozt6lbtb5ucsmecp3k5rnor.py":215:45)
#loc165 = loc("./.inductor_cache\\ip\\cipvtvqwjdvujb4mfis64wva65gwpozt6lbtb5ucsmecp3k5rnor.py":216:62)
#loc166 = loc("./.inductor_cache\\ip\\cipvtvqwjdvujb4mfis64wva65gwpozt6lbtb5ucsmecp3k5rnor.py":216:43)
#loc167 = loc("./.inductor_cache\\ip\\cipvtvqwjdvujb4mfis64wva65gwpozt6lbtb5ucsmecp3k5rnor.py":218:33)
#loc168 = loc("./.inductor_cache\\ip\\cipvtvqwjdvujb4mfis64wva65gwpozt6lbtb5ucsmecp3k5rnor.py":226:16)
#loc169 = loc("./.inductor_cache\\ip\\cipvtvqwjdvujb4mfis64wva65gwpozt6lbtb5ucsmecp3k5rnor.py":231:24)
#loc170 = loc("./.inductor_cache\\ip\\cipvtvqwjdvujb4mfis64wva65gwpozt6lbtb5ucsmecp3k5rnor.py":231:56)
#loc171 = loc("./.inductor_cache\\ip\\cipvtvqwjdvujb4mfis64wva65gwpozt6lbtb5ucsmecp3k5rnor.py":232:14)
#loc172 = loc("./.inductor_cache\\ip\\cipvtvqwjdvujb4mfis64wva65gwpozt6lbtb5ucsmecp3k5rnor.py":236:87)
#loc173 = loc("./.inductor_cache\\ip\\cipvtvqwjdvujb4mfis64wva65gwpozt6lbtb5ucsmecp3k5rnor.py":236:69)
#loc174 = loc("./.inductor_cache\\ip\\cipvtvqwjdvujb4mfis64wva65gwpozt6lbtb5ucsmecp3k5rnor.py":236:30)
#loc175 = loc("./.inductor_cache\\ip\\cipvtvqwjdvujb4mfis64wva65gwpozt6lbtb5ucsmecp3k5rnor.py":242:26)
#loc176 = loc("./.inductor_cache\\ip\\cipvtvqwjdvujb4mfis64wva65gwpozt6lbtb5ucsmecp3k5rnor.py":252:25)
#loc177 = loc("./.inductor_cache\\ip\\cipvtvqwjdvujb4mfis64wva65gwpozt6lbtb5ucsmecp3k5rnor.py":253:42)
#loc178 = loc("./.inductor_cache\\ip\\cipvtvqwjdvujb4mfis64wva65gwpozt6lbtb5ucsmecp3k5rnor.py":253:29)
#loc179 = loc("./.inductor_cache\\ip\\cipvtvqwjdvujb4mfis64wva65gwpozt6lbtb5ucsmecp3k5rnor.py":256:107)
#loc180 = loc("./.inductor_cache\\ip\\cipvtvqwjdvujb4mfis64wva65gwpozt6lbtb5ucsmecp3k5rnor.py":257:107)
#loc181 = loc("./.inductor_cache\\ip\\cipvtvqwjdvujb4mfis64wva65gwpozt6lbtb5ucsmecp3k5rnor.py":266:44)
#loc182 = loc("./.inductor_cache\\ip\\cipvtvqwjdvujb4mfis64wva65gwpozt6lbtb5ucsmecp3k5rnor.py":266:67)
#loc183 = loc("./.inductor_cache\\ip\\cipvtvqwjdvujb4mfis64wva65gwpozt6lbtb5ucsmecp3k5rnor.py":269:34)
#loc184 = loc("./.inductor_cache\\ip\\cipvtvqwjdvujb4mfis64wva65gwpozt6lbtb5ucsmecp3k5rnor.py":269:39)
#loc185 = loc("./.inductor_cache\\ip\\cipvtvqwjdvujb4mfis64wva65gwpozt6lbtb5ucsmecp3k5rnor.py":269:50)
#loc186 = loc("./.inductor_cache\\ip\\cipvtvqwjdvujb4mfis64wva65gwpozt6lbtb5ucsmecp3k5rnor.py":269:60)
#loc187 = loc("./.inductor_cache\\ip\\cipvtvqwjdvujb4mfis64wva65gwpozt6lbtb5ucsmecp3k5rnor.py":271:21)
#loc188 = loc("./.inductor_cache\\ip\\cipvtvqwjdvujb4mfis64wva65gwpozt6lbtb5ucsmecp3k5rnor.py":272:23)
#loc189 = loc("./.inductor_cache\\ip\\cipvtvqwjdvujb4mfis64wva65gwpozt6lbtb5ucsmecp3k5rnor.py":275:25)
#loc190 = loc("./.inductor_cache\\ip\\cipvtvqwjdvujb4mfis64wva65gwpozt6lbtb5ucsmecp3k5rnor.py":276:29)
#loc191 = loc("./.inductor_cache\\ip\\cipvtvqwjdvujb4mfis64wva65gwpozt6lbtb5ucsmecp3k5rnor.py":286:32)
#loc192 = loc("./.inductor_cache\\ip\\cipvtvqwjdvujb4mfis64wva65gwpozt6lbtb5ucsmecp3k5rnor.py":287:30)
#loc193 = loc("./.inductor_cache\\ip\\cipvtvqwjdvujb4mfis64wva65gwpozt6lbtb5ucsmecp3k5rnor.py":287:43)
#loc194 = loc("./.inductor_cache\\ip\\cipvtvqwjdvujb4mfis64wva65gwpozt6lbtb5ucsmecp3k5rnor.py":288:55)
#loc195 = loc("./.inductor_cache\\ip\\cipvtvqwjdvujb4mfis64wva65gwpozt6lbtb5ucsmecp3k5rnor.py":288:42)
#loc196 = loc("./.inductor_cache\\ip\\cipvtvqwjdvujb4mfis64wva65gwpozt6lbtb5ucsmecp3k5rnor.py":290:32)
#loc197 = loc("./.inductor_cache\\ip\\cipvtvqwjdvujb4mfis64wva65gwpozt6lbtb5ucsmecp3k5rnor.py":587:26)
#loc198 = loc("./.inductor_cache\\ip\\cipvtvqwjdvujb4mfis64wva65gwpozt6lbtb5ucsmecp3k5rnor.py":298:16)
#loc199 = loc("./.inductor_cache\\ip\\cipvtvqwjdvujb4mfis64wva65gwpozt6lbtb5ucsmecp3k5rnor.py":587:37)
#loc200 = loc("./.inductor_cache\\ip\\cipvtvqwjdvujb4mfis64wva65gwpozt6lbtb5ucsmecp3k5rnor.py":587:18)
#loc201 = loc("./.inductor_cache\\ip\\cipvtvqwjdvujb4mfis64wva65gwpozt6lbtb5ucsmecp3k5rnor.py":587:56)
#loc202 = loc("./.inductor_cache\\ip\\cipvtvqwjdvujb4mfis64wva65gwpozt6lbtb5ucsmecp3k5rnor.py":587:49)
#loc203 = loc("./.inductor_cache\\ip\\cipvtvqwjdvujb4mfis64wva65gwpozt6lbtb5ucsmecp3k5rnor.py":588:27)
#loc204 = loc("./.inductor_cache\\ip\\cipvtvqwjdvujb4mfis64wva65gwpozt6lbtb5ucsmecp3k5rnor.py":588:38)
#loc205 = loc("./.inductor_cache\\ip\\cipvtvqwjdvujb4mfis64wva65gwpozt6lbtb5ucsmecp3k5rnor.py":588:19)
#loc206 = loc("./.inductor_cache\\ip\\cipvtvqwjdvujb4mfis64wva65gwpozt6lbtb5ucsmecp3k5rnor.py":588:51)
#loc207 = loc("./.inductor_cache\\ip\\cipvtvqwjdvujb4mfis64wva65gwpozt6lbtb5ucsmecp3k5rnor.py":594:42)
#loc208 = loc("./.inductor_cache\\ip\\cipvtvqwjdvujb4mfis64wva65gwpozt6lbtb5ucsmecp3k5rnor.py":594:61)
#loc209 = loc("./.inductor_cache\\ip\\cipvtvqwjdvujb4mfis64wva65gwpozt6lbtb5ucsmecp3k5rnor.py":596:28)
#loc210 = loc("./.inductor_cache\\ip\\cipvtvqwjdvujb4mfis64wva65gwpozt6lbtb5ucsmecp3k5rnor.py":655:105)
#loc211 = loc("./.inductor_cache\\ip\\cipvtvqwjdvujb4mfis64wva65gwpozt6lbtb5ucsmecp3k5rnor.py":604:12)
#loc212 = loc("./.inductor_cache\\ip\\cipvtvqwjdvujb4mfis64wva65gwpozt6lbtb5ucsmecp3k5rnor.py":660:52)
#loc213 = loc("./.inductor_cache\\ip\\cipvtvqwjdvujb4mfis64wva65gwpozt6lbtb5ucsmecp3k5rnor.py":660:28)
#loc214 = loc("./.inductor_cache\\ip\\cipvtvqwjdvujb4mfis64wva65gwpozt6lbtb5ucsmecp3k5rnor.py":660:22)
#loc215 = loc("./.inductor_cache\\ip\\cipvtvqwjdvujb4mfis64wva65gwpozt6lbtb5ucsmecp3k5rnor.py":661:26)
#loc216 = loc("./.inductor_cache\\ip\\cipvtvqwjdvujb4mfis64wva65gwpozt6lbtb5ucsmecp3k5rnor.py":661:46)
#loc217 = loc("./.inductor_cache\\ip\\cipvtvqwjdvujb4mfis64wva65gwpozt6lbtb5ucsmecp3k5rnor.py":662:20)
#loc218 = loc("./.inductor_cache\\ip\\cipvtvqwjdvujb4mfis64wva65gwpozt6lbtb5ucsmecp3k5rnor.py":664:15)
#loc219 = loc("./.inductor_cache\\ip\\cipvtvqwjdvujb4mfis64wva65gwpozt6lbtb5ucsmecp3k5rnor.py":666:46)
#loc220 = loc("./.inductor_cache\\ip\\cipvtvqwjdvujb4mfis64wva65gwpozt6lbtb5ucsmecp3k5rnor.py":669:46)
#loc221 = loc("./.inductor_cache\\ip\\cipvtvqwjdvujb4mfis64wva65gwpozt6lbtb5ucsmecp3k5rnor.py":678:78)
#loc222 = loc("./.inductor_cache\\ip\\cipvtvqwjdvujb4mfis64wva65gwpozt6lbtb5ucsmecp3k5rnor.py":682:35)
#loc223 = loc("./.inductor_cache\\ip\\cipvtvqwjdvujb4mfis64wva65gwpozt6lbtb5ucsmecp3k5rnor.py":682:24)
#loc224 = loc("./.inductor_cache\\ip\\cipvtvqwjdvujb4mfis64wva65gwpozt6lbtb5ucsmecp3k5rnor.py":684:35)
#loc225 = loc("./.inductor_cache\\ip\\cipvtvqwjdvujb4mfis64wva65gwpozt6lbtb5ucsmecp3k5rnor.py":684:24)
#loc226 = loc("./.inductor_cache\\ip\\cipvtvqwjdvujb4mfis64wva65gwpozt6lbtb5ucsmecp3k5rnor.py":685:24)
#loc227 = loc("./.inductor_cache\\ip\\cipvtvqwjdvujb4mfis64wva65gwpozt6lbtb5ucsmecp3k5rnor.py":686:25)
#loc228 = loc("./.inductor_cache\\ip\\cipvtvqwjdvujb4mfis64wva65gwpozt6lbtb5ucsmecp3k5rnor.py":687:35)
#loc229 = loc("./.inductor_cache\\ip\\cipvtvqwjdvujb4mfis64wva65gwpozt6lbtb5ucsmecp3k5rnor.py":687:24)
#loc230 = loc("./.inductor_cache\\ip\\cipvtvqwjdvujb4mfis64wva65gwpozt6lbtb5ucsmecp3k5rnor.py":688:25)
#loc231 = loc("./.inductor_cache\\ip\\cipvtvqwjdvujb4mfis64wva65gwpozt6lbtb5ucsmecp3k5rnor.py":689:25)
#loc232 = loc("./.inductor_cache\\ip\\cipvtvqwjdvujb4mfis64wva65gwpozt6lbtb5ucsmecp3k5rnor.py":690:24)
#loc233 = loc("./.inductor_cache\\ip\\cipvtvqwjdvujb4mfis64wva65gwpozt6lbtb5ucsmecp3k5rnor.py":691:24)
#loc234 = loc("./.inductor_cache\\ip\\cipvtvqwjdvujb4mfis64wva65gwpozt6lbtb5ucsmecp3k5rnor.py":692:37)
#loc235 = loc("./.inductor_cache\\ip\\cipvtvqwjdvujb4mfis64wva65gwpozt6lbtb5ucsmecp3k5rnor.py":692:35)
#loc236 = loc("./.inductor_cache\\ip\\cipvtvqwjdvujb4mfis64wva65gwpozt6lbtb5ucsmecp3k5rnor.py":692:24)
#loc237 = loc("./.inductor_cache\\ip\\cipvtvqwjdvujb4mfis64wva65gwpozt6lbtb5ucsmecp3k5rnor.py":693:37)
#loc238 = loc("./.inductor_cache\\ip\\cipvtvqwjdvujb4mfis64wva65gwpozt6lbtb5ucsmecp3k5rnor.py":693:35)
#loc239 = loc("./.inductor_cache\\ip\\cipvtvqwjdvujb4mfis64wva65gwpozt6lbtb5ucsmecp3k5rnor.py":693:24)
#loc240 = loc("./.inductor_cache\\ip\\cipvtvqwjdvujb4mfis64wva65gwpozt6lbtb5ucsmecp3k5rnor.py":694:24)
#loc241 = loc("./.inductor_cache\\ip\\cipvtvqwjdvujb4mfis64wva65gwpozt6lbtb5ucsmecp3k5rnor.py":695:24)
#loc242 = loc("./.inductor_cache\\ip\\cipvtvqwjdvujb4mfis64wva65gwpozt6lbtb5ucsmecp3k5rnor.py":696:35)
#loc243 = loc("./.inductor_cache\\ip\\cipvtvqwjdvujb4mfis64wva65gwpozt6lbtb5ucsmecp3k5rnor.py":696:39)
#loc244 = loc("./.inductor_cache\\ip\\cipvtvqwjdvujb4mfis64wva65gwpozt6lbtb5ucsmecp3k5rnor.py":696:24)
#loc245 = loc("./.inductor_cache\\ip\\cipvtvqwjdvujb4mfis64wva65gwpozt6lbtb5ucsmecp3k5rnor.py":697:39)
#loc246 = loc("./.inductor_cache\\ip\\cipvtvqwjdvujb4mfis64wva65gwpozt6lbtb5ucsmecp3k5rnor.py":697:24)
#loc247 = loc("./.inductor_cache\\ip\\cipvtvqwjdvujb4mfis64wva65gwpozt6lbtb5ucsmecp3k5rnor.py":698:24)
#loc248 = loc("./.inductor_cache\\ip\\cipvtvqwjdvujb4mfis64wva65gwpozt6lbtb5ucsmecp3k5rnor.py":699:24)
#loc249 = loc("./.inductor_cache\\ip\\cipvtvqwjdvujb4mfis64wva65gwpozt6lbtb5ucsmecp3k5rnor.py":700:24)
#loc250 = loc("./.inductor_cache\\ip\\cipvtvqwjdvujb4mfis64wva65gwpozt6lbtb5ucsmecp3k5rnor.py":701:24)
#loc251 = loc("./.inductor_cache\\ip\\cipvtvqwjdvujb4mfis64wva65gwpozt6lbtb5ucsmecp3k5rnor.py":702:24)
#loc252 = loc("./.inductor_cache\\ip\\cipvtvqwjdvujb4mfis64wva65gwpozt6lbtb5ucsmecp3k5rnor.py":703:24)
#loc253 = loc("./.inductor_cache\\ip\\cipvtvqwjdvujb4mfis64wva65gwpozt6lbtb5ucsmecp3k5rnor.py":704:24)
#loc254 = loc("./.inductor_cache\\ip\\cipvtvqwjdvujb4mfis64wva65gwpozt6lbtb5ucsmecp3k5rnor.py":708:69)
#loc255 = loc("./.inductor_cache\\ip\\cipvtvqwjdvujb4mfis64wva65gwpozt6lbtb5ucsmecp3k5rnor.py":711:27)
#loc256 = loc("./.inductor_cache\\ip\\cipvtvqwjdvujb4mfis64wva65gwpozt6lbtb5ucsmecp3k5rnor.py":712:44)
#loc257 = loc("./.inductor_cache\\ip\\cipvtvqwjdvujb4mfis64wva65gwpozt6lbtb5ucsmecp3k5rnor.py":712:40)
#loc258 = loc("./.inductor_cache\\ip\\cipvtvqwjdvujb4mfis64wva65gwpozt6lbtb5ucsmecp3k5rnor.py":712:22)
#loc259 = loc("./.inductor_cache\\ip\\cipvtvqwjdvujb4mfis64wva65gwpozt6lbtb5ucsmecp3k5rnor.py":805:41)
#loc260 = loc("./.inductor_cache\\ip\\cipvtvqwjdvujb4mfis64wva65gwpozt6lbtb5ucsmecp3k5rnor.py":713:99)
#loc261 = loc("./.inductor_cache\\ip\\cipvtvqwjdvujb4mfis64wva65gwpozt6lbtb5ucsmecp3k5rnor.py":716:43)
#loc262 = loc("./.inductor_cache\\ip\\cipvtvqwjdvujb4mfis64wva65gwpozt6lbtb5ucsmecp3k5rnor.py":720:29)
#loc263 = loc("./.inductor_cache\\ip\\cipvtvqwjdvujb4mfis64wva65gwpozt6lbtb5ucsmecp3k5rnor.py":720:21)
#loc264 = loc("./.inductor_cache\\ip\\cipvtvqwjdvujb4mfis64wva65gwpozt6lbtb5ucsmecp3k5rnor.py":722:29)
#loc265 = loc("./.inductor_cache\\ip\\cipvtvqwjdvujb4mfis64wva65gwpozt6lbtb5ucsmecp3k5rnor.py":722:20)
#loc266 = loc("./.inductor_cache\\ip\\cipvtvqwjdvujb4mfis64wva65gwpozt6lbtb5ucsmecp3k5rnor.py":723:25)
#loc267 = loc("./.inductor_cache\\ip\\cipvtvqwjdvujb4mfis64wva65gwpozt6lbtb5ucsmecp3k5rnor.py":723:22)
#loc268 = loc("./.inductor_cache\\ip\\cipvtvqwjdvujb4mfis64wva65gwpozt6lbtb5ucsmecp3k5rnor.py":723:16)
#loc269 = loc("./.inductor_cache\\ip\\cipvtvqwjdvujb4mfis64wva65gwpozt6lbtb5ucsmecp3k5rnor.py":731:70)
#loc270 = loc("./.inductor_cache\\ip\\cipvtvqwjdvujb4mfis64wva65gwpozt6lbtb5ucsmecp3k5rnor.py":745:45)
#loc271 = loc("./.inductor_cache\\ip\\cipvtvqwjdvujb4mfis64wva65gwpozt6lbtb5ucsmecp3k5rnor.py":747:52)
#loc272 = loc("./.inductor_cache\\ip\\cipvtvqwjdvujb4mfis64wva65gwpozt6lbtb5ucsmecp3k5rnor.py":747:43)
#loc273 = loc("./.inductor_cache\\ip\\cipvtvqwjdvujb4mfis64wva65gwpozt6lbtb5ucsmecp3k5rnor.py":609:62)
#loc274 = loc("./.inductor_cache\\ip\\cipvtvqwjdvujb4mfis64wva65gwpozt6lbtb5ucsmecp3k5rnor.py":612:28)
#loc275 = loc("./.inductor_cache\\ip\\cipvtvqwjdvujb4mfis64wva65gwpozt6lbtb5ucsmecp3k5rnor.py":612:19)
#loc276 = loc("./.inductor_cache\\ip\\cipvtvqwjdvujb4mfis64wva65gwpozt6lbtb5ucsmecp3k5rnor.py":613:28)
#loc277 = loc("./.inductor_cache\\ip\\cipvtvqwjdvujb4mfis64wva65gwpozt6lbtb5ucsmecp3k5rnor.py":613:19)
#loc278 = loc("./.inductor_cache\\ip\\cipvtvqwjdvujb4mfis64wva65gwpozt6lbtb5ucsmecp3k5rnor.py":614:19)
#loc279 = loc("./.inductor_cache\\ip\\cipvtvqwjdvujb4mfis64wva65gwpozt6lbtb5ucsmecp3k5rnor.py":614:8)
#loc280 = loc("./.inductor_cache\\ip\\cipvtvqwjdvujb4mfis64wva65gwpozt6lbtb5ucsmecp3k5rnor.py":306:41)
#loc281 = loc("./.inductor_cache\\ip\\cipvtvqwjdvujb4mfis64wva65gwpozt6lbtb5ucsmecp3k5rnor.py":307:34)
#loc282 = loc("./.inductor_cache\\ip\\cipvtvqwjdvujb4mfis64wva65gwpozt6lbtb5ucsmecp3k5rnor.py":307:47)
#loc283 = loc("./.inductor_cache\\ip\\cipvtvqwjdvujb4mfis64wva65gwpozt6lbtb5ucsmecp3k5rnor.py":308:64)
#loc284 = loc("./.inductor_cache\\ip\\cipvtvqwjdvujb4mfis64wva65gwpozt6lbtb5ucsmecp3k5rnor.py":308:46)
#loc285 = loc("./.inductor_cache\\ip\\cipvtvqwjdvujb4mfis64wva65gwpozt6lbtb5ucsmecp3k5rnor.py":310:36)
#loc286 = loc("./.inductor_cache\\ip\\cipvtvqwjdvujb4mfis64wva65gwpozt6lbtb5ucsmecp3k5rnor.py":318:20)
#loc287 = loc("./.inductor_cache\\ip\\cipvtvqwjdvujb4mfis64wva65gwpozt6lbtb5ucsmecp3k5rnor.py":323:42)
#loc288 = loc("./.inductor_cache\\ip\\cipvtvqwjdvujb4mfis64wva65gwpozt6lbtb5ucsmecp3k5rnor.py":323:23)
#loc289 = loc("./.inductor_cache\\ip\\cipvtvqwjdvujb4mfis64wva65gwpozt6lbtb5ucsmecp3k5rnor.py":323:55)
#loc290 = loc("./.inductor_cache\\ip\\cipvtvqwjdvujb4mfis64wva65gwpozt6lbtb5ucsmecp3k5rnor.py":332:71)
#loc291 = loc("./.inductor_cache\\ip\\cipvtvqwjdvujb4mfis64wva65gwpozt6lbtb5ucsmecp3k5rnor.py":332:61)
#loc292 = loc("./.inductor_cache\\ip\\cipvtvqwjdvujb4mfis64wva65gwpozt6lbtb5ucsmecp3k5rnor.py":332:30)
#loc293 = loc("./.inductor_cache\\ip\\cipvtvqwjdvujb4mfis64wva65gwpozt6lbtb5ucsmecp3k5rnor.py":334:14)
#loc294 = loc("./.inductor_cache\\ip\\cipvtvqwjdvujb4mfis64wva65gwpozt6lbtb5ucsmecp3k5rnor.py":344:27)
#loc295 = loc("./.inductor_cache\\ip\\cipvtvqwjdvujb4mfis64wva65gwpozt6lbtb5ucsmecp3k5rnor.py":344:40)
#loc296 = loc("./.inductor_cache\\ip\\cipvtvqwjdvujb4mfis64wva65gwpozt6lbtb5ucsmecp3k5rnor.py":344:55)
#loc297 = loc("./.inductor_cache\\ip\\cipvtvqwjdvujb4mfis64wva65gwpozt6lbtb5ucsmecp3k5rnor.py":345:29)
#loc298 = loc("./.inductor_cache\\ip\\cipvtvqwjdvujb4mfis64wva65gwpozt6lbtb5ucsmecp3k5rnor.py":345:69)
#loc299 = loc("./.inductor_cache\\ip\\cipvtvqwjdvujb4mfis64wva65gwpozt6lbtb5ucsmecp3k5rnor.py":139:4)
#loc300 = loc(callsite(#loc47 at #loc48))
#loc301 = loc(callsite(#loc49 at #loc48))
#loc302 = loc(callsite(#loc50 at #loc48))
#loc303 = loc(callsite(#loc51 at #loc48))
#loc304 = loc(callsite(#loc52 at #loc48))
#loc305 = loc(callsite(#loc53 at #loc48))
#loc306 = loc(callsite(#loc54 at #loc48))
#loc307 = loc(callsite(#loc49 at #loc55))
#loc308 = loc(callsite(#loc50 at #loc55))
#loc309 = loc(callsite(#loc52 at #loc55))
#loc310 = loc(callsite(#loc54 at #loc55))
#loc311 = loc(callsite(#loc70 at #loc71))
#loc312 = loc(callsite(#loc72 at #loc71))
#loc313 = loc(callsite(#loc73 at #loc71))
#loc314 = loc(callsite(#loc74 at #loc71))
#loc315 = loc(callsite(#loc75 at #loc71))
#loc316 = loc(callsite(#loc76 at #loc71))
#loc317 = loc(callsite(#loc77 at #loc71))
#loc318 = loc(callsite(#loc78 at #loc71))
#loc319 = loc(callsite(#loc79 at #loc71))
#loc320 = loc(callsite(#loc80 at #loc71))
#loc321 = loc(callsite(#loc81 at #loc71))
#loc322 = loc(callsite(#loc82 at #loc83))
#loc323 = loc(callsite(#loc85 at #loc83))
#loc324 = loc(callsite(#loc86 at #loc83))
#loc325 = loc(callsite(#loc87 at #loc84))
#loc326 = loc(callsite(#loc88 at #loc84))
#loc327 = loc(callsite(#loc89 at #loc90))
#loc328 = loc(callsite(#loc89 at #loc91))
#loc329 = loc(callsite(#loc92 at #loc84))
#loc330 = loc(callsite(#loc93 at #loc84))
#loc331 = loc(callsite(#loc94 at #loc84))
#loc332 = loc(callsite(#loc95 at #loc84))
#loc333 = loc(callsite(#loc96 at #loc84))
#loc334 = loc(callsite(#loc97 at #loc84))
#loc335 = loc(callsite(#loc98 at #loc84))
#loc336 = loc(callsite(#loc99 at #loc84))
#loc337 = loc(callsite(#loc100 at #loc84))
#loc338 = loc(callsite(#loc101 at #loc84))
#loc339 = loc(callsite(#loc102 at #loc84))
#loc340 = loc(callsite(#loc103 at #loc84))
#loc341 = loc(callsite(#loc104 at #loc84))
#loc342 = loc(callsite(#loc105 at #loc84))
#loc343 = loc(callsite(#loc106 at #loc84))
#loc344 = loc(callsite(#loc107 at #loc84))
#loc345 = loc(callsite(#loc108 at #loc84))
#loc346 = loc(callsite(#loc109 at #loc84))
#loc347 = loc(callsite(#loc110 at #loc84))
#loc348 = loc(callsite(#loc111 at #loc84))
#loc349 = loc(callsite(#loc112 at #loc84))
#loc350 = loc(callsite(#loc113 at #loc84))
#loc351 = loc(callsite(#loc114 at #loc84))
#loc352 = loc(callsite(#loc115 at #loc84))
#loc353 = loc(callsite(#loc116 at #loc84))
#loc354 = loc(callsite(#loc117 at #loc84))
#loc355 = loc(callsite(#loc118 at #loc84))
#loc356 = loc(callsite(#loc119 at #loc84))
#loc357 = loc(callsite(#loc120 at #loc84))
#loc358 = loc(callsite(#loc121 at #loc84))
#loc359 = loc(callsite(#loc122 at #loc84))
#loc360 = loc(callsite(#loc123 at #loc84))
#loc361 = loc(callsite(#loc124 at #loc84))
#loc362 = loc(callsite(#loc125 at #loc84))
#loc363 = loc(callsite(#loc126 at #loc84))
#loc364 = loc(callsite(#loc127 at #loc84))
#loc365 = loc(callsite(#loc128 at #loc84))
#loc366 = loc(callsite(#loc86 at #loc129))
#loc367 = loc(callsite(#loc130 at #loc84))
#loc368 = loc(callsite(#loc131 at #loc84))
#loc369 = loc(callsite(#loc132 at #loc84))
#loc370 = loc(callsite(#loc133 at #loc84))
#loc371 = loc(callsite(#loc134 at #loc84))
#loc372 = loc(callsite(#loc135 at #loc84))
#loc373 = loc(callsite(#loc136 at #loc84))
#loc374 = loc(callsite(#loc137 at #loc84))
#loc375 = loc(callsite(#loc138 at #loc139))
#loc376 = loc(callsite(#loc140 at #loc139))
#loc377 = loc(callsite(#loc141 at #loc139))
#loc378 = loc(callsite(#loc142 at #loc139))
#loc379 = loc(callsite(#loc143 at #loc139))
#loc380 = loc(callsite(#loc144 at #loc139))
#loc381 = loc(callsite(#loc145 at #loc139))
#loc382 = loc(callsite(#loc146 at #loc139))
#loc383 = loc(callsite(#loc147 at #loc139))
#loc384 = loc(callsite(#loc148 at #loc139))
#loc385 = loc(callsite(#loc149 at #loc139))
#loc386 = loc(callsite(#loc150 at #loc139))
#loc387 = loc(callsite(#loc151 at #loc139))
#loc388 = loc(callsite(#loc152 at #loc139))
#loc389 = loc(callsite(#loc153 at #loc139))
#loc390 = loc(callsite(#loc154 at #loc139))
#loc391 = loc(callsite(#loc155 at #loc139))
#loc392 = loc(callsite(#loc156 at #loc71))
#loc393 = loc(callsite(#loc157 at #loc71))
#loc394 = loc(callsite(#loc158 at #loc71))
#loc395 = loc(callsite(#loc159 at #loc71))
#loc396 = loc(callsite(#loc160 at #loc71))
#loc397 = loc(callsite(#loc161 at #loc71))
#loc398 = loc(callsite(#loc70 at #loc168))
#loc399 = loc(callsite(#loc72 at #loc168))
#loc400 = loc(callsite(#loc73 at #loc168))
#loc401 = loc(callsite(#loc75 at #loc168))
#loc402 = loc(callsite(#loc76 at #loc168))
#loc403 = loc(callsite(#loc77 at #loc168))
#loc404 = loc(callsite(#loc78 at #loc168))
#loc405 = loc(callsite(#loc79 at #loc168))
#loc406 = loc(callsite(#loc80 at #loc168))
#loc407 = loc(callsite(#loc81 at #loc168))
#loc408 = loc(callsite(#loc156 at #loc168))
#loc409 = loc(callsite(#loc157 at #loc168))
#loc410 = loc(callsite(#loc158 at #loc168))
#loc411 = loc(callsite(#loc159 at #loc168))
#loc412 = loc(callsite(#loc160 at #loc168))
#loc413 = loc(callsite(#loc161 at #loc168))
#loc414 = loc(callsite(#loc47 at #loc179))
#loc415 = loc(callsite(#loc49 at #loc179))
#loc416 = loc(callsite(#loc50 at #loc179))
#loc417 = loc(callsite(#loc51 at #loc179))
#loc418 = loc(callsite(#loc52 at #loc179))
#loc419 = loc(callsite(#loc53 at #loc179))
#loc420 = loc(callsite(#loc54 at #loc179))
#loc421 = loc(callsite(#loc49 at #loc180))
#loc422 = loc(callsite(#loc50 at #loc180))
#loc423 = loc(callsite(#loc52 at #loc180))
#loc424 = loc(callsite(#loc54 at #loc180))
#loc425 = loc(callsite(#loc197 at #loc198))
#loc426 = loc(callsite(#loc199 at #loc198))
#loc427 = loc(callsite(#loc200 at #loc198))
#loc428 = loc(callsite(#loc201 at #loc198))
#loc429 = loc(callsite(#loc202 at #loc198))
#loc430 = loc(callsite(#loc203 at #loc198))
#loc431 = loc(callsite(#loc204 at #loc198))
#loc432 = loc(callsite(#loc205 at #loc198))
#loc433 = loc(callsite(#loc206 at #loc198))
#loc434 = loc(callsite(#loc207 at #loc198))
#loc435 = loc(callsite(#loc208 at #loc198))
#loc436 = loc(callsite(#loc209 at #loc198))
#loc437 = loc(callsite(#loc82 at #loc210))
#loc438 = loc(callsite(#loc85 at #loc210))
#loc439 = loc(callsite(#loc86 at #loc210))
#loc440 = loc(callsite(#loc212 at #loc211))
#loc441 = loc(callsite(#loc213 at #loc211))
#loc442 = loc(callsite(#loc214 at #loc211))
#loc443 = loc(callsite(#loc215 at #loc211))
#loc444 = loc(callsite(#loc216 at #loc211))
#loc445 = loc(callsite(#loc217 at #loc211))
#loc446 = loc(callsite(#loc218 at #loc211))
#loc447 = loc(callsite(#loc89 at #loc219))
#loc448 = loc(callsite(#loc89 at #loc220))
#loc449 = loc(callsite(#loc221 at #loc211))
#loc450 = loc(callsite(#loc222 at #loc211))
#loc451 = loc(callsite(#loc223 at #loc211))
#loc452 = loc(callsite(#loc224 at #loc211))
#loc453 = loc(callsite(#loc225 at #loc211))
#loc454 = loc(callsite(#loc226 at #loc211))
#loc455 = loc(callsite(#loc227 at #loc211))
#loc456 = loc(callsite(#loc228 at #loc211))
#loc457 = loc(callsite(#loc229 at #loc211))
#loc458 = loc(callsite(#loc230 at #loc211))
#loc459 = loc(callsite(#loc231 at #loc211))
#loc460 = loc(callsite(#loc232 at #loc211))
#loc461 = loc(callsite(#loc233 at #loc211))
#loc462 = loc(callsite(#loc234 at #loc211))
#loc463 = loc(callsite(#loc235 at #loc211))
#loc464 = loc(callsite(#loc236 at #loc211))
#loc465 = loc(callsite(#loc237 at #loc211))
#loc466 = loc(callsite(#loc238 at #loc211))
#loc467 = loc(callsite(#loc239 at #loc211))
#loc468 = loc(callsite(#loc240 at #loc211))
#loc469 = loc(callsite(#loc241 at #loc211))
#loc470 = loc(callsite(#loc242 at #loc211))
#loc471 = loc(callsite(#loc243 at #loc211))
#loc472 = loc(callsite(#loc244 at #loc211))
#loc473 = loc(callsite(#loc245 at #loc211))
#loc474 = loc(callsite(#loc246 at #loc211))
#loc475 = loc(callsite(#loc247 at #loc211))
#loc476 = loc(callsite(#loc248 at #loc211))
#loc477 = loc(callsite(#loc249 at #loc211))
#loc478 = loc(callsite(#loc250 at #loc211))
#loc479 = loc(callsite(#loc251 at #loc211))
#loc480 = loc(callsite(#loc252 at #loc211))
#loc481 = loc(callsite(#loc253 at #loc211))
#loc482 = loc(callsite(#loc254 at #loc211))
#loc483 = loc(callsite(#loc255 at #loc211))
#loc484 = loc(callsite(#loc256 at #loc211))
#loc485 = loc(callsite(#loc257 at #loc211))
#loc486 = loc(callsite(#loc258 at #loc211))
#loc487 = loc(callsite(#loc259 at #loc260))
#loc488 = loc(callsite(#loc53 at #loc260))
#loc489 = loc(callsite(#loc54 at #loc260))
#loc490 = loc(callsite(#loc261 at #loc211))
#loc491 = loc(callsite(#loc262 at #loc211))
#loc492 = loc(callsite(#loc263 at #loc211))
#loc493 = loc(callsite(#loc264 at #loc211))
#loc494 = loc(callsite(#loc265 at #loc211))
#loc495 = loc(callsite(#loc266 at #loc211))
#loc496 = loc(callsite(#loc267 at #loc211))
#loc497 = loc(callsite(#loc268 at #loc211))
#loc498 = loc(callsite(#loc269 at #loc211))
#loc499 = loc(callsite(#loc270 at #loc211))
#loc500 = loc(callsite(#loc271 at #loc211))
#loc501 = loc(callsite(#loc272 at #loc211))
#loc502 = loc(callsite(#loc138 at #loc273))
#loc503 = loc(callsite(#loc140 at #loc273))
#loc504 = loc(callsite(#loc141 at #loc273))
#loc505 = loc(callsite(#loc142 at #loc273))
#loc506 = loc(callsite(#loc143 at #loc273))
#loc507 = loc(callsite(#loc144 at #loc273))
#loc508 = loc(callsite(#loc145 at #loc273))
#loc509 = loc(callsite(#loc146 at #loc273))
#loc510 = loc(callsite(#loc147 at #loc273))
#loc511 = loc(callsite(#loc148 at #loc273))
#loc512 = loc(callsite(#loc149 at #loc273))
#loc513 = loc(callsite(#loc150 at #loc273))
#loc514 = loc(callsite(#loc151 at #loc273))
#loc515 = loc(callsite(#loc152 at #loc273))
#loc516 = loc(callsite(#loc153 at #loc273))
#loc517 = loc(callsite(#loc154 at #loc273))
#loc518 = loc(callsite(#loc155 at #loc273))
#loc519 = loc(callsite(#loc274 at #loc198))
#loc520 = loc(callsite(#loc275 at #loc198))
#loc521 = loc(callsite(#loc276 at #loc198))
#loc522 = loc(callsite(#loc277 at #loc198))
#loc523 = loc(callsite(#loc278 at #loc198))
#loc524 = loc(callsite(#loc279 at #loc198))
#loc525 = loc(callsite(#loc197 at #loc286))
#loc526 = loc(callsite(#loc199 at #loc286))
#loc527 = loc(callsite(#loc200 at #loc286))
#loc528 = loc(callsite(#loc202 at #loc286))
#loc529 = loc(callsite(#loc203 at #loc286))
#loc530 = loc(callsite(#loc204 at #loc286))
#loc531 = loc(callsite(#loc205 at #loc286))
#loc532 = loc(callsite(#loc206 at #loc286))
#loc533 = loc(callsite(#loc207 at #loc286))
#loc534 = loc(callsite(#loc208 at #loc286))
#loc535 = loc(callsite(#loc209 at #loc286))
#loc536 = loc(callsite(#loc274 at #loc286))
#loc537 = loc(callsite(#loc275 at #loc286))
#loc538 = loc(callsite(#loc276 at #loc286))
#loc539 = loc(callsite(#loc277 at #loc286))
#loc540 = loc(callsite(#loc278 at #loc286))
#loc541 = loc(callsite(#loc279 at #loc286))
#loc542 = loc(callsite(#loc322 at #loc84))
#loc543 = loc(callsite(#loc323 at #loc84))
#loc544 = loc(callsite(#loc324 at #loc84))
#loc545 = loc(callsite(#loc325 at #loc71))
#loc546 = loc(callsite(#loc326 at #loc71))
#loc547 = loc(callsite(#loc327 at #loc84))
#loc548 = loc(callsite(#loc328 at #loc84))
#loc549 = loc(callsite(#loc329 at #loc71))
#loc550 = loc(callsite(#loc330 at #loc71))
#loc551 = loc(callsite(#loc331 at #loc71))
#loc552 = loc(callsite(#loc332 at #loc71))
#loc553 = loc(callsite(#loc333 at #loc71))
#loc554 = loc(callsite(#loc334 at #loc71))
#loc555 = loc(callsite(#loc335 at #loc71))
#loc556 = loc(callsite(#loc336 at #loc71))
#loc557 = loc(callsite(#loc337 at #loc71))
#loc558 = loc(callsite(#loc338 at #loc71))
#loc559 = loc(callsite(#loc339 at #loc71))
#loc560 = loc(callsite(#loc340 at #loc71))
#loc561 = loc(callsite(#loc341 at #loc71))
#loc562 = loc(callsite(#loc342 at #loc71))
#loc563 = loc(callsite(#loc343 at #loc71))
#loc564 = loc(callsite(#loc344 at #loc71))
#loc565 = loc(callsite(#loc345 at #loc71))
#loc566 = loc(callsite(#loc346 at #loc71))
#loc567 = loc(callsite(#loc347 at #loc71))
#loc568 = loc(callsite(#loc348 at #loc71))
#loc569 = loc(callsite(#loc349 at #loc71))
#loc570 = loc(callsite(#loc350 at #loc71))
#loc571 = loc(callsite(#loc351 at #loc71))
#loc572 = loc(callsite(#loc352 at #loc71))
#loc573 = loc(callsite(#loc353 at #loc71))
#loc574 = loc(callsite(#loc354 at #loc71))
#loc575 = loc(callsite(#loc355 at #loc71))
#loc576 = loc(callsite(#loc356 at #loc71))
#loc577 = loc(callsite(#loc357 at #loc71))
#loc578 = loc(callsite(#loc358 at #loc71))
#loc579 = loc(callsite(#loc359 at #loc71))
#loc580 = loc(callsite(#loc360 at #loc71))
#loc581 = loc(callsite(#loc361 at #loc71))
#loc582 = loc(callsite(#loc362 at #loc71))
#loc583 = loc(callsite(#loc363 at #loc71))
#loc584 = loc(callsite(#loc364 at #loc71))
#loc585 = loc(callsite(#loc365 at #loc71))
#loc586 = loc(callsite(#loc366 at #loc84))
#loc587 = loc(callsite(#loc367 at #loc71))
#loc588 = loc(callsite(#loc368 at #loc71))
#loc589 = loc(callsite(#loc369 at #loc71))
#loc590 = loc(callsite(#loc370 at #loc71))
#loc591 = loc(callsite(#loc371 at #loc71))
#loc592 = loc(callsite(#loc372 at #loc71))
#loc593 = loc(callsite(#loc373 at #loc71))
#loc594 = loc(callsite(#loc374 at #loc71))
#loc595 = loc(callsite(#loc375 at #loc71))
#loc596 = loc(callsite(#loc376 at #loc71))
#loc597 = loc(callsite(#loc377 at #loc71))
#loc598 = loc(callsite(#loc378 at #loc71))
#loc599 = loc(callsite(#loc379 at #loc71))
#loc600 = loc(callsite(#loc380 at #loc71))
#loc601 = loc(callsite(#loc381 at #loc71))
#loc602 = loc(callsite(#loc382 at #loc71))
#loc603 = loc(callsite(#loc383 at #loc71))
#loc604 = loc(callsite(#loc384 at #loc71))
#loc605 = loc(callsite(#loc385 at #loc71))
#loc606 = loc(callsite(#loc386 at #loc71))
#loc607 = loc(callsite(#loc387 at #loc71))
#loc608 = loc(callsite(#loc388 at #loc71))
#loc609 = loc(callsite(#loc389 at #loc71))
#loc610 = loc(callsite(#loc390 at #loc71))
#loc611 = loc(callsite(#loc391 at #loc71))
#loc612 = loc(callsite(#loc325 at #loc168))
#loc613 = loc(callsite(#loc326 at #loc168))
#loc614 = loc(callsite(#loc329 at #loc168))
#loc615 = loc(callsite(#loc363 at #loc168))
#loc616 = loc(callsite(#loc364 at #loc168))
#loc617 = loc(callsite(#loc365 at #loc168))
#loc618 = loc(callsite(#loc367 at #loc168))
#loc619 = loc(callsite(#loc368 at #loc168))
#loc620 = loc(callsite(#loc369 at #loc168))
#loc621 = loc(callsite(#loc370 at #loc168))
#loc622 = loc(callsite(#loc371 at #loc168))
#loc623 = loc(callsite(#loc373 at #loc168))
#loc624 = loc(callsite(#loc374 at #loc168))
#loc625 = loc(callsite(#loc375 at #loc168))
#loc626 = loc(callsite(#loc376 at #loc168))
#loc627 = loc(callsite(#loc377 at #loc168))
#loc628 = loc(callsite(#loc378 at #loc168))
#loc629 = loc(callsite(#loc379 at #loc168))
#loc630 = loc(callsite(#loc380 at #loc168))
#loc631 = loc(callsite(#loc381 at #loc168))
#loc632 = loc(callsite(#loc382 at #loc168))
#loc633 = loc(callsite(#loc383 at #loc168))
#loc634 = loc(callsite(#loc384 at #loc168))
#loc635 = loc(callsite(#loc385 at #loc168))
#loc636 = loc(callsite(#loc386 at #loc168))
#loc637 = loc(callsite(#loc387 at #loc168))
#loc638 = loc(callsite(#loc388 at #loc168))
#loc639 = loc(callsite(#loc389 at #loc168))
#loc640 = loc(callsite(#loc390 at #loc168))
#loc641 = loc(callsite(#loc391 at #loc168))
#loc642 = loc(callsite(#loc437 at #loc211))
#loc643 = loc(callsite(#loc438 at #loc211))
#loc644 = loc(callsite(#loc439 at #loc211))
#loc645 = loc(callsite(#loc440 at #loc198))
#loc646 = loc(callsite(#loc441 at #loc198))
#loc647 = loc(callsite(#loc442 at #loc198))
#loc648 = loc(callsite(#loc443 at #loc198))
#loc649 = loc(callsite(#loc444 at #loc198))
#loc650 = loc(callsite(#loc445 at #loc198))
#loc651 = loc(callsite(#loc446 at #loc198))
#loc652 = loc(callsite(#loc447 at #loc211))
#loc653 = loc(callsite(#loc448 at #loc211))
#loc654 = loc(callsite(#loc449 at #loc198))
#loc655 = loc(callsite(#loc450 at #loc198))
#loc656 = loc(callsite(#loc451 at #loc198))
#loc657 = loc(callsite(#loc452 at #loc198))
#loc658 = loc(callsite(#loc453 at #loc198))
#loc659 = loc(callsite(#loc454 at #loc198))
#loc660 = loc(callsite(#loc455 at #loc198))
#loc661 = loc(callsite(#loc456 at #loc198))
#loc662 = loc(callsite(#loc457 at #loc198))
#loc663 = loc(callsite(#loc458 at #loc198))
#loc664 = loc(callsite(#loc459 at #loc198))
#loc665 = loc(callsite(#loc460 at #loc198))
#loc666 = loc(callsite(#loc461 at #loc198))
#loc667 = loc(callsite(#loc462 at #loc198))
#loc668 = loc(callsite(#loc463 at #loc198))
#loc669 = loc(callsite(#loc464 at #loc198))
#loc670 = loc(callsite(#loc465 at #loc198))
#loc671 = loc(callsite(#loc466 at #loc198))
#loc672 = loc(callsite(#loc467 at #loc198))
#loc673 = loc(callsite(#loc468 at #loc198))
#loc674 = loc(callsite(#loc469 at #loc198))
#loc675 = loc(callsite(#loc470 at #loc198))
#loc676 = loc(callsite(#loc471 at #loc198))
#loc677 = loc(callsite(#loc472 at #loc198))
#loc678 = loc(callsite(#loc473 at #loc198))
#loc679 = loc(callsite(#loc474 at #loc198))
#loc680 = loc(callsite(#loc475 at #loc198))
#loc681 = loc(callsite(#loc476 at #loc198))
#loc682 = loc(callsite(#loc477 at #loc198))
#loc683 = loc(callsite(#loc478 at #loc198))
#loc684 = loc(callsite(#loc479 at #loc198))
#loc685 = loc(callsite(#loc480 at #loc198))
#loc686 = loc(callsite(#loc481 at #loc198))
#loc687 = loc(callsite(#loc482 at #loc198))
#loc688 = loc(callsite(#loc483 at #loc198))
#loc689 = loc(callsite(#loc484 at #loc198))
#loc690 = loc(callsite(#loc485 at #loc198))
#loc691 = loc(callsite(#loc486 at #loc198))
#loc692 = loc(callsite(#loc487 at #loc211))
#loc693 = loc(callsite(#loc488 at #loc211))
#loc694 = loc(callsite(#loc489 at #loc211))
#loc695 = loc(callsite(#loc490 at #loc198))
#loc696 = loc(callsite(#loc491 at #loc198))
#loc697 = loc(callsite(#loc492 at #loc198))
#loc698 = loc(callsite(#loc493 at #loc198))
#loc699 = loc(callsite(#loc494 at #loc198))
#loc700 = loc(callsite(#loc495 at #loc198))
#loc701 = loc(callsite(#loc496 at #loc198))
#loc702 = loc(callsite(#loc497 at #loc198))
#loc703 = loc(callsite(#loc498 at #loc198))
#loc704 = loc(callsite(#loc499 at #loc198))
#loc705 = loc(callsite(#loc500 at #loc198))
#loc706 = loc(callsite(#loc501 at #loc198))
#loc707 = loc(callsite(#loc502 at #loc198))
#loc708 = loc(callsite(#loc503 at #loc198))
#loc709 = loc(callsite(#loc504 at #loc198))
#loc710 = loc(callsite(#loc505 at #loc198))
#loc711 = loc(callsite(#loc506 at #loc198))
#loc712 = loc(callsite(#loc507 at #loc198))
#loc713 = loc(callsite(#loc508 at #loc198))
#loc714 = loc(callsite(#loc509 at #loc198))
#loc715 = loc(callsite(#loc510 at #loc198))
#loc716 = loc(callsite(#loc511 at #loc198))
#loc717 = loc(callsite(#loc512 at #loc198))
#loc718 = loc(callsite(#loc513 at #loc198))
#loc719 = loc(callsite(#loc514 at #loc198))
#loc720 = loc(callsite(#loc515 at #loc198))
#loc721 = loc(callsite(#loc516 at #loc198))
#loc722 = loc(callsite(#loc517 at #loc198))
#loc723 = loc(callsite(#loc518 at #loc198))
#loc724 = loc(callsite(#loc440 at #loc286))
#loc725 = loc(callsite(#loc441 at #loc286))
#loc726 = loc(callsite(#loc442 at #loc286))
#loc727 = loc(callsite(#loc443 at #loc286))
#loc728 = loc(callsite(#loc444 at #loc286))
#loc729 = loc(callsite(#loc445 at #loc286))
#loc730 = loc(callsite(#loc446 at #loc286))
#loc731 = loc(callsite(#loc449 at #loc286))
#loc732 = loc(callsite(#loc483 at #loc286))
#loc733 = loc(callsite(#loc484 at #loc286))
#loc734 = loc(callsite(#loc485 at #loc286))
#loc735 = loc(callsite(#loc486 at #loc286))
#loc736 = loc(callsite(#loc490 at #loc286))
#loc737 = loc(callsite(#loc491 at #loc286))
#loc738 = loc(callsite(#loc492 at #loc286))
#loc739 = loc(callsite(#loc493 at #loc286))
#loc740 = loc(callsite(#loc494 at #loc286))
#loc741 = loc(callsite(#loc495 at #loc286))
#loc742 = loc(callsite(#loc496 at #loc286))
#loc743 = loc(callsite(#loc497 at #loc286))
#loc744 = loc(callsite(#loc498 at #loc286))
#loc745 = loc(callsite(#loc500 at #loc286))
#loc746 = loc(callsite(#loc501 at #loc286))
#loc747 = loc(callsite(#loc502 at #loc286))
#loc748 = loc(callsite(#loc503 at #loc286))
#loc749 = loc(callsite(#loc504 at #loc286))
#loc750 = loc(callsite(#loc505 at #loc286))
#loc751 = loc(callsite(#loc506 at #loc286))
#loc752 = loc(callsite(#loc507 at #loc286))
#loc753 = loc(callsite(#loc508 at #loc286))
#loc754 = loc(callsite(#loc509 at #loc286))
#loc755 = loc(callsite(#loc510 at #loc286))
#loc756 = loc(callsite(#loc511 at #loc286))
#loc757 = loc(callsite(#loc512 at #loc286))
#loc758 = loc(callsite(#loc513 at #loc286))
#loc759 = loc(callsite(#loc514 at #loc286))
#loc760 = loc(callsite(#loc515 at #loc286))
#loc761 = loc(callsite(#loc516 at #loc286))
#loc762 = loc(callsite(#loc517 at #loc286))
#loc763 = loc(callsite(#loc518 at #loc286))
#loc764 = loc(callsite(#loc542 at #loc71))
#loc765 = loc(callsite(#loc543 at #loc71))
#loc766 = loc(callsite(#loc544 at #loc71))
#loc767 = loc(callsite(#loc547 at #loc71))
#loc768 = loc(callsite(#loc548 at #loc71))
#loc769 = loc(callsite(#loc586 at #loc71))
#loc770 = loc(callsite(#loc542 at #loc168))
#loc771 = loc(callsite(#loc543 at #loc168))
#loc772 = loc(callsite(#loc544 at #loc168))
#loc773 = loc(callsite(#loc586 at #loc168))
#loc774 = loc(callsite(#loc642 at #loc198))
#loc775 = loc(callsite(#loc643 at #loc198))
#loc776 = loc(callsite(#loc644 at #loc198))
#loc777 = loc(callsite(#loc652 at #loc198))
#loc778 = loc(callsite(#loc653 at #loc198))
#loc779 = loc(callsite(#loc692 at #loc198))
#loc780 = loc(callsite(#loc693 at #loc198))
#loc781 = loc(callsite(#loc694 at #loc198))
#loc782 = loc(callsite(#loc642 at #loc286))
#loc783 = loc(callsite(#loc643 at #loc286))
#loc784 = loc(callsite(#loc644 at #loc286))
#loc785 = loc(callsite(#loc692 at #loc286))
#loc786 = loc(callsite(#loc693 at #loc286))
#loc787 = loc(callsite(#loc694 at #loc286))
