#loc = loc("./.inductor_cache\\uh\\cuh57xppax3yjdlwyl6wr3mutjzqlek4h4u45au6lm7kbv4bxmxd.py":18:0)
module {
  tt.func public @triton_poi_fused_add_expand_mul_neg_pow_select_select_backward_squeeze_unsqueeze_51(%arg0: !tt.ptr<f32> {tt.divisibility = 16 : i32} loc("./.inductor_cache\\uh\\cuh57xppax3yjdlwyl6wr3mutjzqlek4h4u45au6lm7kbv4bxmxd.py":18:0), %arg1: !tt.ptr<f32> {tt.divisibility = 16 : i32} loc("./.inductor_cache\\uh\\cuh57xppax3yjdlwyl6wr3mutjzqlek4h4u45au6lm7kbv4bxmxd.py":18:0), %arg2: !tt.ptr<f32> {tt.divisibility = 16 : i32} loc("./.inductor_cache\\uh\\cuh57xppax3yjdlwyl6wr3mutjzqlek4h4u45au6lm7kbv4bxmxd.py":18:0), %arg3: !tt.ptr<f32> {tt.divisibility = 16 : i32} loc("./.inductor_cache\\uh\\cuh57xppax3yjdlwyl6wr3mutjzqlek4h4u45au6lm7kbv4bxmxd.py":18:0), %arg4: !tt.ptr<f32> {tt.divisibility = 16 : i32} loc("./.inductor_cache\\uh\\cuh57xppax3yjdlwyl6wr3mutjzqlek4h4u45au6lm7kbv4bxmxd.py":18:0), %arg5: !tt.ptr<f32> {tt.divisibility = 16 : i32} loc("./.inductor_cache\\uh\\cuh57xppax3yjdlwyl6wr3mutjzqlek4h4u45au6lm7kbv4bxmxd.py":18:0), %arg6: !tt.ptr<f32> {tt.divisibility = 16 : i32} loc("./.inductor_cache\\uh\\cuh57xppax3yjdlwyl6wr3mutjzqlek4h4u45au6lm7kbv4bxmxd.py":18:0), %arg7: !tt.ptr<f32> {tt.divisibility = 16 : i32} loc("./.inductor_cache\\uh\\cuh57xppax3yjdlwyl6wr3mutjzqlek4h4u45au6lm7kbv4bxmxd.py":18:0), %arg8: !tt.ptr<f32> {tt.divisibility = 16 : i32} loc("./.inductor_cache\\uh\\cuh57xppax3yjdlwyl6wr3mutjzqlek4h4u45au6lm7kbv4bxmxd.py":18:0), %arg9: !tt.ptr<f32> {tt.divisibility = 16 : i32} loc("./.inductor_cache\\uh\\cuh57xppax3yjdlwyl6wr3mutjzqlek4h4u45au6lm7kbv4bxmxd.py":18:0), %arg10: !tt.ptr<f32> {tt.divisibility = 16 : i32} loc("./.inductor_cache\\uh\\cuh57xppax3yjdlwyl6wr3mutjzqlek4h4u45au6lm7kbv4bxmxd.py":18:0), %arg11: !tt.ptr<f32> {tt.divisibility = 16 : i32} loc("./.inductor_cache\\uh\\cuh57xppax3yjdlwyl6wr3mutjzqlek4h4u45au6lm7kbv4bxmxd.py":18:0), %arg12: !tt.ptr<f32> {tt.divisibility = 16 : i32} loc("./.inductor_cache\\uh\\cuh57xppax3yjdlwyl6wr3mutjzqlek4h4u45au6lm7kbv4bxmxd.py":18:0), %arg13: !tt.ptr<f32> {tt.divisibility = 16 : i32} loc("./.inductor_cache\\uh\\cuh57xppax3yjdlwyl6wr3mutjzqlek4h4u45au6lm7kbv4bxmxd.py":18:0), %arg14: !tt.ptr<f32> {tt.divisibility = 16 : i32} loc("./.inductor_cache\\uh\\cuh57xppax3yjdlwyl6wr3mutjzqlek4h4u45au6lm7kbv4bxmxd.py":18:0), %arg15: !tt.ptr<f32> {tt.divisibility = 16 : i32} loc("./.inductor_cache\\uh\\cuh57xppax3yjdlwyl6wr3mutjzqlek4h4u45au6lm7kbv4bxmxd.py":18:0), %arg16: !tt.ptr<f32> {tt.divisibility = 16 : i32} loc("./.inductor_cache\\uh\\cuh57xppax3yjdlwyl6wr3mutjzqlek4h4u45au6lm7kbv4bxmxd.py":18:0), %arg17: !tt.ptr<f32> {tt.divisibility = 16 : i32} loc("./.inductor_cache\\uh\\cuh57xppax3yjdlwyl6wr3mutjzqlek4h4u45au6lm7kbv4bxmxd.py":18:0), %arg18: !tt.ptr<f32> {tt.divisibility = 16 : i32} loc("./.inductor_cache\\uh\\cuh57xppax3yjdlwyl6wr3mutjzqlek4h4u45au6lm7kbv4bxmxd.py":18:0), %arg19: !tt.ptr<f32> {tt.divisibility = 16 : i32} loc("./.inductor_cache\\uh\\cuh57xppax3yjdlwyl6wr3mutjzqlek4h4u45au6lm7kbv4bxmxd.py":18:0), %arg20: !tt.ptr<f32> {tt.divisibility = 16 : i32} loc("./.inductor_cache\\uh\\cuh57xppax3yjdlwyl6wr3mutjzqlek4h4u45au6lm7kbv4bxmxd.py":18:0), %arg21: !tt.ptr<f32> {tt.divisibility = 16 : i32} loc("./.inductor_cache\\uh\\cuh57xppax3yjdlwyl6wr3mutjzqlek4h4u45au6lm7kbv4bxmxd.py":18:0), %arg22: !tt.ptr<f32> {tt.divisibility = 16 : i32} loc("./.inductor_cache\\uh\\cuh57xppax3yjdlwyl6wr3mutjzqlek4h4u45au6lm7kbv4bxmxd.py":18:0), %arg23: !tt.ptr<f32> {tt.divisibility = 16 : i32} loc("./.inductor_cache\\uh\\cuh57xppax3yjdlwyl6wr3mutjzqlek4h4u45au6lm7kbv4bxmxd.py":18:0), %arg24: !tt.ptr<f32> {tt.divisibility = 16 : i32} loc("./.inductor_cache\\uh\\cuh57xppax3yjdlwyl6wr3mutjzqlek4h4u45au6lm7kbv4bxmxd.py":18:0), %arg25: !tt.ptr<f32> {tt.divisibility = 16 : i32} loc("./.inductor_cache\\uh\\cuh57xppax3yjdlwyl6wr3mutjzqlek4h4u45au6lm7kbv4bxmxd.py":18:0), %arg26: !tt.ptr<f32> {tt.divisibility = 16 : i32} loc("./.inductor_cache\\uh\\cuh57xppax3yjdlwyl6wr3mutjzqlek4h4u45au6lm7kbv4bxmxd.py":18:0), %arg27: !tt.ptr<f32> {tt.divisibility = 16 : i32} loc("./.inductor_cache\\uh\\cuh57xppax3yjdlwyl6wr3mutjzqlek4h4u45au6lm7kbv4bxmxd.py":18:0), %arg28: !tt.ptr<f32> {tt.divisibility = 16 : i32} loc("./.inductor_cache\\uh\\cuh57xppax3yjdlwyl6wr3mutjzqlek4h4u45au6lm7kbv4bxmxd.py":18:0), %arg29: !tt.ptr<f32> {tt.divisibility = 16 : i32} loc("./.inductor_cache\\uh\\cuh57xppax3yjdlwyl6wr3mutjzqlek4h4u45au6lm7kbv4bxmxd.py":18:0), %arg30: !tt.ptr<f32> {tt.divisibility = 16 : i32} loc("./.inductor_cache\\uh\\cuh57xppax3yjdlwyl6wr3mutjzqlek4h4u45au6lm7kbv4bxmxd.py":18:0), %arg31: !tt.ptr<f32> {tt.divisibility = 16 : i32} loc("./.inductor_cache\\uh\\cuh57xppax3yjdlwyl6wr3mutjzqlek4h4u45au6lm7kbv4bxmxd.py":18:0), %arg32: !tt.ptr<f32> {tt.divisibility = 16 : i32} loc("./.inductor_cache\\uh\\cuh57xppax3yjdlwyl6wr3mutjzqlek4h4u45au6lm7kbv4bxmxd.py":18:0), %arg33: !tt.ptr<f32> {tt.divisibility = 16 : i32} loc("./.inductor_cache\\uh\\cuh57xppax3yjdlwyl6wr3mutjzqlek4h4u45au6lm7kbv4bxmxd.py":18:0), %arg34: !tt.ptr<f32> {tt.divisibility = 16 : i32} loc("./.inductor_cache\\uh\\cuh57xppax3yjdlwyl6wr3mutjzqlek4h4u45au6lm7kbv4bxmxd.py":18:0), %arg35: !tt.ptr<f32> {tt.divisibility = 16 : i32} loc("./.inductor_cache\\uh\\cuh57xppax3yjdlwyl6wr3mutjzqlek4h4u45au6lm7kbv4bxmxd.py":18:0), %arg36: !tt.ptr<f32> {tt.divisibility = 16 : i32} loc("./.inductor_cache\\uh\\cuh57xppax3yjdlwyl6wr3mutjzqlek4h4u45au6lm7kbv4bxmxd.py":18:0), %arg37: !tt.ptr<f32> {tt.divisibility = 16 : i32} loc("./.inductor_cache\\uh\\cuh57xppax3yjdlwyl6wr3mutjzqlek4h4u45au6lm7kbv4bxmxd.py":18:0), %arg38: !tt.ptr<f32> {tt.divisibility = 16 : i32} loc("./.inductor_cache\\uh\\cuh57xppax3yjdlwyl6wr3mutjzqlek4h4u45au6lm7kbv4bxmxd.py":18:0), %arg39: !tt.ptr<f32> {tt.divisibility = 16 : i32} loc("./.inductor_cache\\uh\\cuh57xppax3yjdlwyl6wr3mutjzqlek4h4u45au6lm7kbv4bxmxd.py":18:0), %arg40: !tt.ptr<f32> {tt.divisibility = 16 : i32} loc("./.inductor_cache\\uh\\cuh57xppax3yjdlwyl6wr3mutjzqlek4h4u45au6lm7kbv4bxmxd.py":18:0), %arg41: !tt.ptr<f32> {tt.divisibility = 16 : i32} loc("./.inductor_cache\\uh\\cuh57xppax3yjdlwyl6wr3mutjzqlek4h4u45au6lm7kbv4bxmxd.py":18:0), %arg42: !tt.ptr<f32> {tt.divisibility = 16 : i32} loc("./.inductor_cache\\uh\\cuh57xppax3yjdlwyl6wr3mutjzqlek4h4u45au6lm7kbv4bxmxd.py":18:0), %arg43: !tt.ptr<f32> {tt.divisibility = 16 : i32} loc("./.inductor_cache\\uh\\cuh57xppax3yjdlwyl6wr3mutjzqlek4h4u45au6lm7kbv4bxmxd.py":18:0), %arg44: !tt.ptr<f32> {tt.divisibility = 16 : i32} loc("./.inductor_cache\\uh\\cuh57xppax3yjdlwyl6wr3mutjzqlek4h4u45au6lm7kbv4bxmxd.py":18:0), %arg45: !tt.ptr<f32> {tt.divisibility = 16 : i32} loc("./.inductor_cache\\uh\\cuh57xppax3yjdlwyl6wr3mutjzqlek4h4u45au6lm7kbv4bxmxd.py":18:0), %arg46: !tt.ptr<f32> {tt.divisibility = 16 : i32} loc("./.inductor_cache\\uh\\cuh57xppax3yjdlwyl6wr3mutjzqlek4h4u45au6lm7kbv4bxmxd.py":18:0), %arg47: !tt.ptr<f32> {tt.divisibility = 16 : i32} loc("./.inductor_cache\\uh\\cuh57xppax3yjdlwyl6wr3mutjzqlek4h4u45au6lm7kbv4bxmxd.py":18:0), %arg48: !tt.ptr<f32> {tt.divisibility = 16 : i32} loc("./.inductor_cache\\uh\\cuh57xppax3yjdlwyl6wr3mutjzqlek4h4u45au6lm7kbv4bxmxd.py":18:0), %arg49: !tt.ptr<f32> {tt.divisibility = 16 : i32} loc("./.inductor_cache\\uh\\cuh57xppax3yjdlwyl6wr3mutjzqlek4h4u45au6lm7kbv4bxmxd.py":18:0), %arg50: !tt.ptr<f32> {tt.divisibility = 16 : i32} loc("./.inductor_cache\\uh\\cuh57xppax3yjdlwyl6wr3mutjzqlek4h4u45au6lm7kbv4bxmxd.py":18:0), %arg51: !tt.ptr<f32> {tt.divisibility = 16 : i32} loc("./.inductor_cache\\uh\\cuh57xppax3yjdlwyl6wr3mutjzqlek4h4u45au6lm7kbv4bxmxd.py":18:0), %arg52: !tt.ptr<f32> {tt.divisibility = 16 : i32} loc("./.inductor_cache\\uh\\cuh57xppax3yjdlwyl6wr3mutjzqlek4h4u45au6lm7kbv4bxmxd.py":18:0), %arg53: !tt.ptr<f32> {tt.divisibility = 16 : i32} loc("./.inductor_cache\\uh\\cuh57xppax3yjdlwyl6wr3mutjzqlek4h4u45au6lm7kbv4bxmxd.py":18:0), %arg54: !tt.ptr<f32> {tt.divisibility = 16 : i32} loc("./.inductor_cache\\uh\\cuh57xppax3yjdlwyl6wr3mutjzqlek4h4u45au6lm7kbv4bxmxd.py":18:0), %arg55: !tt.ptr<f32> {tt.divisibility = 16 : i32} loc("./.inductor_cache\\uh\\cuh57xppax3yjdlwyl6wr3mutjzqlek4h4u45au6lm7kbv4bxmxd.py":18:0), %arg56: !tt.ptr<f32> {tt.divisibility = 16 : i32} loc("./.inductor_cache\\uh\\cuh57xppax3yjdlwyl6wr3mutjzqlek4h4u45au6lm7kbv4bxmxd.py":18:0), %arg57: !tt.ptr<f32> {tt.divisibility = 16 : i32} loc("./.inductor_cache\\uh\\cuh57xppax3yjdlwyl6wr3mutjzqlek4h4u45au6lm7kbv4bxmxd.py":18:0), %arg58: !tt.ptr<f32> {tt.divisibility = 16 : i32} loc("./.inductor_cache\\uh\\cuh57xppax3yjdlwyl6wr3mutjzqlek4h4u45au6lm7kbv4bxmxd.py":18:0), %arg59: !tt.ptr<f32> {tt.divisibility = 16 : i32} loc("./.inductor_cache\\uh\\cuh57xppax3yjdlwyl6wr3mutjzqlek4h4u45au6lm7kbv4bxmxd.py":18:0), %arg60: !tt.ptr<f32> {tt.divisibility = 16 : i32} loc("./.inductor_cache\\uh\\cuh57xppax3yjdlwyl6wr3mutjzqlek4h4u45au6lm7kbv4bxmxd.py":18:0), %arg61: !tt.ptr<f32> {tt.divisibility = 16 : i32} loc("./.inductor_cache\\uh\\cuh57xppax3yjdlwyl6wr3mutjzqlek4h4u45au6lm7kbv4bxmxd.py":18:0), %arg62: !tt.ptr<f32> {tt.divisibility = 16 : i32} loc("./.inductor_cache\\uh\\cuh57xppax3yjdlwyl6wr3mutjzqlek4h4u45au6lm7kbv4bxmxd.py":18:0), %arg63: !tt.ptr<f32> {tt.divisibility = 16 : i32} loc("./.inductor_cache\\uh\\cuh57xppax3yjdlwyl6wr3mutjzqlek4h4u45au6lm7kbv4bxmxd.py":18:0), %arg64: !tt.ptr<f32> {tt.divisibility = 16 : i32} loc("./.inductor_cache\\uh\\cuh57xppax3yjdlwyl6wr3mutjzqlek4h4u45au6lm7kbv4bxmxd.py":18:0), %arg65: !tt.ptr<f32> {tt.divisibility = 16 : i32} loc("./.inductor_cache\\uh\\cuh57xppax3yjdlwyl6wr3mutjzqlek4h4u45au6lm7kbv4bxmxd.py":18:0), %arg66: !tt.ptr<f32> {tt.divisibility = 16 : i32} loc("./.inductor_cache\\uh\\cuh57xppax3yjdlwyl6wr3mutjzqlek4h4u45au6lm7kbv4bxmxd.py":18:0), %arg67: !tt.ptr<f32> {tt.divisibility = 16 : i32} loc("./.inductor_cache\\uh\\cuh57xppax3yjdlwyl6wr3mutjzqlek4h4u45au6lm7kbv4bxmxd.py":18:0), %arg68: !tt.ptr<f32> {tt.divisibility = 16 : i32} loc("./.inductor_cache\\uh\\cuh57xppax3yjdlwyl6wr3mutjzqlek4h4u45au6lm7kbv4bxmxd.py":18:0), %arg69: !tt.ptr<f32> {tt.divisibility = 16 : i32} loc("./.inductor_cache\\uh\\cuh57xppax3yjdlwyl6wr3mutjzqlek4h4u45au6lm7kbv4bxmxd.py":18:0), %arg70: !tt.ptr<f32> {tt.divisibility = 16 : i32} loc("./.inductor_cache\\uh\\cuh57xppax3yjdlwyl6wr3mutjzqlek4h4u45au6lm7kbv4bxmxd.py":18:0), %arg71: !tt.ptr<f32> {tt.divisibility = 16 : i32} loc("./.inductor_cache\\uh\\cuh57xppax3yjdlwyl6wr3mutjzqlek4h4u45au6lm7kbv4bxmxd.py":18:0), %arg72: !tt.ptr<f32> {tt.divisibility = 16 : i32} loc("./.inductor_cache\\uh\\cuh57xppax3yjdlwyl6wr3mutjzqlek4h4u45au6lm7kbv4bxmxd.py":18:0), %arg73: !tt.ptr<f32> {tt.divisibility = 16 : i32} loc("./.inductor_cache\\uh\\cuh57xppax3yjdlwyl6wr3mutjzqlek4h4u45au6lm7kbv4bxmxd.py":18:0), %arg74: !tt.ptr<f32> {tt.divisibility = 16 : i32} loc("./.inductor_cache\\uh\\cuh57xppax3yjdlwyl6wr3mutjzqlek4h4u45au6lm7kbv4bxmxd.py":18:0), %arg75: !tt.ptr<f32> {tt.divisibility = 16 : i32} loc("./.inductor_cache\\uh\\cuh57xppax3yjdlwyl6wr3mutjzqlek4h4u45au6lm7kbv4bxmxd.py":18:0), %arg76: !tt.ptr<f32> {tt.divisibility = 16 : i32} loc("./.inductor_cache\\uh\\cuh57xppax3yjdlwyl6wr3mutjzqlek4h4u45au6lm7kbv4bxmxd.py":18:0), %arg77: !tt.ptr<f32> {tt.divisibility = 16 : i32} loc("./.inductor_cache\\uh\\cuh57xppax3yjdlwyl6wr3mutjzqlek4h4u45au6lm7kbv4bxmxd.py":18:0), %arg78: !tt.ptr<f32> {tt.divisibility = 16 : i32} loc("./.inductor_cache\\uh\\cuh57xppax3yjdlwyl6wr3mutjzqlek4h4u45au6lm7kbv4bxmxd.py":18:0), %arg79: !tt.ptr<f32> {tt.divisibility = 16 : i32} loc("./.inductor_cache\\uh\\cuh57xppax3yjdlwyl6wr3mutjzqlek4h4u45au6lm7kbv4bxmxd.py":18:0), %arg80: !tt.ptr<f32> {tt.divisibility = 16 : i32} loc("./.inductor_cache\\uh\\cuh57xppax3yjdlwyl6wr3mutjzqlek4h4u45au6lm7kbv4bxmxd.py":18:0), %arg81: !tt.ptr<f32> {tt.divisibility = 16 : i32} loc("./.inductor_cache\\uh\\cuh57xppax3yjdlwyl6wr3mutjzqlek4h4u45au6lm7kbv4bxmxd.py":18:0), %arg82: !tt.ptr<f32> {tt.divisibility = 16 : i32} loc("./.inductor_cache\\uh\\cuh57xppax3yjdlwyl6wr3mutjzqlek4h4u45au6lm7kbv4bxmxd.py":18:0), %arg83: !tt.ptr<f32> {tt.divisibility = 16 : i32} loc("./.inductor_cache\\uh\\cuh57xppax3yjdlwyl6wr3mutjzqlek4h4u45au6lm7kbv4bxmxd.py":18:0), %arg84: !tt.ptr<f32> {tt.divisibility = 16 : i32} loc("./.inductor_cache\\uh\\cuh57xppax3yjdlwyl6wr3mutjzqlek4h4u45au6lm7kbv4bxmxd.py":18:0), %arg85: !tt.ptr<f32> {tt.divisibility = 16 : i32} loc("./.inductor_cache\\uh\\cuh57xppax3yjdlwyl6wr3mutjzqlek4h4u45au6lm7kbv4bxmxd.py":18:0), %arg86: !tt.ptr<f32> {tt.divisibility = 16 : i32} loc("./.inductor_cache\\uh\\cuh57xppax3yjdlwyl6wr3mutjzqlek4h4u45au6lm7kbv4bxmxd.py":18:0), %arg87: !tt.ptr<f32> {tt.divisibility = 16 : i32} loc("./.inductor_cache\\uh\\cuh57xppax3yjdlwyl6wr3mutjzqlek4h4u45au6lm7kbv4bxmxd.py":18:0), %arg88: !tt.ptr<f32> {tt.divisibility = 16 : i32} loc("./.inductor_cache\\uh\\cuh57xppax3yjdlwyl6wr3mutjzqlek4h4u45au6lm7kbv4bxmxd.py":18:0), %arg89: !tt.ptr<f32> {tt.divisibility = 16 : i32} loc("./.inductor_cache\\uh\\cuh57xppax3yjdlwyl6wr3mutjzqlek4h4u45au6lm7kbv4bxmxd.py":18:0), %arg90: !tt.ptr<f32> {tt.divisibility = 16 : i32} loc("./.inductor_cache\\uh\\cuh57xppax3yjdlwyl6wr3mutjzqlek4h4u45au6lm7kbv4bxmxd.py":18:0), %arg91: !tt.ptr<f32> {tt.divisibility = 16 : i32} loc("./.inductor_cache\\uh\\cuh57xppax3yjdlwyl6wr3mutjzqlek4h4u45au6lm7kbv4bxmxd.py":18:0), %arg92: !tt.ptr<f32> {tt.divisibility = 16 : i32} loc("./.inductor_cache\\uh\\cuh57xppax3yjdlwyl6wr3mutjzqlek4h4u45au6lm7kbv4bxmxd.py":18:0), %arg93: !tt.ptr<f32> {tt.divisibility = 16 : i32} loc("./.inductor_cache\\uh\\cuh57xppax3yjdlwyl6wr3mutjzqlek4h4u45au6lm7kbv4bxmxd.py":18:0), %arg94: !tt.ptr<f32> {tt.divisibility = 16 : i32} loc("./.inductor_cache\\uh\\cuh57xppax3yjdlwyl6wr3mutjzqlek4h4u45au6lm7kbv4bxmxd.py":18:0), %arg95: !tt.ptr<f32> {tt.divisibility = 16 : i32} loc("./.inductor_cache\\uh\\cuh57xppax3yjdlwyl6wr3mutjzqlek4h4u45au6lm7kbv4bxmxd.py":18:0), %arg96: !tt.ptr<f32> {tt.divisibility = 16 : i32} loc("./.inductor_cache\\uh\\cuh57xppax3yjdlwyl6wr3mutjzqlek4h4u45au6lm7kbv4bxmxd.py":18:0), %arg97: !tt.ptr<f32> {tt.divisibility = 16 : i32} loc("./.inductor_cache\\uh\\cuh57xppax3yjdlwyl6wr3mutjzqlek4h4u45au6lm7kbv4bxmxd.py":18:0), %arg98: !tt.ptr<f32> {tt.divisibility = 16 : i32} loc("./.inductor_cache\\uh\\cuh57xppax3yjdlwyl6wr3mutjzqlek4h4u45au6lm7kbv4bxmxd.py":18:0), %arg99: !tt.ptr<f32> {tt.divisibility = 16 : i32} loc("./.inductor_cache\\uh\\cuh57xppax3yjdlwyl6wr3mutjzqlek4h4u45au6lm7kbv4bxmxd.py":18:0), %arg100: !tt.ptr<f32> {tt.divisibility = 16 : i32} loc("./.inductor_cache\\uh\\cuh57xppax3yjdlwyl6wr3mutjzqlek4h4u45au6lm7kbv4bxmxd.py":18:0), %arg101: !tt.ptr<f32> {tt.divisibility = 16 : i32} loc("./.inductor_cache\\uh\\cuh57xppax3yjdlwyl6wr3mutjzqlek4h4u45au6lm7kbv4bxmxd.py":18:0), %arg102: !tt.ptr<f32> {tt.divisibility = 16 : i32} loc("./.inductor_cache\\uh\\cuh57xppax3yjdlwyl6wr3mutjzqlek4h4u45au6lm7kbv4bxmxd.py":18:0), %arg103: !tt.ptr<f32> {tt.divisibility = 16 : i32} loc("./.inductor_cache\\uh\\cuh57xppax3yjdlwyl6wr3mutjzqlek4h4u45au6lm7kbv4bxmxd.py":18:0), %arg104: !tt.ptr<f32> {tt.divisibility = 16 : i32} loc("./.inductor_cache\\uh\\cuh57xppax3yjdlwyl6wr3mutjzqlek4h4u45au6lm7kbv4bxmxd.py":18:0), %arg105: !tt.ptr<f32> {tt.divisibility = 16 : i32} loc("./.inductor_cache\\uh\\cuh57xppax3yjdlwyl6wr3mutjzqlek4h4u45au6lm7kbv4bxmxd.py":18:0), %arg106: !tt.ptr<f32> {tt.divisibility = 16 : i32} loc("./.inductor_cache\\uh\\cuh57xppax3yjdlwyl6wr3mutjzqlek4h4u45au6lm7kbv4bxmxd.py":18:0), %arg107: !tt.ptr<f32> {tt.divisibility = 16 : i32} loc("./.inductor_cache\\uh\\cuh57xppax3yjdlwyl6wr3mutjzqlek4h4u45au6lm7kbv4bxmxd.py":18:0), %arg108: !tt.ptr<f32> {tt.divisibility = 16 : i32} loc("./.inductor_cache\\uh\\cuh57xppax3yjdlwyl6wr3mutjzqlek4h4u45au6lm7kbv4bxmxd.py":18:0), %arg109: !tt.ptr<f32> {tt.divisibility = 16 : i32} loc("./.inductor_cache\\uh\\cuh57xppax3yjdlwyl6wr3mutjzqlek4h4u45au6lm7kbv4bxmxd.py":18:0), %arg110: !tt.ptr<f32> {tt.divisibility = 16 : i32} loc("./.inductor_cache\\uh\\cuh57xppax3yjdlwyl6wr3mutjzqlek4h4u45au6lm7kbv4bxmxd.py":18:0), %arg111: !tt.ptr<f32> {tt.divisibility = 16 : i32} loc("./.inductor_cache\\uh\\cuh57xppax3yjdlwyl6wr3mutjzqlek4h4u45au6lm7kbv4bxmxd.py":18:0), %arg112: !tt.ptr<f32> {tt.divisibility = 16 : i32} loc("./.inductor_cache\\uh\\cuh57xppax3yjdlwyl6wr3mutjzqlek4h4u45au6lm7kbv4bxmxd.py":18:0), %arg113: !tt.ptr<f32> {tt.divisibility = 16 : i32} loc("./.inductor_cache\\uh\\cuh57xppax3yjdlwyl6wr3mutjzqlek4h4u45au6lm7kbv4bxmxd.py":18:0), %arg114: !tt.ptr<f32> {tt.divisibility = 16 : i32} loc("./.inductor_cache\\uh\\cuh57xppax3yjdlwyl6wr3mutjzqlek4h4u45au6lm7kbv4bxmxd.py":18:0), %arg115: !tt.ptr<f32> {tt.divisibility = 16 : i32} loc("./.inductor_cache\\uh\\cuh57xppax3yjdlwyl6wr3mutjzqlek4h4u45au6lm7kbv4bxmxd.py":18:0), %arg116: !tt.ptr<f32> {tt.divisibility = 16 : i32} loc("./.inductor_cache\\uh\\cuh57xppax3yjdlwyl6wr3mutjzqlek4h4u45au6lm7kbv4bxmxd.py":18:0), %arg117: !tt.ptr<f32> {tt.divisibility = 16 : i32} loc("./.inductor_cache\\uh\\cuh57xppax3yjdlwyl6wr3mutjzqlek4h4u45au6lm7kbv4bxmxd.py":18:0), %arg118: !tt.ptr<f32> {tt.divisibility = 16 : i32} loc("./.inductor_cache\\uh\\cuh57xppax3yjdlwyl6wr3mutjzqlek4h4u45au6lm7kbv4bxmxd.py":18:0), %arg119: !tt.ptr<f32> {tt.divisibility = 16 : i32} loc("./.inductor_cache\\uh\\cuh57xppax3yjdlwyl6wr3mutjzqlek4h4u45au6lm7kbv4bxmxd.py":18:0), %arg120: !tt.ptr<f32> {tt.divisibility = 16 : i32} loc("./.inductor_cache\\uh\\cuh57xppax3yjdlwyl6wr3mutjzqlek4h4u45au6lm7kbv4bxmxd.py":18:0), %arg121: !tt.ptr<f32> {tt.divisibility = 16 : i32} loc("./.inductor_cache\\uh\\cuh57xppax3yjdlwyl6wr3mutjzqlek4h4u45au6lm7kbv4bxmxd.py":18:0), %arg122: !tt.ptr<f32> {tt.divisibility = 16 : i32} loc("./.inductor_cache\\uh\\cuh57xppax3yjdlwyl6wr3mutjzqlek4h4u45au6lm7kbv4bxmxd.py":18:0), %arg123: !tt.ptr<f32> {tt.divisibility = 16 : i32} loc("./.inductor_cache\\uh\\cuh57xppax3yjdlwyl6wr3mutjzqlek4h4u45au6lm7kbv4bxmxd.py":18:0), %arg124: !tt.ptr<f32> {tt.divisibility = 16 : i32} loc("./.inductor_cache\\uh\\cuh57xppax3yjdlwyl6wr3mutjzqlek4h4u45au6lm7kbv4bxmxd.py":18:0), %arg125: !tt.ptr<f32> {tt.divisibility = 16 : i32} loc("./.inductor_cache\\uh\\cuh57xppax3yjdlwyl6wr3mutjzqlek4h4u45au6lm7kbv4bxmxd.py":18:0), %arg126: !tt.ptr<f32> {tt.divisibility = 16 : i32} loc("./.inductor_cache\\uh\\cuh57xppax3yjdlwyl6wr3mutjzqlek4h4u45au6lm7kbv4bxmxd.py":18:0), %arg127: !tt.ptr<f32> {tt.divisibility = 16 : i32} loc("./.inductor_cache\\uh\\cuh57xppax3yjdlwyl6wr3mutjzqlek4h4u45au6lm7kbv4bxmxd.py":18:0), %arg128: !tt.ptr<f32> {tt.divisibility = 16 : i32} loc("./.inductor_cache\\uh\\cuh57xppax3yjdlwyl6wr3mutjzqlek4h4u45au6lm7kbv4bxmxd.py":18:0), %arg129: i32 {tt.divisibility = 16 : i32} loc("./.inductor_cache\\uh\\cuh57xppax3yjdlwyl6wr3mutjzqlek4h4u45au6lm7kbv4bxmxd.py":18:0)) attributes {noinline = false} {
    %cst = arith.constant dense<0> : tensor<128xi32> loc(#loc1)
    %cst_0 = arith.constant dense<1> : tensor<128xi32> loc(#loc1)
    %cst_1 = arith.constant dense<2> : tensor<128xi32> loc(#loc1)
    %cst_2 = arith.constant dense<3> : tensor<128xi32> loc(#loc1)
    %cst_3 = arith.constant dense<4> : tensor<128xi32> loc(#loc1)
    %cst_4 = arith.constant dense<5> : tensor<128xi32> loc(#loc1)
    %cst_5 = arith.constant dense<6> : tensor<128xi32> loc(#loc1)
    %cst_6 = arith.constant dense<7> : tensor<128xi32> loc(#loc1)
    %cst_7 = arith.constant dense<8> : tensor<128xi32> loc(#loc1)
    %cst_8 = arith.constant dense<9> : tensor<128xi32> loc(#loc1)
    %cst_9 = arith.constant dense<10> : tensor<128xi32> loc(#loc1)
    %cst_10 = arith.constant dense<11> : tensor<128xi32> loc(#loc1)
    %cst_11 = arith.constant dense<12> : tensor<128xi32> loc(#loc1)
    %cst_12 = arith.constant dense<13> : tensor<128xi32> loc(#loc1)
    %cst_13 = arith.constant dense<14> : tensor<128xi32> loc(#loc1)
    %cst_14 = arith.constant dense<15> : tensor<128xi32> loc(#loc1)
    %cst_15 = arith.constant dense<16> : tensor<128xi32> loc(#loc1)
    %cst_16 = arith.constant dense<17> : tensor<128xi32> loc(#loc1)
    %cst_17 = arith.constant dense<18> : tensor<128xi32> loc(#loc1)
    %cst_18 = arith.constant dense<19> : tensor<128xi32> loc(#loc1)
    %cst_19 = arith.constant dense<20> : tensor<128xi32> loc(#loc1)
    %cst_20 = arith.constant dense<21> : tensor<128xi32> loc(#loc1)
    %cst_21 = arith.constant dense<22> : tensor<128xi32> loc(#loc1)
    %cst_22 = arith.constant dense<23> : tensor<128xi32> loc(#loc1)
    %cst_23 = arith.constant dense<24> : tensor<128xi32> loc(#loc1)
    %cst_24 = arith.constant dense<25> : tensor<128xi32> loc(#loc1)
    %cst_25 = arith.constant dense<26> : tensor<128xi32> loc(#loc1)
    %cst_26 = arith.constant dense<27> : tensor<128xi32> loc(#loc1)
    %cst_27 = arith.constant dense<28> : tensor<128xi32> loc(#loc1)
    %cst_28 = arith.constant dense<29> : tensor<128xi32> loc(#loc1)
    %cst_29 = arith.constant dense<30> : tensor<128xi32> loc(#loc1)
    %cst_30 = arith.constant dense<0.000000e+00> : tensor<128xf32> loc(#loc1)
    %cst_31 = arith.constant dense<31> : tensor<128xi32> loc(#loc1)
    %cst_32 = arith.constant dense<64> : tensor<128xi32> loc(#loc1)
    %cst_33 = arith.constant dense<2048> : tensor<128xi32> loc(#loc1)
    %c128_i32 = arith.constant 128 : i32 loc(#loc1)
    %0 = tt.get_program_id x : i32 loc(#loc2)
    %1 = arith.muli %0, %c128_i32 : i32 loc(#loc3)
    %2 = tt.make_range {end = 128 : i32, start = 0 : i32} : tensor<128xi32> loc(#loc4)
    %3 = tt.splat %1 : i32 -> tensor<128xi32> loc(#loc5)
    %4 = arith.addi %3, %2 : tensor<128xi32> loc(#loc5)
    %5 = arith.cmpi slt, %4, %cst_33 : tensor<128xi32> loc(#loc6)
    %6 = arith.divsi %4, %cst_32 : tensor<128xi32> loc(#loc7)
    %7 = arith.remsi %4, %cst_32 : tensor<128xi32> loc(#loc8)
    %8 = tt.splat %arg1 : !tt.ptr<f32> -> tensor<128x!tt.ptr<f32>> loc(#loc9)
    %9 = tt.addptr %8, %7 : tensor<128x!tt.ptr<f32>>, tensor<128xi32> loc(#loc9)
    %10 = tt.load %9, %5 evictionPolicy = evict_last : tensor<128x!tt.ptr<f32>> loc(#loc10)
    %11 = tt.splat %arg2 : !tt.ptr<f32> -> tensor<128x!tt.ptr<f32>> loc(#loc11)
    %12 = tt.addptr %11, %7 : tensor<128x!tt.ptr<f32>>, tensor<128xi32> loc(#loc11)
    %13 = tt.load %12, %5 evictionPolicy = evict_last : tensor<128x!tt.ptr<f32>> loc(#loc12)
    %14 = tt.splat %arg3 : !tt.ptr<f32> -> tensor<128x!tt.ptr<f32>> loc(#loc13)
    %15 = tt.addptr %14, %7 : tensor<128x!tt.ptr<f32>>, tensor<128xi32> loc(#loc13)
    %16 = tt.load %15, %5 evictionPolicy = evict_last : tensor<128x!tt.ptr<f32>> loc(#loc14)
    %17 = tt.splat %arg4 : !tt.ptr<f32> -> tensor<128x!tt.ptr<f32>> loc(#loc15)
    %18 = tt.addptr %17, %7 : tensor<128x!tt.ptr<f32>>, tensor<128xi32> loc(#loc15)
    %19 = tt.load %18, %5 evictionPolicy = evict_last : tensor<128x!tt.ptr<f32>> loc(#loc16)
    %20 = tt.splat %arg5 : !tt.ptr<f32> -> tensor<128x!tt.ptr<f32>> loc(#loc17)
    %21 = tt.addptr %20, %7 : tensor<128x!tt.ptr<f32>>, tensor<128xi32> loc(#loc17)
    %22 = tt.load %21, %5 evictionPolicy = evict_last : tensor<128x!tt.ptr<f32>> loc(#loc18)
    %23 = tt.splat %arg6 : !tt.ptr<f32> -> tensor<128x!tt.ptr<f32>> loc(#loc19)
    %24 = tt.addptr %23, %7 : tensor<128x!tt.ptr<f32>>, tensor<128xi32> loc(#loc19)
    %25 = tt.load %24, %5 evictionPolicy = evict_last : tensor<128x!tt.ptr<f32>> loc(#loc20)
    %26 = tt.splat %arg7 : !tt.ptr<f32> -> tensor<128x!tt.ptr<f32>> loc(#loc21)
    %27 = tt.addptr %26, %7 : tensor<128x!tt.ptr<f32>>, tensor<128xi32> loc(#loc21)
    %28 = tt.load %27, %5 evictionPolicy = evict_last : tensor<128x!tt.ptr<f32>> loc(#loc22)
    %29 = tt.splat %arg8 : !tt.ptr<f32> -> tensor<128x!tt.ptr<f32>> loc(#loc23)
    %30 = tt.addptr %29, %7 : tensor<128x!tt.ptr<f32>>, tensor<128xi32> loc(#loc23)
    %31 = tt.load %30, %5 evictionPolicy = evict_last : tensor<128x!tt.ptr<f32>> loc(#loc24)
    %32 = tt.splat %arg9 : !tt.ptr<f32> -> tensor<128x!tt.ptr<f32>> loc(#loc25)
    %33 = tt.addptr %32, %7 : tensor<128x!tt.ptr<f32>>, tensor<128xi32> loc(#loc25)
    %34 = tt.load %33, %5 evictionPolicy = evict_last : tensor<128x!tt.ptr<f32>> loc(#loc26)
    %35 = tt.splat %arg10 : !tt.ptr<f32> -> tensor<128x!tt.ptr<f32>> loc(#loc27)
    %36 = tt.addptr %35, %7 : tensor<128x!tt.ptr<f32>>, tensor<128xi32> loc(#loc27)
    %37 = tt.load %36, %5 evictionPolicy = evict_last : tensor<128x!tt.ptr<f32>> loc(#loc28)
    %38 = tt.splat %arg11 : !tt.ptr<f32> -> tensor<128x!tt.ptr<f32>> loc(#loc29)
    %39 = tt.addptr %38, %7 : tensor<128x!tt.ptr<f32>>, tensor<128xi32> loc(#loc29)
    %40 = tt.load %39, %5 evictionPolicy = evict_last : tensor<128x!tt.ptr<f32>> loc(#loc30)
    %41 = tt.splat %arg12 : !tt.ptr<f32> -> tensor<128x!tt.ptr<f32>> loc(#loc31)
    %42 = tt.addptr %41, %7 : tensor<128x!tt.ptr<f32>>, tensor<128xi32> loc(#loc31)
    %43 = tt.load %42, %5 evictionPolicy = evict_last : tensor<128x!tt.ptr<f32>> loc(#loc32)
    %44 = tt.splat %arg13 : !tt.ptr<f32> -> tensor<128x!tt.ptr<f32>> loc(#loc33)
    %45 = tt.addptr %44, %7 : tensor<128x!tt.ptr<f32>>, tensor<128xi32> loc(#loc33)
    %46 = tt.load %45, %5 evictionPolicy = evict_last : tensor<128x!tt.ptr<f32>> loc(#loc34)
    %47 = tt.splat %arg14 : !tt.ptr<f32> -> tensor<128x!tt.ptr<f32>> loc(#loc35)
    %48 = tt.addptr %47, %7 : tensor<128x!tt.ptr<f32>>, tensor<128xi32> loc(#loc35)
    %49 = tt.load %48, %5 evictionPolicy = evict_last : tensor<128x!tt.ptr<f32>> loc(#loc36)
    %50 = tt.splat %arg15 : !tt.ptr<f32> -> tensor<128x!tt.ptr<f32>> loc(#loc37)
    %51 = tt.addptr %50, %7 : tensor<128x!tt.ptr<f32>>, tensor<128xi32> loc(#loc37)
    %52 = tt.load %51, %5 evictionPolicy = evict_last : tensor<128x!tt.ptr<f32>> loc(#loc38)
    %53 = tt.splat %arg16 : !tt.ptr<f32> -> tensor<128x!tt.ptr<f32>> loc(#loc39)
    %54 = tt.addptr %53, %7 : tensor<128x!tt.ptr<f32>>, tensor<128xi32> loc(#loc39)
    %55 = tt.load %54, %5 evictionPolicy = evict_last : tensor<128x!tt.ptr<f32>> loc(#loc40)
    %56 = tt.splat %arg17 : !tt.ptr<f32> -> tensor<128x!tt.ptr<f32>> loc(#loc41)
    %57 = tt.addptr %56, %7 : tensor<128x!tt.ptr<f32>>, tensor<128xi32> loc(#loc41)
    %58 = tt.load %57, %5 evictionPolicy = evict_last : tensor<128x!tt.ptr<f32>> loc(#loc42)
    %59 = tt.splat %arg18 : !tt.ptr<f32> -> tensor<128x!tt.ptr<f32>> loc(#loc43)
    %60 = tt.addptr %59, %7 : tensor<128x!tt.ptr<f32>>, tensor<128xi32> loc(#loc43)
    %61 = tt.load %60, %5 evictionPolicy = evict_last : tensor<128x!tt.ptr<f32>> loc(#loc44)
    %62 = tt.splat %arg19 : !tt.ptr<f32> -> tensor<128x!tt.ptr<f32>> loc(#loc45)
    %63 = tt.addptr %62, %7 : tensor<128x!tt.ptr<f32>>, tensor<128xi32> loc(#loc45)
    %64 = tt.load %63, %5 evictionPolicy = evict_last : tensor<128x!tt.ptr<f32>> loc(#loc46)
    %65 = tt.splat %arg20 : !tt.ptr<f32> -> tensor<128x!tt.ptr<f32>> loc(#loc47)
    %66 = tt.addptr %65, %7 : tensor<128x!tt.ptr<f32>>, tensor<128xi32> loc(#loc47)
    %67 = tt.load %66, %5 evictionPolicy = evict_last : tensor<128x!tt.ptr<f32>> loc(#loc48)
    %68 = tt.splat %arg21 : !tt.ptr<f32> -> tensor<128x!tt.ptr<f32>> loc(#loc49)
    %69 = tt.addptr %68, %7 : tensor<128x!tt.ptr<f32>>, tensor<128xi32> loc(#loc49)
    %70 = tt.load %69, %5 evictionPolicy = evict_last : tensor<128x!tt.ptr<f32>> loc(#loc50)
    %71 = tt.splat %arg22 : !tt.ptr<f32> -> tensor<128x!tt.ptr<f32>> loc(#loc51)
    %72 = tt.addptr %71, %7 : tensor<128x!tt.ptr<f32>>, tensor<128xi32> loc(#loc51)
    %73 = tt.load %72, %5 evictionPolicy = evict_last : tensor<128x!tt.ptr<f32>> loc(#loc52)
    %74 = tt.splat %arg23 : !tt.ptr<f32> -> tensor<128x!tt.ptr<f32>> loc(#loc53)
    %75 = tt.addptr %74, %7 : tensor<128x!tt.ptr<f32>>, tensor<128xi32> loc(#loc53)
    %76 = tt.load %75, %5 evictionPolicy = evict_last : tensor<128x!tt.ptr<f32>> loc(#loc54)
    %77 = tt.splat %arg24 : !tt.ptr<f32> -> tensor<128x!tt.ptr<f32>> loc(#loc55)
    %78 = tt.addptr %77, %7 : tensor<128x!tt.ptr<f32>>, tensor<128xi32> loc(#loc55)
    %79 = tt.load %78, %5 evictionPolicy = evict_last : tensor<128x!tt.ptr<f32>> loc(#loc56)
    %80 = tt.splat %arg25 : !tt.ptr<f32> -> tensor<128x!tt.ptr<f32>> loc(#loc57)
    %81 = tt.addptr %80, %7 : tensor<128x!tt.ptr<f32>>, tensor<128xi32> loc(#loc57)
    %82 = tt.load %81, %5 evictionPolicy = evict_last : tensor<128x!tt.ptr<f32>> loc(#loc58)
    %83 = tt.splat %arg26 : !tt.ptr<f32> -> tensor<128x!tt.ptr<f32>> loc(#loc59)
    %84 = tt.addptr %83, %7 : tensor<128x!tt.ptr<f32>>, tensor<128xi32> loc(#loc59)
    %85 = tt.load %84, %5 evictionPolicy = evict_last : tensor<128x!tt.ptr<f32>> loc(#loc60)
    %86 = tt.splat %arg27 : !tt.ptr<f32> -> tensor<128x!tt.ptr<f32>> loc(#loc61)
    %87 = tt.addptr %86, %7 : tensor<128x!tt.ptr<f32>>, tensor<128xi32> loc(#loc61)
    %88 = tt.load %87, %5 evictionPolicy = evict_last : tensor<128x!tt.ptr<f32>> loc(#loc62)
    %89 = tt.splat %arg28 : !tt.ptr<f32> -> tensor<128x!tt.ptr<f32>> loc(#loc63)
    %90 = tt.addptr %89, %7 : tensor<128x!tt.ptr<f32>>, tensor<128xi32> loc(#loc63)
    %91 = tt.load %90, %5 evictionPolicy = evict_last : tensor<128x!tt.ptr<f32>> loc(#loc64)
    %92 = tt.splat %arg29 : !tt.ptr<f32> -> tensor<128x!tt.ptr<f32>> loc(#loc65)
    %93 = tt.addptr %92, %7 : tensor<128x!tt.ptr<f32>>, tensor<128xi32> loc(#loc65)
    %94 = tt.load %93, %5 evictionPolicy = evict_last : tensor<128x!tt.ptr<f32>> loc(#loc66)
    %95 = tt.splat %arg30 : !tt.ptr<f32> -> tensor<128x!tt.ptr<f32>> loc(#loc67)
    %96 = tt.addptr %95, %7 : tensor<128x!tt.ptr<f32>>, tensor<128xi32> loc(#loc67)
    %97 = tt.load %96, %5 evictionPolicy = evict_last : tensor<128x!tt.ptr<f32>> loc(#loc68)
    %98 = tt.splat %arg31 : !tt.ptr<f32> -> tensor<128x!tt.ptr<f32>> loc(#loc69)
    %99 = tt.addptr %98, %7 : tensor<128x!tt.ptr<f32>>, tensor<128xi32> loc(#loc69)
    %100 = tt.load %99, %5 evictionPolicy = evict_last : tensor<128x!tt.ptr<f32>> loc(#loc70)
    %101 = tt.splat %arg32 : !tt.ptr<f32> -> tensor<128x!tt.ptr<f32>> loc(#loc71)
    %102 = tt.addptr %101, %7 : tensor<128x!tt.ptr<f32>>, tensor<128xi32> loc(#loc71)
    %103 = tt.load %102, %5 evictionPolicy = evict_last : tensor<128x!tt.ptr<f32>> loc(#loc72)
    %104 = tt.splat %arg33 : !tt.ptr<f32> -> tensor<128x!tt.ptr<f32>> loc(#loc73)
    %105 = tt.addptr %104, %7 : tensor<128x!tt.ptr<f32>>, tensor<128xi32> loc(#loc73)
    %106 = tt.load %105, %5 evictionPolicy = evict_last : tensor<128x!tt.ptr<f32>> loc(#loc74)
    %107 = tt.splat %arg34 : !tt.ptr<f32> -> tensor<128x!tt.ptr<f32>> loc(#loc75)
    %108 = tt.addptr %107, %7 : tensor<128x!tt.ptr<f32>>, tensor<128xi32> loc(#loc75)
    %109 = tt.load %108, %5 evictionPolicy = evict_last : tensor<128x!tt.ptr<f32>> loc(#loc76)
    %110 = tt.splat %arg35 : !tt.ptr<f32> -> tensor<128x!tt.ptr<f32>> loc(#loc77)
    %111 = tt.addptr %110, %7 : tensor<128x!tt.ptr<f32>>, tensor<128xi32> loc(#loc77)
    %112 = tt.load %111, %5 evictionPolicy = evict_last : tensor<128x!tt.ptr<f32>> loc(#loc78)
    %113 = tt.splat %arg36 : !tt.ptr<f32> -> tensor<128x!tt.ptr<f32>> loc(#loc79)
    %114 = tt.addptr %113, %7 : tensor<128x!tt.ptr<f32>>, tensor<128xi32> loc(#loc79)
    %115 = tt.load %114, %5 evictionPolicy = evict_last : tensor<128x!tt.ptr<f32>> loc(#loc80)
    %116 = tt.splat %arg37 : !tt.ptr<f32> -> tensor<128x!tt.ptr<f32>> loc(#loc81)
    %117 = tt.addptr %116, %7 : tensor<128x!tt.ptr<f32>>, tensor<128xi32> loc(#loc81)
    %118 = tt.load %117, %5 evictionPolicy = evict_last : tensor<128x!tt.ptr<f32>> loc(#loc82)
    %119 = tt.splat %arg38 : !tt.ptr<f32> -> tensor<128x!tt.ptr<f32>> loc(#loc83)
    %120 = tt.addptr %119, %7 : tensor<128x!tt.ptr<f32>>, tensor<128xi32> loc(#loc83)
    %121 = tt.load %120, %5 evictionPolicy = evict_last : tensor<128x!tt.ptr<f32>> loc(#loc84)
    %122 = tt.splat %arg39 : !tt.ptr<f32> -> tensor<128x!tt.ptr<f32>> loc(#loc85)
    %123 = tt.addptr %122, %7 : tensor<128x!tt.ptr<f32>>, tensor<128xi32> loc(#loc85)
    %124 = tt.load %123, %5 evictionPolicy = evict_last : tensor<128x!tt.ptr<f32>> loc(#loc86)
    %125 = tt.splat %arg40 : !tt.ptr<f32> -> tensor<128x!tt.ptr<f32>> loc(#loc87)
    %126 = tt.addptr %125, %7 : tensor<128x!tt.ptr<f32>>, tensor<128xi32> loc(#loc87)
    %127 = tt.load %126, %5 evictionPolicy = evict_last : tensor<128x!tt.ptr<f32>> loc(#loc88)
    %128 = tt.splat %arg41 : !tt.ptr<f32> -> tensor<128x!tt.ptr<f32>> loc(#loc89)
    %129 = tt.addptr %128, %7 : tensor<128x!tt.ptr<f32>>, tensor<128xi32> loc(#loc89)
    %130 = tt.load %129, %5 evictionPolicy = evict_last : tensor<128x!tt.ptr<f32>> loc(#loc90)
    %131 = tt.splat %arg42 : !tt.ptr<f32> -> tensor<128x!tt.ptr<f32>> loc(#loc91)
    %132 = tt.addptr %131, %7 : tensor<128x!tt.ptr<f32>>, tensor<128xi32> loc(#loc91)
    %133 = tt.load %132, %5 evictionPolicy = evict_last : tensor<128x!tt.ptr<f32>> loc(#loc92)
    %134 = tt.splat %arg43 : !tt.ptr<f32> -> tensor<128x!tt.ptr<f32>> loc(#loc93)
    %135 = tt.addptr %134, %7 : tensor<128x!tt.ptr<f32>>, tensor<128xi32> loc(#loc93)
    %136 = tt.load %135, %5 evictionPolicy = evict_last : tensor<128x!tt.ptr<f32>> loc(#loc94)
    %137 = tt.splat %arg44 : !tt.ptr<f32> -> tensor<128x!tt.ptr<f32>> loc(#loc95)
    %138 = tt.addptr %137, %7 : tensor<128x!tt.ptr<f32>>, tensor<128xi32> loc(#loc95)
    %139 = tt.load %138, %5 evictionPolicy = evict_last : tensor<128x!tt.ptr<f32>> loc(#loc96)
    %140 = tt.splat %arg45 : !tt.ptr<f32> -> tensor<128x!tt.ptr<f32>> loc(#loc97)
    %141 = tt.addptr %140, %7 : tensor<128x!tt.ptr<f32>>, tensor<128xi32> loc(#loc97)
    %142 = tt.load %141, %5 evictionPolicy = evict_last : tensor<128x!tt.ptr<f32>> loc(#loc98)
    %143 = tt.splat %arg46 : !tt.ptr<f32> -> tensor<128x!tt.ptr<f32>> loc(#loc99)
    %144 = tt.addptr %143, %7 : tensor<128x!tt.ptr<f32>>, tensor<128xi32> loc(#loc99)
    %145 = tt.load %144, %5 evictionPolicy = evict_last : tensor<128x!tt.ptr<f32>> loc(#loc100)
    %146 = tt.splat %arg47 : !tt.ptr<f32> -> tensor<128x!tt.ptr<f32>> loc(#loc101)
    %147 = tt.addptr %146, %7 : tensor<128x!tt.ptr<f32>>, tensor<128xi32> loc(#loc101)
    %148 = tt.load %147, %5 evictionPolicy = evict_last : tensor<128x!tt.ptr<f32>> loc(#loc102)
    %149 = tt.splat %arg48 : !tt.ptr<f32> -> tensor<128x!tt.ptr<f32>> loc(#loc103)
    %150 = tt.addptr %149, %7 : tensor<128x!tt.ptr<f32>>, tensor<128xi32> loc(#loc103)
    %151 = tt.load %150, %5 evictionPolicy = evict_last : tensor<128x!tt.ptr<f32>> loc(#loc104)
    %152 = tt.splat %arg49 : !tt.ptr<f32> -> tensor<128x!tt.ptr<f32>> loc(#loc105)
    %153 = tt.addptr %152, %7 : tensor<128x!tt.ptr<f32>>, tensor<128xi32> loc(#loc105)
    %154 = tt.load %153, %5 evictionPolicy = evict_last : tensor<128x!tt.ptr<f32>> loc(#loc106)
    %155 = tt.splat %arg50 : !tt.ptr<f32> -> tensor<128x!tt.ptr<f32>> loc(#loc107)
    %156 = tt.addptr %155, %7 : tensor<128x!tt.ptr<f32>>, tensor<128xi32> loc(#loc107)
    %157 = tt.load %156, %5 evictionPolicy = evict_last : tensor<128x!tt.ptr<f32>> loc(#loc108)
    %158 = tt.splat %arg51 : !tt.ptr<f32> -> tensor<128x!tt.ptr<f32>> loc(#loc109)
    %159 = tt.addptr %158, %7 : tensor<128x!tt.ptr<f32>>, tensor<128xi32> loc(#loc109)
    %160 = tt.load %159, %5 evictionPolicy = evict_last : tensor<128x!tt.ptr<f32>> loc(#loc110)
    %161 = tt.splat %arg52 : !tt.ptr<f32> -> tensor<128x!tt.ptr<f32>> loc(#loc111)
    %162 = tt.addptr %161, %7 : tensor<128x!tt.ptr<f32>>, tensor<128xi32> loc(#loc111)
    %163 = tt.load %162, %5 evictionPolicy = evict_last : tensor<128x!tt.ptr<f32>> loc(#loc112)
    %164 = tt.splat %arg53 : !tt.ptr<f32> -> tensor<128x!tt.ptr<f32>> loc(#loc113)
    %165 = tt.addptr %164, %7 : tensor<128x!tt.ptr<f32>>, tensor<128xi32> loc(#loc113)
    %166 = tt.load %165, %5 evictionPolicy = evict_last : tensor<128x!tt.ptr<f32>> loc(#loc114)
    %167 = tt.splat %arg54 : !tt.ptr<f32> -> tensor<128x!tt.ptr<f32>> loc(#loc115)
    %168 = tt.addptr %167, %7 : tensor<128x!tt.ptr<f32>>, tensor<128xi32> loc(#loc115)
    %169 = tt.load %168, %5 evictionPolicy = evict_last : tensor<128x!tt.ptr<f32>> loc(#loc116)
    %170 = tt.splat %arg55 : !tt.ptr<f32> -> tensor<128x!tt.ptr<f32>> loc(#loc117)
    %171 = tt.addptr %170, %7 : tensor<128x!tt.ptr<f32>>, tensor<128xi32> loc(#loc117)
    %172 = tt.load %171, %5 evictionPolicy = evict_last : tensor<128x!tt.ptr<f32>> loc(#loc118)
    %173 = tt.splat %arg56 : !tt.ptr<f32> -> tensor<128x!tt.ptr<f32>> loc(#loc119)
    %174 = tt.addptr %173, %7 : tensor<128x!tt.ptr<f32>>, tensor<128xi32> loc(#loc119)
    %175 = tt.load %174, %5 evictionPolicy = evict_last : tensor<128x!tt.ptr<f32>> loc(#loc120)
    %176 = tt.splat %arg57 : !tt.ptr<f32> -> tensor<128x!tt.ptr<f32>> loc(#loc121)
    %177 = tt.addptr %176, %7 : tensor<128x!tt.ptr<f32>>, tensor<128xi32> loc(#loc121)
    %178 = tt.load %177, %5 evictionPolicy = evict_last : tensor<128x!tt.ptr<f32>> loc(#loc122)
    %179 = tt.splat %arg58 : !tt.ptr<f32> -> tensor<128x!tt.ptr<f32>> loc(#loc123)
    %180 = tt.addptr %179, %7 : tensor<128x!tt.ptr<f32>>, tensor<128xi32> loc(#loc123)
    %181 = tt.load %180, %5 evictionPolicy = evict_last : tensor<128x!tt.ptr<f32>> loc(#loc124)
    %182 = tt.splat %arg59 : !tt.ptr<f32> -> tensor<128x!tt.ptr<f32>> loc(#loc125)
    %183 = tt.addptr %182, %7 : tensor<128x!tt.ptr<f32>>, tensor<128xi32> loc(#loc125)
    %184 = tt.load %183, %5 evictionPolicy = evict_last : tensor<128x!tt.ptr<f32>> loc(#loc126)
    %185 = tt.splat %arg60 : !tt.ptr<f32> -> tensor<128x!tt.ptr<f32>> loc(#loc127)
    %186 = tt.addptr %185, %7 : tensor<128x!tt.ptr<f32>>, tensor<128xi32> loc(#loc127)
    %187 = tt.load %186, %5 evictionPolicy = evict_last : tensor<128x!tt.ptr<f32>> loc(#loc128)
    %188 = tt.splat %arg61 : !tt.ptr<f32> -> tensor<128x!tt.ptr<f32>> loc(#loc129)
    %189 = tt.addptr %188, %7 : tensor<128x!tt.ptr<f32>>, tensor<128xi32> loc(#loc129)
    %190 = tt.load %189, %5 evictionPolicy = evict_last : tensor<128x!tt.ptr<f32>> loc(#loc130)
    %191 = tt.splat %arg62 : !tt.ptr<f32> -> tensor<128x!tt.ptr<f32>> loc(#loc131)
    %192 = tt.addptr %191, %7 : tensor<128x!tt.ptr<f32>>, tensor<128xi32> loc(#loc131)
    %193 = tt.load %192, %5 evictionPolicy = evict_last : tensor<128x!tt.ptr<f32>> loc(#loc132)
    %194 = tt.splat %arg63 : !tt.ptr<f32> -> tensor<128x!tt.ptr<f32>> loc(#loc133)
    %195 = tt.addptr %194, %7 : tensor<128x!tt.ptr<f32>>, tensor<128xi32> loc(#loc133)
    %196 = tt.load %195, %5 evictionPolicy = evict_last : tensor<128x!tt.ptr<f32>> loc(#loc134)
    %197 = tt.splat %arg64 : !tt.ptr<f32> -> tensor<128x!tt.ptr<f32>> loc(#loc135)
    %198 = tt.addptr %197, %7 : tensor<128x!tt.ptr<f32>>, tensor<128xi32> loc(#loc135)
    %199 = tt.load %198, %5 evictionPolicy = evict_last : tensor<128x!tt.ptr<f32>> loc(#loc136)
    %200 = tt.splat %arg65 : !tt.ptr<f32> -> tensor<128x!tt.ptr<f32>> loc(#loc137)
    %201 = tt.addptr %200, %7 : tensor<128x!tt.ptr<f32>>, tensor<128xi32> loc(#loc137)
    %202 = tt.load %201, %5 evictionPolicy = evict_last : tensor<128x!tt.ptr<f32>> loc(#loc138)
    %203 = tt.splat %arg66 : !tt.ptr<f32> -> tensor<128x!tt.ptr<f32>> loc(#loc139)
    %204 = tt.addptr %203, %7 : tensor<128x!tt.ptr<f32>>, tensor<128xi32> loc(#loc139)
    %205 = tt.load %204, %5 evictionPolicy = evict_last : tensor<128x!tt.ptr<f32>> loc(#loc140)
    %206 = tt.splat %arg67 : !tt.ptr<f32> -> tensor<128x!tt.ptr<f32>> loc(#loc141)
    %207 = tt.addptr %206, %7 : tensor<128x!tt.ptr<f32>>, tensor<128xi32> loc(#loc141)
    %208 = tt.load %207, %5 evictionPolicy = evict_last : tensor<128x!tt.ptr<f32>> loc(#loc142)
    %209 = tt.splat %arg68 : !tt.ptr<f32> -> tensor<128x!tt.ptr<f32>> loc(#loc143)
    %210 = tt.addptr %209, %7 : tensor<128x!tt.ptr<f32>>, tensor<128xi32> loc(#loc143)
    %211 = tt.load %210, %5 evictionPolicy = evict_last : tensor<128x!tt.ptr<f32>> loc(#loc144)
    %212 = tt.splat %arg69 : !tt.ptr<f32> -> tensor<128x!tt.ptr<f32>> loc(#loc145)
    %213 = tt.addptr %212, %7 : tensor<128x!tt.ptr<f32>>, tensor<128xi32> loc(#loc145)
    %214 = tt.load %213, %5 evictionPolicy = evict_last : tensor<128x!tt.ptr<f32>> loc(#loc146)
    %215 = tt.splat %arg70 : !tt.ptr<f32> -> tensor<128x!tt.ptr<f32>> loc(#loc147)
    %216 = tt.addptr %215, %7 : tensor<128x!tt.ptr<f32>>, tensor<128xi32> loc(#loc147)
    %217 = tt.load %216, %5 evictionPolicy = evict_last : tensor<128x!tt.ptr<f32>> loc(#loc148)
    %218 = tt.splat %arg71 : !tt.ptr<f32> -> tensor<128x!tt.ptr<f32>> loc(#loc149)
    %219 = tt.addptr %218, %7 : tensor<128x!tt.ptr<f32>>, tensor<128xi32> loc(#loc149)
    %220 = tt.load %219, %5 evictionPolicy = evict_last : tensor<128x!tt.ptr<f32>> loc(#loc150)
    %221 = tt.splat %arg72 : !tt.ptr<f32> -> tensor<128x!tt.ptr<f32>> loc(#loc151)
    %222 = tt.addptr %221, %7 : tensor<128x!tt.ptr<f32>>, tensor<128xi32> loc(#loc151)
    %223 = tt.load %222, %5 evictionPolicy = evict_last : tensor<128x!tt.ptr<f32>> loc(#loc152)
    %224 = tt.splat %arg73 : !tt.ptr<f32> -> tensor<128x!tt.ptr<f32>> loc(#loc153)
    %225 = tt.addptr %224, %7 : tensor<128x!tt.ptr<f32>>, tensor<128xi32> loc(#loc153)
    %226 = tt.load %225, %5 evictionPolicy = evict_last : tensor<128x!tt.ptr<f32>> loc(#loc154)
    %227 = tt.splat %arg74 : !tt.ptr<f32> -> tensor<128x!tt.ptr<f32>> loc(#loc155)
    %228 = tt.addptr %227, %7 : tensor<128x!tt.ptr<f32>>, tensor<128xi32> loc(#loc155)
    %229 = tt.load %228, %5 evictionPolicy = evict_last : tensor<128x!tt.ptr<f32>> loc(#loc156)
    %230 = tt.splat %arg75 : !tt.ptr<f32> -> tensor<128x!tt.ptr<f32>> loc(#loc157)
    %231 = tt.addptr %230, %7 : tensor<128x!tt.ptr<f32>>, tensor<128xi32> loc(#loc157)
    %232 = tt.load %231, %5 evictionPolicy = evict_last : tensor<128x!tt.ptr<f32>> loc(#loc158)
    %233 = tt.splat %arg76 : !tt.ptr<f32> -> tensor<128x!tt.ptr<f32>> loc(#loc159)
    %234 = tt.addptr %233, %7 : tensor<128x!tt.ptr<f32>>, tensor<128xi32> loc(#loc159)
    %235 = tt.load %234, %5 evictionPolicy = evict_last : tensor<128x!tt.ptr<f32>> loc(#loc160)
    %236 = tt.splat %arg77 : !tt.ptr<f32> -> tensor<128x!tt.ptr<f32>> loc(#loc161)
    %237 = tt.addptr %236, %7 : tensor<128x!tt.ptr<f32>>, tensor<128xi32> loc(#loc161)
    %238 = tt.load %237, %5 evictionPolicy = evict_last : tensor<128x!tt.ptr<f32>> loc(#loc162)
    %239 = tt.splat %arg78 : !tt.ptr<f32> -> tensor<128x!tt.ptr<f32>> loc(#loc163)
    %240 = tt.addptr %239, %7 : tensor<128x!tt.ptr<f32>>, tensor<128xi32> loc(#loc163)
    %241 = tt.load %240, %5 evictionPolicy = evict_last : tensor<128x!tt.ptr<f32>> loc(#loc164)
    %242 = tt.splat %arg79 : !tt.ptr<f32> -> tensor<128x!tt.ptr<f32>> loc(#loc165)
    %243 = tt.addptr %242, %7 : tensor<128x!tt.ptr<f32>>, tensor<128xi32> loc(#loc165)
    %244 = tt.load %243, %5 evictionPolicy = evict_last : tensor<128x!tt.ptr<f32>> loc(#loc166)
    %245 = tt.splat %arg80 : !tt.ptr<f32> -> tensor<128x!tt.ptr<f32>> loc(#loc167)
    %246 = tt.addptr %245, %7 : tensor<128x!tt.ptr<f32>>, tensor<128xi32> loc(#loc167)
    %247 = tt.load %246, %5 evictionPolicy = evict_last : tensor<128x!tt.ptr<f32>> loc(#loc168)
    %248 = tt.splat %arg81 : !tt.ptr<f32> -> tensor<128x!tt.ptr<f32>> loc(#loc169)
    %249 = tt.addptr %248, %7 : tensor<128x!tt.ptr<f32>>, tensor<128xi32> loc(#loc169)
    %250 = tt.load %249, %5 evictionPolicy = evict_last : tensor<128x!tt.ptr<f32>> loc(#loc170)
    %251 = tt.splat %arg82 : !tt.ptr<f32> -> tensor<128x!tt.ptr<f32>> loc(#loc171)
    %252 = tt.addptr %251, %7 : tensor<128x!tt.ptr<f32>>, tensor<128xi32> loc(#loc171)
    %253 = tt.load %252, %5 evictionPolicy = evict_last : tensor<128x!tt.ptr<f32>> loc(#loc172)
    %254 = tt.splat %arg83 : !tt.ptr<f32> -> tensor<128x!tt.ptr<f32>> loc(#loc173)
    %255 = tt.addptr %254, %7 : tensor<128x!tt.ptr<f32>>, tensor<128xi32> loc(#loc173)
    %256 = tt.load %255, %5 evictionPolicy = evict_last : tensor<128x!tt.ptr<f32>> loc(#loc174)
    %257 = tt.splat %arg84 : !tt.ptr<f32> -> tensor<128x!tt.ptr<f32>> loc(#loc175)
    %258 = tt.addptr %257, %7 : tensor<128x!tt.ptr<f32>>, tensor<128xi32> loc(#loc175)
    %259 = tt.load %258, %5 evictionPolicy = evict_last : tensor<128x!tt.ptr<f32>> loc(#loc176)
    %260 = tt.splat %arg85 : !tt.ptr<f32> -> tensor<128x!tt.ptr<f32>> loc(#loc177)
    %261 = tt.addptr %260, %7 : tensor<128x!tt.ptr<f32>>, tensor<128xi32> loc(#loc177)
    %262 = tt.load %261, %5 evictionPolicy = evict_last : tensor<128x!tt.ptr<f32>> loc(#loc178)
    %263 = tt.splat %arg86 : !tt.ptr<f32> -> tensor<128x!tt.ptr<f32>> loc(#loc179)
    %264 = tt.addptr %263, %7 : tensor<128x!tt.ptr<f32>>, tensor<128xi32> loc(#loc179)
    %265 = tt.load %264, %5 evictionPolicy = evict_last : tensor<128x!tt.ptr<f32>> loc(#loc180)
    %266 = tt.splat %arg87 : !tt.ptr<f32> -> tensor<128x!tt.ptr<f32>> loc(#loc181)
    %267 = tt.addptr %266, %7 : tensor<128x!tt.ptr<f32>>, tensor<128xi32> loc(#loc181)
    %268 = tt.load %267, %5 evictionPolicy = evict_last : tensor<128x!tt.ptr<f32>> loc(#loc182)
    %269 = tt.splat %arg88 : !tt.ptr<f32> -> tensor<128x!tt.ptr<f32>> loc(#loc183)
    %270 = tt.addptr %269, %7 : tensor<128x!tt.ptr<f32>>, tensor<128xi32> loc(#loc183)
    %271 = tt.load %270, %5 evictionPolicy = evict_last : tensor<128x!tt.ptr<f32>> loc(#loc184)
    %272 = tt.splat %arg89 : !tt.ptr<f32> -> tensor<128x!tt.ptr<f32>> loc(#loc185)
    %273 = tt.addptr %272, %7 : tensor<128x!tt.ptr<f32>>, tensor<128xi32> loc(#loc185)
    %274 = tt.load %273, %5 evictionPolicy = evict_last : tensor<128x!tt.ptr<f32>> loc(#loc186)
    %275 = tt.splat %arg90 : !tt.ptr<f32> -> tensor<128x!tt.ptr<f32>> loc(#loc187)
    %276 = tt.addptr %275, %7 : tensor<128x!tt.ptr<f32>>, tensor<128xi32> loc(#loc187)
    %277 = tt.load %276, %5 evictionPolicy = evict_last : tensor<128x!tt.ptr<f32>> loc(#loc188)
    %278 = tt.splat %arg91 : !tt.ptr<f32> -> tensor<128x!tt.ptr<f32>> loc(#loc189)
    %279 = tt.addptr %278, %7 : tensor<128x!tt.ptr<f32>>, tensor<128xi32> loc(#loc189)
    %280 = tt.load %279, %5 evictionPolicy = evict_last : tensor<128x!tt.ptr<f32>> loc(#loc190)
    %281 = tt.splat %arg92 : !tt.ptr<f32> -> tensor<128x!tt.ptr<f32>> loc(#loc191)
    %282 = tt.addptr %281, %7 : tensor<128x!tt.ptr<f32>>, tensor<128xi32> loc(#loc191)
    %283 = tt.load %282, %5 evictionPolicy = evict_last : tensor<128x!tt.ptr<f32>> loc(#loc192)
    %284 = tt.splat %arg93 : !tt.ptr<f32> -> tensor<128x!tt.ptr<f32>> loc(#loc193)
    %285 = tt.addptr %284, %7 : tensor<128x!tt.ptr<f32>>, tensor<128xi32> loc(#loc193)
    %286 = tt.load %285, %5 evictionPolicy = evict_last : tensor<128x!tt.ptr<f32>> loc(#loc194)
    %287 = tt.splat %arg94 : !tt.ptr<f32> -> tensor<128x!tt.ptr<f32>> loc(#loc195)
    %288 = tt.addptr %287, %7 : tensor<128x!tt.ptr<f32>>, tensor<128xi32> loc(#loc195)
    %289 = tt.load %288, %5 evictionPolicy = evict_last : tensor<128x!tt.ptr<f32>> loc(#loc196)
    %290 = tt.splat %arg95 : !tt.ptr<f32> -> tensor<128x!tt.ptr<f32>> loc(#loc197)
    %291 = tt.addptr %290, %7 : tensor<128x!tt.ptr<f32>>, tensor<128xi32> loc(#loc197)
    %292 = tt.load %291, %5 evictionPolicy = evict_last : tensor<128x!tt.ptr<f32>> loc(#loc198)
    %293 = tt.splat %arg96 : !tt.ptr<f32> -> tensor<128x!tt.ptr<f32>> loc(#loc199)
    %294 = tt.addptr %293, %7 : tensor<128x!tt.ptr<f32>>, tensor<128xi32> loc(#loc199)
    %295 = tt.load %294, %5 evictionPolicy = evict_last : tensor<128x!tt.ptr<f32>> loc(#loc200)
    %296 = tt.splat %arg97 : !tt.ptr<f32> -> tensor<128x!tt.ptr<f32>> loc(#loc201)
    %297 = tt.addptr %296, %7 : tensor<128x!tt.ptr<f32>>, tensor<128xi32> loc(#loc201)
    %298 = tt.load %297, %5 evictionPolicy = evict_last : tensor<128x!tt.ptr<f32>> loc(#loc202)
    %299 = tt.splat %arg98 : !tt.ptr<f32> -> tensor<128x!tt.ptr<f32>> loc(#loc203)
    %300 = tt.addptr %299, %7 : tensor<128x!tt.ptr<f32>>, tensor<128xi32> loc(#loc203)
    %301 = tt.load %300, %5 evictionPolicy = evict_last : tensor<128x!tt.ptr<f32>> loc(#loc204)
    %302 = tt.splat %arg99 : !tt.ptr<f32> -> tensor<128x!tt.ptr<f32>> loc(#loc205)
    %303 = tt.addptr %302, %7 : tensor<128x!tt.ptr<f32>>, tensor<128xi32> loc(#loc205)
    %304 = tt.load %303, %5 evictionPolicy = evict_last : tensor<128x!tt.ptr<f32>> loc(#loc206)
    %305 = tt.splat %arg100 : !tt.ptr<f32> -> tensor<128x!tt.ptr<f32>> loc(#loc207)
    %306 = tt.addptr %305, %7 : tensor<128x!tt.ptr<f32>>, tensor<128xi32> loc(#loc207)
    %307 = tt.load %306, %5 evictionPolicy = evict_last : tensor<128x!tt.ptr<f32>> loc(#loc208)
    %308 = tt.splat %arg101 : !tt.ptr<f32> -> tensor<128x!tt.ptr<f32>> loc(#loc209)
    %309 = tt.addptr %308, %7 : tensor<128x!tt.ptr<f32>>, tensor<128xi32> loc(#loc209)
    %310 = tt.load %309, %5 evictionPolicy = evict_last : tensor<128x!tt.ptr<f32>> loc(#loc210)
    %311 = tt.splat %arg102 : !tt.ptr<f32> -> tensor<128x!tt.ptr<f32>> loc(#loc211)
    %312 = tt.addptr %311, %7 : tensor<128x!tt.ptr<f32>>, tensor<128xi32> loc(#loc211)
    %313 = tt.load %312, %5 evictionPolicy = evict_last : tensor<128x!tt.ptr<f32>> loc(#loc212)
    %314 = tt.splat %arg103 : !tt.ptr<f32> -> tensor<128x!tt.ptr<f32>> loc(#loc213)
    %315 = tt.addptr %314, %7 : tensor<128x!tt.ptr<f32>>, tensor<128xi32> loc(#loc213)
    %316 = tt.load %315, %5 evictionPolicy = evict_last : tensor<128x!tt.ptr<f32>> loc(#loc214)
    %317 = tt.splat %arg104 : !tt.ptr<f32> -> tensor<128x!tt.ptr<f32>> loc(#loc215)
    %318 = tt.addptr %317, %7 : tensor<128x!tt.ptr<f32>>, tensor<128xi32> loc(#loc215)
    %319 = tt.load %318, %5 evictionPolicy = evict_last : tensor<128x!tt.ptr<f32>> loc(#loc216)
    %320 = tt.splat %arg105 : !tt.ptr<f32> -> tensor<128x!tt.ptr<f32>> loc(#loc217)
    %321 = tt.addptr %320, %7 : tensor<128x!tt.ptr<f32>>, tensor<128xi32> loc(#loc217)
    %322 = tt.load %321, %5 evictionPolicy = evict_last : tensor<128x!tt.ptr<f32>> loc(#loc218)
    %323 = tt.splat %arg106 : !tt.ptr<f32> -> tensor<128x!tt.ptr<f32>> loc(#loc219)
    %324 = tt.addptr %323, %7 : tensor<128x!tt.ptr<f32>>, tensor<128xi32> loc(#loc219)
    %325 = tt.load %324, %5 evictionPolicy = evict_last : tensor<128x!tt.ptr<f32>> loc(#loc220)
    %326 = tt.splat %arg107 : !tt.ptr<f32> -> tensor<128x!tt.ptr<f32>> loc(#loc221)
    %327 = tt.addptr %326, %7 : tensor<128x!tt.ptr<f32>>, tensor<128xi32> loc(#loc221)
    %328 = tt.load %327, %5 evictionPolicy = evict_last : tensor<128x!tt.ptr<f32>> loc(#loc222)
    %329 = tt.splat %arg108 : !tt.ptr<f32> -> tensor<128x!tt.ptr<f32>> loc(#loc223)
    %330 = tt.addptr %329, %7 : tensor<128x!tt.ptr<f32>>, tensor<128xi32> loc(#loc223)
    %331 = tt.load %330, %5 evictionPolicy = evict_last : tensor<128x!tt.ptr<f32>> loc(#loc224)
    %332 = tt.splat %arg109 : !tt.ptr<f32> -> tensor<128x!tt.ptr<f32>> loc(#loc225)
    %333 = tt.addptr %332, %7 : tensor<128x!tt.ptr<f32>>, tensor<128xi32> loc(#loc225)
    %334 = tt.load %333, %5 evictionPolicy = evict_last : tensor<128x!tt.ptr<f32>> loc(#loc226)
    %335 = tt.splat %arg110 : !tt.ptr<f32> -> tensor<128x!tt.ptr<f32>> loc(#loc227)
    %336 = tt.addptr %335, %7 : tensor<128x!tt.ptr<f32>>, tensor<128xi32> loc(#loc227)
    %337 = tt.load %336, %5 evictionPolicy = evict_last : tensor<128x!tt.ptr<f32>> loc(#loc228)
    %338 = tt.splat %arg111 : !tt.ptr<f32> -> tensor<128x!tt.ptr<f32>> loc(#loc229)
    %339 = tt.addptr %338, %7 : tensor<128x!tt.ptr<f32>>, tensor<128xi32> loc(#loc229)
    %340 = tt.load %339, %5 evictionPolicy = evict_last : tensor<128x!tt.ptr<f32>> loc(#loc230)
    %341 = tt.splat %arg112 : !tt.ptr<f32> -> tensor<128x!tt.ptr<f32>> loc(#loc231)
    %342 = tt.addptr %341, %7 : tensor<128x!tt.ptr<f32>>, tensor<128xi32> loc(#loc231)
    %343 = tt.load %342, %5 evictionPolicy = evict_last : tensor<128x!tt.ptr<f32>> loc(#loc232)
    %344 = tt.splat %arg113 : !tt.ptr<f32> -> tensor<128x!tt.ptr<f32>> loc(#loc233)
    %345 = tt.addptr %344, %7 : tensor<128x!tt.ptr<f32>>, tensor<128xi32> loc(#loc233)
    %346 = tt.load %345, %5 evictionPolicy = evict_last : tensor<128x!tt.ptr<f32>> loc(#loc234)
    %347 = tt.splat %arg114 : !tt.ptr<f32> -> tensor<128x!tt.ptr<f32>> loc(#loc235)
    %348 = tt.addptr %347, %7 : tensor<128x!tt.ptr<f32>>, tensor<128xi32> loc(#loc235)
    %349 = tt.load %348, %5 evictionPolicy = evict_last : tensor<128x!tt.ptr<f32>> loc(#loc236)
    %350 = tt.splat %arg115 : !tt.ptr<f32> -> tensor<128x!tt.ptr<f32>> loc(#loc237)
    %351 = tt.addptr %350, %7 : tensor<128x!tt.ptr<f32>>, tensor<128xi32> loc(#loc237)
    %352 = tt.load %351, %5 evictionPolicy = evict_last : tensor<128x!tt.ptr<f32>> loc(#loc238)
    %353 = tt.splat %arg116 : !tt.ptr<f32> -> tensor<128x!tt.ptr<f32>> loc(#loc239)
    %354 = tt.addptr %353, %7 : tensor<128x!tt.ptr<f32>>, tensor<128xi32> loc(#loc239)
    %355 = tt.load %354, %5 evictionPolicy = evict_last : tensor<128x!tt.ptr<f32>> loc(#loc240)
    %356 = tt.splat %arg117 : !tt.ptr<f32> -> tensor<128x!tt.ptr<f32>> loc(#loc241)
    %357 = tt.addptr %356, %7 : tensor<128x!tt.ptr<f32>>, tensor<128xi32> loc(#loc241)
    %358 = tt.load %357, %5 evictionPolicy = evict_last : tensor<128x!tt.ptr<f32>> loc(#loc242)
    %359 = tt.splat %arg118 : !tt.ptr<f32> -> tensor<128x!tt.ptr<f32>> loc(#loc243)
    %360 = tt.addptr %359, %7 : tensor<128x!tt.ptr<f32>>, tensor<128xi32> loc(#loc243)
    %361 = tt.load %360, %5 evictionPolicy = evict_last : tensor<128x!tt.ptr<f32>> loc(#loc244)
    %362 = tt.splat %arg119 : !tt.ptr<f32> -> tensor<128x!tt.ptr<f32>> loc(#loc245)
    %363 = tt.addptr %362, %7 : tensor<128x!tt.ptr<f32>>, tensor<128xi32> loc(#loc245)
    %364 = tt.load %363, %5 evictionPolicy = evict_last : tensor<128x!tt.ptr<f32>> loc(#loc246)
    %365 = tt.splat %arg120 : !tt.ptr<f32> -> tensor<128x!tt.ptr<f32>> loc(#loc247)
    %366 = tt.addptr %365, %7 : tensor<128x!tt.ptr<f32>>, tensor<128xi32> loc(#loc247)
    %367 = tt.load %366, %5 evictionPolicy = evict_last : tensor<128x!tt.ptr<f32>> loc(#loc248)
    %368 = tt.splat %arg121 : !tt.ptr<f32> -> tensor<128x!tt.ptr<f32>> loc(#loc249)
    %369 = tt.addptr %368, %7 : tensor<128x!tt.ptr<f32>>, tensor<128xi32> loc(#loc249)
    %370 = tt.load %369, %5 evictionPolicy = evict_last : tensor<128x!tt.ptr<f32>> loc(#loc250)
    %371 = tt.splat %arg122 : !tt.ptr<f32> -> tensor<128x!tt.ptr<f32>> loc(#loc251)
    %372 = tt.addptr %371, %7 : tensor<128x!tt.ptr<f32>>, tensor<128xi32> loc(#loc251)
    %373 = tt.load %372, %5 evictionPolicy = evict_last : tensor<128x!tt.ptr<f32>> loc(#loc252)
    %374 = tt.splat %arg123 : !tt.ptr<f32> -> tensor<128x!tt.ptr<f32>> loc(#loc253)
    %375 = tt.addptr %374, %7 : tensor<128x!tt.ptr<f32>>, tensor<128xi32> loc(#loc253)
    %376 = tt.load %375, %5 evictionPolicy = evict_last : tensor<128x!tt.ptr<f32>> loc(#loc254)
    %377 = tt.splat %arg124 : !tt.ptr<f32> -> tensor<128x!tt.ptr<f32>> loc(#loc255)
    %378 = tt.addptr %377, %7 : tensor<128x!tt.ptr<f32>>, tensor<128xi32> loc(#loc255)
    %379 = tt.load %378, %5 evictionPolicy = evict_last : tensor<128x!tt.ptr<f32>> loc(#loc256)
    %380 = tt.splat %arg125 : !tt.ptr<f32> -> tensor<128x!tt.ptr<f32>> loc(#loc257)
    %381 = tt.addptr %380, %7 : tensor<128x!tt.ptr<f32>>, tensor<128xi32> loc(#loc257)
    %382 = tt.load %381, %5 evictionPolicy = evict_last : tensor<128x!tt.ptr<f32>> loc(#loc258)
    %383 = tt.splat %arg126 : !tt.ptr<f32> -> tensor<128x!tt.ptr<f32>> loc(#loc259)
    %384 = tt.addptr %383, %7 : tensor<128x!tt.ptr<f32>>, tensor<128xi32> loc(#loc259)
    %385 = tt.load %384, %5 evictionPolicy = evict_last : tensor<128x!tt.ptr<f32>> loc(#loc260)
    %386 = tt.splat %arg127 : !tt.ptr<f32> -> tensor<128x!tt.ptr<f32>> loc(#loc261)
    %387 = tt.addptr %386, %7 : tensor<128x!tt.ptr<f32>>, tensor<128xi32> loc(#loc261)
    %388 = tt.load %387, %5 evictionPolicy = evict_last : tensor<128x!tt.ptr<f32>> loc(#loc262)
    %389 = tt.splat %arg128 : !tt.ptr<f32> -> tensor<128x!tt.ptr<f32>> loc(#loc263)
    %390 = tt.addptr %389, %7 : tensor<128x!tt.ptr<f32>>, tensor<128xi32> loc(#loc263)
    %391 = tt.load %390, %5 evictionPolicy = evict_last : tensor<128x!tt.ptr<f32>> loc(#loc264)
    %392 = arith.cmpi eq, %6, %cst_31 : tensor<128xi32> loc(#loc265)
    %393 = arith.select %392, %10, %cst_30 : tensor<128xi1>, tensor<128xf32> loc(#loc266)
    %394 = arith.cmpi eq, %6, %cst_29 : tensor<128xi32> loc(#loc267)
    %395 = arith.select %394, %13, %cst_30 : tensor<128xi1>, tensor<128xf32> loc(#loc268)
    %396 = arith.addf %393, %395 : tensor<128xf32> loc(#loc269)
    %397 = arith.cmpi eq, %6, %cst_28 : tensor<128xi32> loc(#loc270)
    %398 = arith.select %397, %16, %cst_30 : tensor<128xi1>, tensor<128xf32> loc(#loc271)
    %399 = arith.addf %396, %398 : tensor<128xf32> loc(#loc272)
    %400 = arith.cmpi eq, %6, %cst_27 : tensor<128xi32> loc(#loc273)
    %401 = arith.select %400, %19, %cst_30 : tensor<128xi1>, tensor<128xf32> loc(#loc274)
    %402 = arith.addf %399, %401 : tensor<128xf32> loc(#loc275)
    %403 = arith.cmpi eq, %6, %cst_26 : tensor<128xi32> loc(#loc276)
    %404 = arith.select %403, %22, %cst_30 : tensor<128xi1>, tensor<128xf32> loc(#loc277)
    %405 = arith.addf %402, %404 : tensor<128xf32> loc(#loc278)
    %406 = arith.cmpi eq, %6, %cst_25 : tensor<128xi32> loc(#loc279)
    %407 = arith.select %406, %25, %cst_30 : tensor<128xi1>, tensor<128xf32> loc(#loc280)
    %408 = arith.addf %405, %407 : tensor<128xf32> loc(#loc281)
    %409 = arith.cmpi eq, %6, %cst_24 : tensor<128xi32> loc(#loc282)
    %410 = arith.select %409, %28, %cst_30 : tensor<128xi1>, tensor<128xf32> loc(#loc283)
    %411 = arith.addf %408, %410 : tensor<128xf32> loc(#loc284)
    %412 = arith.cmpi eq, %6, %cst_23 : tensor<128xi32> loc(#loc285)
    %413 = arith.select %412, %31, %cst_30 : tensor<128xi1>, tensor<128xf32> loc(#loc286)
    %414 = arith.addf %411, %413 : tensor<128xf32> loc(#loc287)
    %415 = arith.cmpi eq, %6, %cst_22 : tensor<128xi32> loc(#loc288)
    %416 = arith.select %415, %34, %cst_30 : tensor<128xi1>, tensor<128xf32> loc(#loc289)
    %417 = arith.addf %414, %416 : tensor<128xf32> loc(#loc290)
    %418 = arith.cmpi eq, %6, %cst_21 : tensor<128xi32> loc(#loc291)
    %419 = arith.select %418, %37, %cst_30 : tensor<128xi1>, tensor<128xf32> loc(#loc292)
    %420 = arith.addf %417, %419 : tensor<128xf32> loc(#loc293)
    %421 = arith.cmpi eq, %6, %cst_20 : tensor<128xi32> loc(#loc294)
    %422 = arith.select %421, %40, %cst_30 : tensor<128xi1>, tensor<128xf32> loc(#loc295)
    %423 = arith.addf %420, %422 : tensor<128xf32> loc(#loc296)
    %424 = arith.cmpi eq, %6, %cst_19 : tensor<128xi32> loc(#loc297)
    %425 = arith.select %424, %43, %cst_30 : tensor<128xi1>, tensor<128xf32> loc(#loc298)
    %426 = arith.addf %423, %425 : tensor<128xf32> loc(#loc299)
    %427 = arith.cmpi eq, %6, %cst_18 : tensor<128xi32> loc(#loc300)
    %428 = arith.select %427, %46, %cst_30 : tensor<128xi1>, tensor<128xf32> loc(#loc301)
    %429 = arith.addf %426, %428 : tensor<128xf32> loc(#loc302)
    %430 = arith.cmpi eq, %6, %cst_17 : tensor<128xi32> loc(#loc303)
    %431 = arith.select %430, %49, %cst_30 : tensor<128xi1>, tensor<128xf32> loc(#loc304)
    %432 = arith.addf %429, %431 : tensor<128xf32> loc(#loc305)
    %433 = arith.cmpi eq, %6, %cst_16 : tensor<128xi32> loc(#loc306)
    %434 = arith.select %433, %52, %cst_30 : tensor<128xi1>, tensor<128xf32> loc(#loc307)
    %435 = arith.addf %432, %434 : tensor<128xf32> loc(#loc308)
    %436 = arith.cmpi eq, %6, %cst_15 : tensor<128xi32> loc(#loc309)
    %437 = arith.select %436, %55, %cst_30 : tensor<128xi1>, tensor<128xf32> loc(#loc310)
    %438 = arith.addf %435, %437 : tensor<128xf32> loc(#loc311)
    %439 = arith.cmpi eq, %6, %cst_14 : tensor<128xi32> loc(#loc312)
    %440 = arith.select %439, %58, %cst_30 : tensor<128xi1>, tensor<128xf32> loc(#loc313)
    %441 = arith.addf %438, %440 : tensor<128xf32> loc(#loc314)
    %442 = arith.cmpi eq, %6, %cst_13 : tensor<128xi32> loc(#loc315)
    %443 = arith.select %442, %61, %cst_30 : tensor<128xi1>, tensor<128xf32> loc(#loc316)
    %444 = arith.addf %441, %443 : tensor<128xf32> loc(#loc317)
    %445 = arith.cmpi eq, %6, %cst_12 : tensor<128xi32> loc(#loc318)
    %446 = arith.select %445, %64, %cst_30 : tensor<128xi1>, tensor<128xf32> loc(#loc319)
    %447 = arith.addf %444, %446 : tensor<128xf32> loc(#loc320)
    %448 = arith.cmpi eq, %6, %cst_11 : tensor<128xi32> loc(#loc321)
    %449 = arith.select %448, %67, %cst_30 : tensor<128xi1>, tensor<128xf32> loc(#loc322)
    %450 = arith.addf %447, %449 : tensor<128xf32> loc(#loc323)
    %451 = arith.cmpi eq, %6, %cst_10 : tensor<128xi32> loc(#loc324)
    %452 = arith.select %451, %70, %cst_30 : tensor<128xi1>, tensor<128xf32> loc(#loc325)
    %453 = arith.addf %450, %452 : tensor<128xf32> loc(#loc326)
    %454 = arith.cmpi eq, %6, %cst_9 : tensor<128xi32> loc(#loc327)
    %455 = arith.select %454, %73, %cst_30 : tensor<128xi1>, tensor<128xf32> loc(#loc328)
    %456 = arith.addf %453, %455 : tensor<128xf32> loc(#loc329)
    %457 = arith.cmpi eq, %6, %cst_8 : tensor<128xi32> loc(#loc330)
    %458 = arith.select %457, %76, %cst_30 : tensor<128xi1>, tensor<128xf32> loc(#loc331)
    %459 = arith.addf %456, %458 : tensor<128xf32> loc(#loc332)
    %460 = arith.cmpi eq, %6, %cst_7 : tensor<128xi32> loc(#loc333)
    %461 = arith.select %460, %79, %cst_30 : tensor<128xi1>, tensor<128xf32> loc(#loc334)
    %462 = arith.addf %459, %461 : tensor<128xf32> loc(#loc335)
    %463 = arith.cmpi eq, %6, %cst_6 : tensor<128xi32> loc(#loc336)
    %464 = arith.select %463, %82, %cst_30 : tensor<128xi1>, tensor<128xf32> loc(#loc337)
    %465 = arith.addf %462, %464 : tensor<128xf32> loc(#loc338)
    %466 = arith.cmpi eq, %6, %cst_5 : tensor<128xi32> loc(#loc339)
    %467 = arith.select %466, %85, %cst_30 : tensor<128xi1>, tensor<128xf32> loc(#loc340)
    %468 = arith.addf %465, %467 : tensor<128xf32> loc(#loc341)
    %469 = arith.cmpi eq, %6, %cst_4 : tensor<128xi32> loc(#loc342)
    %470 = arith.select %469, %88, %cst_30 : tensor<128xi1>, tensor<128xf32> loc(#loc343)
    %471 = arith.addf %468, %470 : tensor<128xf32> loc(#loc344)
    %472 = arith.cmpi eq, %6, %cst_3 : tensor<128xi32> loc(#loc345)
    %473 = arith.select %472, %91, %cst_30 : tensor<128xi1>, tensor<128xf32> loc(#loc346)
    %474 = arith.addf %471, %473 : tensor<128xf32> loc(#loc347)
    %475 = arith.cmpi eq, %6, %cst_2 : tensor<128xi32> loc(#loc348)
    %476 = arith.select %475, %94, %cst_30 : tensor<128xi1>, tensor<128xf32> loc(#loc349)
    %477 = arith.addf %474, %476 : tensor<128xf32> loc(#loc350)
    %478 = arith.cmpi eq, %6, %cst_1 : tensor<128xi32> loc(#loc351)
    %479 = arith.select %478, %97, %cst_30 : tensor<128xi1>, tensor<128xf32> loc(#loc352)
    %480 = arith.addf %477, %479 : tensor<128xf32> loc(#loc353)
    %481 = arith.cmpi eq, %6, %cst_0 : tensor<128xi32> loc(#loc354)
    %482 = arith.select %481, %100, %cst_30 : tensor<128xi1>, tensor<128xf32> loc(#loc355)
    %483 = arith.addf %480, %482 : tensor<128xf32> loc(#loc356)
    %484 = arith.cmpi eq, %6, %cst : tensor<128xi32> loc(#loc357)
    %485 = arith.select %484, %103, %cst_30 : tensor<128xi1>, tensor<128xf32> loc(#loc358)
    %486 = arith.addf %483, %485 : tensor<128xf32> loc(#loc359)
    %487 = arith.select %392, %106, %cst_30 : tensor<128xi1>, tensor<128xf32> loc(#loc360)
    %488 = arith.addf %486, %487 : tensor<128xf32> loc(#loc361)
    %489 = arith.select %394, %109, %cst_30 : tensor<128xi1>, tensor<128xf32> loc(#loc362)
    %490 = arith.addf %488, %489 : tensor<128xf32> loc(#loc363)
    %491 = arith.select %397, %112, %cst_30 : tensor<128xi1>, tensor<128xf32> loc(#loc364)
    %492 = arith.addf %490, %491 : tensor<128xf32> loc(#loc365)
    %493 = arith.select %400, %115, %cst_30 : tensor<128xi1>, tensor<128xf32> loc(#loc366)
    %494 = arith.addf %492, %493 : tensor<128xf32> loc(#loc367)
    %495 = arith.select %403, %118, %cst_30 : tensor<128xi1>, tensor<128xf32> loc(#loc368)
    %496 = arith.addf %494, %495 : tensor<128xf32> loc(#loc369)
    %497 = arith.select %406, %121, %cst_30 : tensor<128xi1>, tensor<128xf32> loc(#loc370)
    %498 = arith.addf %496, %497 : tensor<128xf32> loc(#loc371)
    %499 = arith.select %409, %124, %cst_30 : tensor<128xi1>, tensor<128xf32> loc(#loc372)
    %500 = arith.addf %498, %499 : tensor<128xf32> loc(#loc373)
    %501 = arith.select %412, %127, %cst_30 : tensor<128xi1>, tensor<128xf32> loc(#loc374)
    %502 = arith.addf %500, %501 : tensor<128xf32> loc(#loc375)
    %503 = arith.select %415, %130, %cst_30 : tensor<128xi1>, tensor<128xf32> loc(#loc376)
    %504 = arith.addf %502, %503 : tensor<128xf32> loc(#loc377)
    %505 = arith.select %418, %133, %cst_30 : tensor<128xi1>, tensor<128xf32> loc(#loc378)
    %506 = arith.addf %504, %505 : tensor<128xf32> loc(#loc379)
    %507 = arith.select %421, %136, %cst_30 : tensor<128xi1>, tensor<128xf32> loc(#loc380)
    %508 = arith.addf %506, %507 : tensor<128xf32> loc(#loc381)
    %509 = arith.select %424, %139, %cst_30 : tensor<128xi1>, tensor<128xf32> loc(#loc382)
    %510 = arith.addf %508, %509 : tensor<128xf32> loc(#loc383)
    %511 = arith.select %427, %142, %cst_30 : tensor<128xi1>, tensor<128xf32> loc(#loc384)
    %512 = arith.addf %510, %511 : tensor<128xf32> loc(#loc385)
    %513 = arith.select %430, %145, %cst_30 : tensor<128xi1>, tensor<128xf32> loc(#loc386)
    %514 = arith.addf %512, %513 : tensor<128xf32> loc(#loc387)
    %515 = arith.select %433, %148, %cst_30 : tensor<128xi1>, tensor<128xf32> loc(#loc388)
    %516 = arith.addf %514, %515 : tensor<128xf32> loc(#loc389)
    %517 = arith.select %436, %151, %cst_30 : tensor<128xi1>, tensor<128xf32> loc(#loc390)
    %518 = arith.addf %516, %517 : tensor<128xf32> loc(#loc391)
    %519 = arith.select %439, %154, %cst_30 : tensor<128xi1>, tensor<128xf32> loc(#loc392)
    %520 = arith.addf %518, %519 : tensor<128xf32> loc(#loc393)
    %521 = arith.select %442, %157, %cst_30 : tensor<128xi1>, tensor<128xf32> loc(#loc394)
    %522 = arith.addf %520, %521 : tensor<128xf32> loc(#loc395)
    %523 = arith.select %445, %160, %cst_30 : tensor<128xi1>, tensor<128xf32> loc(#loc396)
    %524 = arith.addf %522, %523 : tensor<128xf32> loc(#loc397)
    %525 = arith.select %448, %163, %cst_30 : tensor<128xi1>, tensor<128xf32> loc(#loc398)
    %526 = arith.addf %524, %525 : tensor<128xf32> loc(#loc399)
    %527 = arith.select %451, %166, %cst_30 : tensor<128xi1>, tensor<128xf32> loc(#loc400)
    %528 = arith.addf %526, %527 : tensor<128xf32> loc(#loc401)
    %529 = arith.select %454, %169, %cst_30 : tensor<128xi1>, tensor<128xf32> loc(#loc402)
    %530 = arith.addf %528, %529 : tensor<128xf32> loc(#loc403)
    %531 = arith.select %457, %172, %cst_30 : tensor<128xi1>, tensor<128xf32> loc(#loc404)
    %532 = arith.addf %530, %531 : tensor<128xf32> loc(#loc405)
    %533 = arith.select %460, %175, %cst_30 : tensor<128xi1>, tensor<128xf32> loc(#loc406)
    %534 = arith.addf %532, %533 : tensor<128xf32> loc(#loc407)
    %535 = arith.select %463, %178, %cst_30 : tensor<128xi1>, tensor<128xf32> loc(#loc408)
    %536 = arith.addf %534, %535 : tensor<128xf32> loc(#loc409)
    %537 = arith.select %466, %181, %cst_30 : tensor<128xi1>, tensor<128xf32> loc(#loc410)
    %538 = arith.addf %536, %537 : tensor<128xf32> loc(#loc411)
    %539 = arith.select %469, %184, %cst_30 : tensor<128xi1>, tensor<128xf32> loc(#loc412)
    %540 = arith.addf %538, %539 : tensor<128xf32> loc(#loc413)
    %541 = arith.select %472, %187, %cst_30 : tensor<128xi1>, tensor<128xf32> loc(#loc414)
    %542 = arith.addf %540, %541 : tensor<128xf32> loc(#loc415)
    %543 = arith.select %475, %190, %cst_30 : tensor<128xi1>, tensor<128xf32> loc(#loc416)
    %544 = arith.addf %542, %543 : tensor<128xf32> loc(#loc417)
    %545 = arith.select %478, %193, %cst_30 : tensor<128xi1>, tensor<128xf32> loc(#loc418)
    %546 = arith.addf %544, %545 : tensor<128xf32> loc(#loc419)
    %547 = arith.select %481, %196, %cst_30 : tensor<128xi1>, tensor<128xf32> loc(#loc420)
    %548 = arith.addf %546, %547 : tensor<128xf32> loc(#loc421)
    %549 = arith.select %484, %199, %cst_30 : tensor<128xi1>, tensor<128xf32> loc(#loc422)
    %550 = arith.addf %548, %549 : tensor<128xf32> loc(#loc423)
    %551 = arith.select %392, %202, %cst_30 : tensor<128xi1>, tensor<128xf32> loc(#loc424)
    %552 = arith.addf %550, %551 : tensor<128xf32> loc(#loc425)
    %553 = arith.select %394, %205, %cst_30 : tensor<128xi1>, tensor<128xf32> loc(#loc426)
    %554 = arith.addf %552, %553 : tensor<128xf32> loc(#loc427)
    %555 = arith.select %397, %208, %cst_30 : tensor<128xi1>, tensor<128xf32> loc(#loc428)
    %556 = arith.addf %554, %555 : tensor<128xf32> loc(#loc429)
    %557 = arith.select %400, %211, %cst_30 : tensor<128xi1>, tensor<128xf32> loc(#loc430)
    %558 = arith.addf %556, %557 : tensor<128xf32> loc(#loc431)
    %559 = arith.select %403, %214, %cst_30 : tensor<128xi1>, tensor<128xf32> loc(#loc432)
    %560 = arith.addf %558, %559 : tensor<128xf32> loc(#loc433)
    %561 = arith.select %406, %217, %cst_30 : tensor<128xi1>, tensor<128xf32> loc(#loc434)
    %562 = arith.addf %560, %561 : tensor<128xf32> loc(#loc435)
    %563 = arith.select %409, %220, %cst_30 : tensor<128xi1>, tensor<128xf32> loc(#loc436)
    %564 = arith.addf %562, %563 : tensor<128xf32> loc(#loc437)
    %565 = arith.select %412, %223, %cst_30 : tensor<128xi1>, tensor<128xf32> loc(#loc438)
    %566 = arith.addf %564, %565 : tensor<128xf32> loc(#loc439)
    %567 = arith.select %415, %226, %cst_30 : tensor<128xi1>, tensor<128xf32> loc(#loc440)
    %568 = arith.addf %566, %567 : tensor<128xf32> loc(#loc441)
    %569 = arith.select %418, %229, %cst_30 : tensor<128xi1>, tensor<128xf32> loc(#loc442)
    %570 = arith.addf %568, %569 : tensor<128xf32> loc(#loc443)
    %571 = arith.select %421, %232, %cst_30 : tensor<128xi1>, tensor<128xf32> loc(#loc444)
    %572 = arith.addf %570, %571 : tensor<128xf32> loc(#loc445)
    %573 = arith.select %424, %235, %cst_30 : tensor<128xi1>, tensor<128xf32> loc(#loc446)
    %574 = arith.addf %572, %573 : tensor<128xf32> loc(#loc447)
    %575 = arith.select %427, %238, %cst_30 : tensor<128xi1>, tensor<128xf32> loc(#loc448)
    %576 = arith.addf %574, %575 : tensor<128xf32> loc(#loc449)
    %577 = arith.select %430, %241, %cst_30 : tensor<128xi1>, tensor<128xf32> loc(#loc450)
    %578 = arith.addf %576, %577 : tensor<128xf32> loc(#loc451)
    %579 = arith.select %433, %244, %cst_30 : tensor<128xi1>, tensor<128xf32> loc(#loc452)
    %580 = arith.addf %578, %579 : tensor<128xf32> loc(#loc453)
    %581 = arith.select %436, %247, %cst_30 : tensor<128xi1>, tensor<128xf32> loc(#loc454)
    %582 = arith.addf %580, %581 : tensor<128xf32> loc(#loc455)
    %583 = arith.select %439, %250, %cst_30 : tensor<128xi1>, tensor<128xf32> loc(#loc456)
    %584 = arith.addf %582, %583 : tensor<128xf32> loc(#loc457)
    %585 = arith.select %442, %253, %cst_30 : tensor<128xi1>, tensor<128xf32> loc(#loc458)
    %586 = arith.addf %584, %585 : tensor<128xf32> loc(#loc459)
    %587 = arith.select %445, %256, %cst_30 : tensor<128xi1>, tensor<128xf32> loc(#loc460)
    %588 = arith.addf %586, %587 : tensor<128xf32> loc(#loc461)
    %589 = arith.select %448, %259, %cst_30 : tensor<128xi1>, tensor<128xf32> loc(#loc462)
    %590 = arith.addf %588, %589 : tensor<128xf32> loc(#loc463)
    %591 = arith.select %451, %262, %cst_30 : tensor<128xi1>, tensor<128xf32> loc(#loc464)
    %592 = arith.addf %590, %591 : tensor<128xf32> loc(#loc465)
    %593 = arith.select %454, %265, %cst_30 : tensor<128xi1>, tensor<128xf32> loc(#loc466)
    %594 = arith.addf %592, %593 : tensor<128xf32> loc(#loc467)
    %595 = arith.select %457, %268, %cst_30 : tensor<128xi1>, tensor<128xf32> loc(#loc468)
    %596 = arith.addf %594, %595 : tensor<128xf32> loc(#loc469)
    %597 = arith.select %460, %271, %cst_30 : tensor<128xi1>, tensor<128xf32> loc(#loc470)
    %598 = arith.addf %596, %597 : tensor<128xf32> loc(#loc471)
    %599 = arith.select %463, %274, %cst_30 : tensor<128xi1>, tensor<128xf32> loc(#loc472)
    %600 = arith.addf %598, %599 : tensor<128xf32> loc(#loc473)
    %601 = arith.select %466, %277, %cst_30 : tensor<128xi1>, tensor<128xf32> loc(#loc474)
    %602 = arith.addf %600, %601 : tensor<128xf32> loc(#loc475)
    %603 = arith.select %469, %280, %cst_30 : tensor<128xi1>, tensor<128xf32> loc(#loc476)
    %604 = arith.addf %602, %603 : tensor<128xf32> loc(#loc477)
    %605 = arith.select %472, %283, %cst_30 : tensor<128xi1>, tensor<128xf32> loc(#loc478)
    %606 = arith.addf %604, %605 : tensor<128xf32> loc(#loc479)
    %607 = arith.select %475, %286, %cst_30 : tensor<128xi1>, tensor<128xf32> loc(#loc480)
    %608 = arith.addf %606, %607 : tensor<128xf32> loc(#loc481)
    %609 = arith.select %478, %289, %cst_30 : tensor<128xi1>, tensor<128xf32> loc(#loc482)
    %610 = arith.addf %608, %609 : tensor<128xf32> loc(#loc483)
    %611 = arith.select %481, %292, %cst_30 : tensor<128xi1>, tensor<128xf32> loc(#loc484)
    %612 = arith.addf %610, %611 : tensor<128xf32> loc(#loc485)
    %613 = arith.select %484, %295, %cst_30 : tensor<128xi1>, tensor<128xf32> loc(#loc486)
    %614 = arith.addf %612, %613 : tensor<128xf32> loc(#loc487)
    %615 = arith.select %392, %298, %cst_30 : tensor<128xi1>, tensor<128xf32> loc(#loc488)
    %616 = arith.addf %614, %615 : tensor<128xf32> loc(#loc489)
    %617 = arith.select %394, %301, %cst_30 : tensor<128xi1>, tensor<128xf32> loc(#loc490)
    %618 = arith.addf %616, %617 : tensor<128xf32> loc(#loc491)
    %619 = arith.select %397, %304, %cst_30 : tensor<128xi1>, tensor<128xf32> loc(#loc492)
    %620 = arith.addf %618, %619 : tensor<128xf32> loc(#loc493)
    %621 = arith.select %400, %307, %cst_30 : tensor<128xi1>, tensor<128xf32> loc(#loc494)
    %622 = arith.addf %620, %621 : tensor<128xf32> loc(#loc495)
    %623 = arith.select %403, %310, %cst_30 : tensor<128xi1>, tensor<128xf32> loc(#loc496)
    %624 = arith.addf %622, %623 : tensor<128xf32> loc(#loc497)
    %625 = arith.select %406, %313, %cst_30 : tensor<128xi1>, tensor<128xf32> loc(#loc498)
    %626 = arith.addf %624, %625 : tensor<128xf32> loc(#loc499)
    %627 = arith.select %409, %316, %cst_30 : tensor<128xi1>, tensor<128xf32> loc(#loc500)
    %628 = arith.addf %626, %627 : tensor<128xf32> loc(#loc501)
    %629 = arith.select %412, %319, %cst_30 : tensor<128xi1>, tensor<128xf32> loc(#loc502)
    %630 = arith.addf %628, %629 : tensor<128xf32> loc(#loc503)
    %631 = arith.select %415, %322, %cst_30 : tensor<128xi1>, tensor<128xf32> loc(#loc504)
    %632 = arith.addf %630, %631 : tensor<128xf32> loc(#loc505)
    %633 = arith.select %418, %325, %cst_30 : tensor<128xi1>, tensor<128xf32> loc(#loc506)
    %634 = arith.addf %632, %633 : tensor<128xf32> loc(#loc507)
    %635 = arith.select %421, %328, %cst_30 : tensor<128xi1>, tensor<128xf32> loc(#loc508)
    %636 = arith.addf %634, %635 : tensor<128xf32> loc(#loc509)
    %637 = arith.select %424, %331, %cst_30 : tensor<128xi1>, tensor<128xf32> loc(#loc510)
    %638 = arith.addf %636, %637 : tensor<128xf32> loc(#loc511)
    %639 = arith.select %427, %334, %cst_30 : tensor<128xi1>, tensor<128xf32> loc(#loc512)
    %640 = arith.addf %638, %639 : tensor<128xf32> loc(#loc513)
    %641 = arith.select %430, %337, %cst_30 : tensor<128xi1>, tensor<128xf32> loc(#loc514)
    %642 = arith.addf %640, %641 : tensor<128xf32> loc(#loc515)
    %643 = arith.select %433, %340, %cst_30 : tensor<128xi1>, tensor<128xf32> loc(#loc516)
    %644 = arith.addf %642, %643 : tensor<128xf32> loc(#loc517)
    %645 = arith.select %436, %343, %cst_30 : tensor<128xi1>, tensor<128xf32> loc(#loc518)
    %646 = arith.addf %644, %645 : tensor<128xf32> loc(#loc519)
    %647 = arith.select %439, %346, %cst_30 : tensor<128xi1>, tensor<128xf32> loc(#loc520)
    %648 = arith.addf %646, %647 : tensor<128xf32> loc(#loc521)
    %649 = arith.select %442, %349, %cst_30 : tensor<128xi1>, tensor<128xf32> loc(#loc522)
    %650 = arith.addf %648, %649 : tensor<128xf32> loc(#loc523)
    %651 = arith.select %445, %352, %cst_30 : tensor<128xi1>, tensor<128xf32> loc(#loc524)
    %652 = arith.addf %650, %651 : tensor<128xf32> loc(#loc525)
    %653 = arith.select %448, %355, %cst_30 : tensor<128xi1>, tensor<128xf32> loc(#loc526)
    %654 = arith.addf %652, %653 : tensor<128xf32> loc(#loc527)
    %655 = arith.select %451, %358, %cst_30 : tensor<128xi1>, tensor<128xf32> loc(#loc528)
    %656 = arith.addf %654, %655 : tensor<128xf32> loc(#loc529)
    %657 = arith.select %454, %361, %cst_30 : tensor<128xi1>, tensor<128xf32> loc(#loc530)
    %658 = arith.addf %656, %657 : tensor<128xf32> loc(#loc531)
    %659 = arith.select %457, %364, %cst_30 : tensor<128xi1>, tensor<128xf32> loc(#loc532)
    %660 = arith.addf %658, %659 : tensor<128xf32> loc(#loc533)
    %661 = arith.select %460, %367, %cst_30 : tensor<128xi1>, tensor<128xf32> loc(#loc534)
    %662 = arith.addf %660, %661 : tensor<128xf32> loc(#loc535)
    %663 = arith.select %463, %370, %cst_30 : tensor<128xi1>, tensor<128xf32> loc(#loc536)
    %664 = arith.addf %662, %663 : tensor<128xf32> loc(#loc537)
    %665 = arith.select %466, %373, %cst_30 : tensor<128xi1>, tensor<128xf32> loc(#loc538)
    %666 = arith.addf %664, %665 : tensor<128xf32> loc(#loc539)
    %667 = arith.select %469, %376, %cst_30 : tensor<128xi1>, tensor<128xf32> loc(#loc540)
    %668 = arith.addf %666, %667 : tensor<128xf32> loc(#loc541)
    %669 = arith.select %472, %379, %cst_30 : tensor<128xi1>, tensor<128xf32> loc(#loc542)
    %670 = arith.addf %668, %669 : tensor<128xf32> loc(#loc543)
    %671 = arith.select %475, %382, %cst_30 : tensor<128xi1>, tensor<128xf32> loc(#loc544)
    %672 = arith.addf %670, %671 : tensor<128xf32> loc(#loc545)
    %673 = arith.select %478, %385, %cst_30 : tensor<128xi1>, tensor<128xf32> loc(#loc546)
    %674 = arith.addf %672, %673 : tensor<128xf32> loc(#loc547)
    %675 = arith.select %481, %388, %cst_30 : tensor<128xi1>, tensor<128xf32> loc(#loc548)
    %676 = arith.addf %674, %675 : tensor<128xf32> loc(#loc549)
    %677 = arith.select %484, %391, %cst_30 : tensor<128xi1>, tensor<128xf32> loc(#loc550)
    %678 = arith.addf %676, %677 : tensor<128xf32> loc(#loc551)
    %679 = tt.splat %arg0 : !tt.ptr<f32> -> tensor<128x!tt.ptr<f32>> loc(#loc552)
    %680 = tt.addptr %679, %4 : tensor<128x!tt.ptr<f32>>, tensor<128xi32> loc(#loc552)
    tt.store %680, %678, %5 : tensor<128x!tt.ptr<f32>> loc(#loc553)
    tt.return loc(#loc554)
  } loc(#loc)
} loc(#loc)
#loc1 = loc(unknown)
#loc2 = loc("./.inductor_cache\\uh\\cuh57xppax3yjdlwyl6wr3mutjzqlek4h4u45au6lm7kbv4bxmxd.py":20:28)
#loc3 = loc("./.inductor_cache\\uh\\cuh57xppax3yjdlwyl6wr3mutjzqlek4h4u45au6lm7kbv4bxmxd.py":20:33)
#loc4 = loc("./.inductor_cache\\uh\\cuh57xppax3yjdlwyl6wr3mutjzqlek4h4u45au6lm7kbv4bxmxd.py":21:36)
#loc5 = loc("./.inductor_cache\\uh\\cuh57xppax3yjdlwyl6wr3mutjzqlek4h4u45au6lm7kbv4bxmxd.py":21:23)
#loc6 = loc("./.inductor_cache\\uh\\cuh57xppax3yjdlwyl6wr3mutjzqlek4h4u45au6lm7kbv4bxmxd.py":22:21)
#loc7 = loc("./.inductor_cache\\uh\\cuh57xppax3yjdlwyl6wr3mutjzqlek4h4u45au6lm7kbv4bxmxd.py":23:19)
#loc8 = loc("./.inductor_cache\\uh\\cuh57xppax3yjdlwyl6wr3mutjzqlek4h4u45au6lm7kbv4bxmxd.py":24:19)
#loc9 = loc("./.inductor_cache\\uh\\cuh57xppax3yjdlwyl6wr3mutjzqlek4h4u45au6lm7kbv4bxmxd.py":26:30)
#loc10 = loc("./.inductor_cache\\uh\\cuh57xppax3yjdlwyl6wr3mutjzqlek4h4u45au6lm7kbv4bxmxd.py":26:35)
#loc11 = loc("./.inductor_cache\\uh\\cuh57xppax3yjdlwyl6wr3mutjzqlek4h4u45au6lm7kbv4bxmxd.py":27:30)
#loc12 = loc("./.inductor_cache\\uh\\cuh57xppax3yjdlwyl6wr3mutjzqlek4h4u45au6lm7kbv4bxmxd.py":27:35)
#loc13 = loc("./.inductor_cache\\uh\\cuh57xppax3yjdlwyl6wr3mutjzqlek4h4u45au6lm7kbv4bxmxd.py":28:31)
#loc14 = loc("./.inductor_cache\\uh\\cuh57xppax3yjdlwyl6wr3mutjzqlek4h4u45au6lm7kbv4bxmxd.py":28:36)
#loc15 = loc("./.inductor_cache\\uh\\cuh57xppax3yjdlwyl6wr3mutjzqlek4h4u45au6lm7kbv4bxmxd.py":29:31)
#loc16 = loc("./.inductor_cache\\uh\\cuh57xppax3yjdlwyl6wr3mutjzqlek4h4u45au6lm7kbv4bxmxd.py":29:36)
#loc17 = loc("./.inductor_cache\\uh\\cuh57xppax3yjdlwyl6wr3mutjzqlek4h4u45au6lm7kbv4bxmxd.py":30:31)
#loc18 = loc("./.inductor_cache\\uh\\cuh57xppax3yjdlwyl6wr3mutjzqlek4h4u45au6lm7kbv4bxmxd.py":30:36)
#loc19 = loc("./.inductor_cache\\uh\\cuh57xppax3yjdlwyl6wr3mutjzqlek4h4u45au6lm7kbv4bxmxd.py":31:31)
#loc20 = loc("./.inductor_cache\\uh\\cuh57xppax3yjdlwyl6wr3mutjzqlek4h4u45au6lm7kbv4bxmxd.py":31:36)
#loc21 = loc("./.inductor_cache\\uh\\cuh57xppax3yjdlwyl6wr3mutjzqlek4h4u45au6lm7kbv4bxmxd.py":32:31)
#loc22 = loc("./.inductor_cache\\uh\\cuh57xppax3yjdlwyl6wr3mutjzqlek4h4u45au6lm7kbv4bxmxd.py":32:36)
#loc23 = loc("./.inductor_cache\\uh\\cuh57xppax3yjdlwyl6wr3mutjzqlek4h4u45au6lm7kbv4bxmxd.py":33:31)
#loc24 = loc("./.inductor_cache\\uh\\cuh57xppax3yjdlwyl6wr3mutjzqlek4h4u45au6lm7kbv4bxmxd.py":33:36)
#loc25 = loc("./.inductor_cache\\uh\\cuh57xppax3yjdlwyl6wr3mutjzqlek4h4u45au6lm7kbv4bxmxd.py":34:31)
#loc26 = loc("./.inductor_cache\\uh\\cuh57xppax3yjdlwyl6wr3mutjzqlek4h4u45au6lm7kbv4bxmxd.py":34:36)
#loc27 = loc("./.inductor_cache\\uh\\cuh57xppax3yjdlwyl6wr3mutjzqlek4h4u45au6lm7kbv4bxmxd.py":35:31)
#loc28 = loc("./.inductor_cache\\uh\\cuh57xppax3yjdlwyl6wr3mutjzqlek4h4u45au6lm7kbv4bxmxd.py":35:36)
#loc29 = loc("./.inductor_cache\\uh\\cuh57xppax3yjdlwyl6wr3mutjzqlek4h4u45au6lm7kbv4bxmxd.py":36:32)
#loc30 = loc("./.inductor_cache\\uh\\cuh57xppax3yjdlwyl6wr3mutjzqlek4h4u45au6lm7kbv4bxmxd.py":36:37)
#loc31 = loc("./.inductor_cache\\uh\\cuh57xppax3yjdlwyl6wr3mutjzqlek4h4u45au6lm7kbv4bxmxd.py":37:32)
#loc32 = loc("./.inductor_cache\\uh\\cuh57xppax3yjdlwyl6wr3mutjzqlek4h4u45au6lm7kbv4bxmxd.py":37:37)
#loc33 = loc("./.inductor_cache\\uh\\cuh57xppax3yjdlwyl6wr3mutjzqlek4h4u45au6lm7kbv4bxmxd.py":38:32)
#loc34 = loc("./.inductor_cache\\uh\\cuh57xppax3yjdlwyl6wr3mutjzqlek4h4u45au6lm7kbv4bxmxd.py":38:37)
#loc35 = loc("./.inductor_cache\\uh\\cuh57xppax3yjdlwyl6wr3mutjzqlek4h4u45au6lm7kbv4bxmxd.py":39:32)
#loc36 = loc("./.inductor_cache\\uh\\cuh57xppax3yjdlwyl6wr3mutjzqlek4h4u45au6lm7kbv4bxmxd.py":39:37)
#loc37 = loc("./.inductor_cache\\uh\\cuh57xppax3yjdlwyl6wr3mutjzqlek4h4u45au6lm7kbv4bxmxd.py":40:32)
#loc38 = loc("./.inductor_cache\\uh\\cuh57xppax3yjdlwyl6wr3mutjzqlek4h4u45au6lm7kbv4bxmxd.py":40:37)
#loc39 = loc("./.inductor_cache\\uh\\cuh57xppax3yjdlwyl6wr3mutjzqlek4h4u45au6lm7kbv4bxmxd.py":41:32)
#loc40 = loc("./.inductor_cache\\uh\\cuh57xppax3yjdlwyl6wr3mutjzqlek4h4u45au6lm7kbv4bxmxd.py":41:37)
#loc41 = loc("./.inductor_cache\\uh\\cuh57xppax3yjdlwyl6wr3mutjzqlek4h4u45au6lm7kbv4bxmxd.py":42:32)
#loc42 = loc("./.inductor_cache\\uh\\cuh57xppax3yjdlwyl6wr3mutjzqlek4h4u45au6lm7kbv4bxmxd.py":42:37)
#loc43 = loc("./.inductor_cache\\uh\\cuh57xppax3yjdlwyl6wr3mutjzqlek4h4u45au6lm7kbv4bxmxd.py":43:32)
#loc44 = loc("./.inductor_cache\\uh\\cuh57xppax3yjdlwyl6wr3mutjzqlek4h4u45au6lm7kbv4bxmxd.py":43:37)
#loc45 = loc("./.inductor_cache\\uh\\cuh57xppax3yjdlwyl6wr3mutjzqlek4h4u45au6lm7kbv4bxmxd.py":44:32)
#loc46 = loc("./.inductor_cache\\uh\\cuh57xppax3yjdlwyl6wr3mutjzqlek4h4u45au6lm7kbv4bxmxd.py":44:37)
#loc47 = loc("./.inductor_cache\\uh\\cuh57xppax3yjdlwyl6wr3mutjzqlek4h4u45au6lm7kbv4bxmxd.py":45:32)
#loc48 = loc("./.inductor_cache\\uh\\cuh57xppax3yjdlwyl6wr3mutjzqlek4h4u45au6lm7kbv4bxmxd.py":45:37)
#loc49 = loc("./.inductor_cache\\uh\\cuh57xppax3yjdlwyl6wr3mutjzqlek4h4u45au6lm7kbv4bxmxd.py":46:33)
#loc50 = loc("./.inductor_cache\\uh\\cuh57xppax3yjdlwyl6wr3mutjzqlek4h4u45au6lm7kbv4bxmxd.py":46:38)
#loc51 = loc("./.inductor_cache\\uh\\cuh57xppax3yjdlwyl6wr3mutjzqlek4h4u45au6lm7kbv4bxmxd.py":47:33)
#loc52 = loc("./.inductor_cache\\uh\\cuh57xppax3yjdlwyl6wr3mutjzqlek4h4u45au6lm7kbv4bxmxd.py":47:38)
#loc53 = loc("./.inductor_cache\\uh\\cuh57xppax3yjdlwyl6wr3mutjzqlek4h4u45au6lm7kbv4bxmxd.py":48:33)
#loc54 = loc("./.inductor_cache\\uh\\cuh57xppax3yjdlwyl6wr3mutjzqlek4h4u45au6lm7kbv4bxmxd.py":48:38)
#loc55 = loc("./.inductor_cache\\uh\\cuh57xppax3yjdlwyl6wr3mutjzqlek4h4u45au6lm7kbv4bxmxd.py":49:33)
#loc56 = loc("./.inductor_cache\\uh\\cuh57xppax3yjdlwyl6wr3mutjzqlek4h4u45au6lm7kbv4bxmxd.py":49:38)
#loc57 = loc("./.inductor_cache\\uh\\cuh57xppax3yjdlwyl6wr3mutjzqlek4h4u45au6lm7kbv4bxmxd.py":50:33)
#loc58 = loc("./.inductor_cache\\uh\\cuh57xppax3yjdlwyl6wr3mutjzqlek4h4u45au6lm7kbv4bxmxd.py":50:38)
#loc59 = loc("./.inductor_cache\\uh\\cuh57xppax3yjdlwyl6wr3mutjzqlek4h4u45au6lm7kbv4bxmxd.py":51:33)
#loc60 = loc("./.inductor_cache\\uh\\cuh57xppax3yjdlwyl6wr3mutjzqlek4h4u45au6lm7kbv4bxmxd.py":51:38)
#loc61 = loc("./.inductor_cache\\uh\\cuh57xppax3yjdlwyl6wr3mutjzqlek4h4u45au6lm7kbv4bxmxd.py":52:33)
#loc62 = loc("./.inductor_cache\\uh\\cuh57xppax3yjdlwyl6wr3mutjzqlek4h4u45au6lm7kbv4bxmxd.py":52:38)
#loc63 = loc("./.inductor_cache\\uh\\cuh57xppax3yjdlwyl6wr3mutjzqlek4h4u45au6lm7kbv4bxmxd.py":53:33)
#loc64 = loc("./.inductor_cache\\uh\\cuh57xppax3yjdlwyl6wr3mutjzqlek4h4u45au6lm7kbv4bxmxd.py":53:38)
#loc65 = loc("./.inductor_cache\\uh\\cuh57xppax3yjdlwyl6wr3mutjzqlek4h4u45au6lm7kbv4bxmxd.py":54:33)
#loc66 = loc("./.inductor_cache\\uh\\cuh57xppax3yjdlwyl6wr3mutjzqlek4h4u45au6lm7kbv4bxmxd.py":54:38)
#loc67 = loc("./.inductor_cache\\uh\\cuh57xppax3yjdlwyl6wr3mutjzqlek4h4u45au6lm7kbv4bxmxd.py":55:33)
#loc68 = loc("./.inductor_cache\\uh\\cuh57xppax3yjdlwyl6wr3mutjzqlek4h4u45au6lm7kbv4bxmxd.py":55:38)
#loc69 = loc("./.inductor_cache\\uh\\cuh57xppax3yjdlwyl6wr3mutjzqlek4h4u45au6lm7kbv4bxmxd.py":56:33)
#loc70 = loc("./.inductor_cache\\uh\\cuh57xppax3yjdlwyl6wr3mutjzqlek4h4u45au6lm7kbv4bxmxd.py":56:38)
#loc71 = loc("./.inductor_cache\\uh\\cuh57xppax3yjdlwyl6wr3mutjzqlek4h4u45au6lm7kbv4bxmxd.py":57:33)
#loc72 = loc("./.inductor_cache\\uh\\cuh57xppax3yjdlwyl6wr3mutjzqlek4h4u45au6lm7kbv4bxmxd.py":57:38)
#loc73 = loc("./.inductor_cache\\uh\\cuh57xppax3yjdlwyl6wr3mutjzqlek4h4u45au6lm7kbv4bxmxd.py":58:33)
#loc74 = loc("./.inductor_cache\\uh\\cuh57xppax3yjdlwyl6wr3mutjzqlek4h4u45au6lm7kbv4bxmxd.py":58:38)
#loc75 = loc("./.inductor_cache\\uh\\cuh57xppax3yjdlwyl6wr3mutjzqlek4h4u45au6lm7kbv4bxmxd.py":59:33)
#loc76 = loc("./.inductor_cache\\uh\\cuh57xppax3yjdlwyl6wr3mutjzqlek4h4u45au6lm7kbv4bxmxd.py":59:38)
#loc77 = loc("./.inductor_cache\\uh\\cuh57xppax3yjdlwyl6wr3mutjzqlek4h4u45au6lm7kbv4bxmxd.py":60:33)
#loc78 = loc("./.inductor_cache\\uh\\cuh57xppax3yjdlwyl6wr3mutjzqlek4h4u45au6lm7kbv4bxmxd.py":60:38)
#loc79 = loc("./.inductor_cache\\uh\\cuh57xppax3yjdlwyl6wr3mutjzqlek4h4u45au6lm7kbv4bxmxd.py":61:33)
#loc80 = loc("./.inductor_cache\\uh\\cuh57xppax3yjdlwyl6wr3mutjzqlek4h4u45au6lm7kbv4bxmxd.py":61:38)
#loc81 = loc("./.inductor_cache\\uh\\cuh57xppax3yjdlwyl6wr3mutjzqlek4h4u45au6lm7kbv4bxmxd.py":62:33)
#loc82 = loc("./.inductor_cache\\uh\\cuh57xppax3yjdlwyl6wr3mutjzqlek4h4u45au6lm7kbv4bxmxd.py":62:38)
#loc83 = loc("./.inductor_cache\\uh\\cuh57xppax3yjdlwyl6wr3mutjzqlek4h4u45au6lm7kbv4bxmxd.py":63:33)
#loc84 = loc("./.inductor_cache\\uh\\cuh57xppax3yjdlwyl6wr3mutjzqlek4h4u45au6lm7kbv4bxmxd.py":63:38)
#loc85 = loc("./.inductor_cache\\uh\\cuh57xppax3yjdlwyl6wr3mutjzqlek4h4u45au6lm7kbv4bxmxd.py":64:33)
#loc86 = loc("./.inductor_cache\\uh\\cuh57xppax3yjdlwyl6wr3mutjzqlek4h4u45au6lm7kbv4bxmxd.py":64:38)
#loc87 = loc("./.inductor_cache\\uh\\cuh57xppax3yjdlwyl6wr3mutjzqlek4h4u45au6lm7kbv4bxmxd.py":65:33)
#loc88 = loc("./.inductor_cache\\uh\\cuh57xppax3yjdlwyl6wr3mutjzqlek4h4u45au6lm7kbv4bxmxd.py":65:38)
#loc89 = loc("./.inductor_cache\\uh\\cuh57xppax3yjdlwyl6wr3mutjzqlek4h4u45au6lm7kbv4bxmxd.py":66:33)
#loc90 = loc("./.inductor_cache\\uh\\cuh57xppax3yjdlwyl6wr3mutjzqlek4h4u45au6lm7kbv4bxmxd.py":66:38)
#loc91 = loc("./.inductor_cache\\uh\\cuh57xppax3yjdlwyl6wr3mutjzqlek4h4u45au6lm7kbv4bxmxd.py":67:33)
#loc92 = loc("./.inductor_cache\\uh\\cuh57xppax3yjdlwyl6wr3mutjzqlek4h4u45au6lm7kbv4bxmxd.py":67:38)
#loc93 = loc("./.inductor_cache\\uh\\cuh57xppax3yjdlwyl6wr3mutjzqlek4h4u45au6lm7kbv4bxmxd.py":68:33)
#loc94 = loc("./.inductor_cache\\uh\\cuh57xppax3yjdlwyl6wr3mutjzqlek4h4u45au6lm7kbv4bxmxd.py":68:38)
#loc95 = loc("./.inductor_cache\\uh\\cuh57xppax3yjdlwyl6wr3mutjzqlek4h4u45au6lm7kbv4bxmxd.py":69:33)
#loc96 = loc("./.inductor_cache\\uh\\cuh57xppax3yjdlwyl6wr3mutjzqlek4h4u45au6lm7kbv4bxmxd.py":69:38)
#loc97 = loc("./.inductor_cache\\uh\\cuh57xppax3yjdlwyl6wr3mutjzqlek4h4u45au6lm7kbv4bxmxd.py":70:33)
#loc98 = loc("./.inductor_cache\\uh\\cuh57xppax3yjdlwyl6wr3mutjzqlek4h4u45au6lm7kbv4bxmxd.py":70:38)
#loc99 = loc("./.inductor_cache\\uh\\cuh57xppax3yjdlwyl6wr3mutjzqlek4h4u45au6lm7kbv4bxmxd.py":71:33)
#loc100 = loc("./.inductor_cache\\uh\\cuh57xppax3yjdlwyl6wr3mutjzqlek4h4u45au6lm7kbv4bxmxd.py":71:38)
#loc101 = loc("./.inductor_cache\\uh\\cuh57xppax3yjdlwyl6wr3mutjzqlek4h4u45au6lm7kbv4bxmxd.py":72:33)
#loc102 = loc("./.inductor_cache\\uh\\cuh57xppax3yjdlwyl6wr3mutjzqlek4h4u45au6lm7kbv4bxmxd.py":72:38)
#loc103 = loc("./.inductor_cache\\uh\\cuh57xppax3yjdlwyl6wr3mutjzqlek4h4u45au6lm7kbv4bxmxd.py":73:33)
#loc104 = loc("./.inductor_cache\\uh\\cuh57xppax3yjdlwyl6wr3mutjzqlek4h4u45au6lm7kbv4bxmxd.py":73:38)
#loc105 = loc("./.inductor_cache\\uh\\cuh57xppax3yjdlwyl6wr3mutjzqlek4h4u45au6lm7kbv4bxmxd.py":74:33)
#loc106 = loc("./.inductor_cache\\uh\\cuh57xppax3yjdlwyl6wr3mutjzqlek4h4u45au6lm7kbv4bxmxd.py":74:38)
#loc107 = loc("./.inductor_cache\\uh\\cuh57xppax3yjdlwyl6wr3mutjzqlek4h4u45au6lm7kbv4bxmxd.py":75:33)
#loc108 = loc("./.inductor_cache\\uh\\cuh57xppax3yjdlwyl6wr3mutjzqlek4h4u45au6lm7kbv4bxmxd.py":75:38)
#loc109 = loc("./.inductor_cache\\uh\\cuh57xppax3yjdlwyl6wr3mutjzqlek4h4u45au6lm7kbv4bxmxd.py":76:33)
#loc110 = loc("./.inductor_cache\\uh\\cuh57xppax3yjdlwyl6wr3mutjzqlek4h4u45au6lm7kbv4bxmxd.py":76:38)
#loc111 = loc("./.inductor_cache\\uh\\cuh57xppax3yjdlwyl6wr3mutjzqlek4h4u45au6lm7kbv4bxmxd.py":77:33)
#loc112 = loc("./.inductor_cache\\uh\\cuh57xppax3yjdlwyl6wr3mutjzqlek4h4u45au6lm7kbv4bxmxd.py":77:38)
#loc113 = loc("./.inductor_cache\\uh\\cuh57xppax3yjdlwyl6wr3mutjzqlek4h4u45au6lm7kbv4bxmxd.py":78:33)
#loc114 = loc("./.inductor_cache\\uh\\cuh57xppax3yjdlwyl6wr3mutjzqlek4h4u45au6lm7kbv4bxmxd.py":78:38)
#loc115 = loc("./.inductor_cache\\uh\\cuh57xppax3yjdlwyl6wr3mutjzqlek4h4u45au6lm7kbv4bxmxd.py":79:33)
#loc116 = loc("./.inductor_cache\\uh\\cuh57xppax3yjdlwyl6wr3mutjzqlek4h4u45au6lm7kbv4bxmxd.py":79:38)
#loc117 = loc("./.inductor_cache\\uh\\cuh57xppax3yjdlwyl6wr3mutjzqlek4h4u45au6lm7kbv4bxmxd.py":80:33)
#loc118 = loc("./.inductor_cache\\uh\\cuh57xppax3yjdlwyl6wr3mutjzqlek4h4u45au6lm7kbv4bxmxd.py":80:38)
#loc119 = loc("./.inductor_cache\\uh\\cuh57xppax3yjdlwyl6wr3mutjzqlek4h4u45au6lm7kbv4bxmxd.py":81:33)
#loc120 = loc("./.inductor_cache\\uh\\cuh57xppax3yjdlwyl6wr3mutjzqlek4h4u45au6lm7kbv4bxmxd.py":81:38)
#loc121 = loc("./.inductor_cache\\uh\\cuh57xppax3yjdlwyl6wr3mutjzqlek4h4u45au6lm7kbv4bxmxd.py":82:33)
#loc122 = loc("./.inductor_cache\\uh\\cuh57xppax3yjdlwyl6wr3mutjzqlek4h4u45au6lm7kbv4bxmxd.py":82:38)
#loc123 = loc("./.inductor_cache\\uh\\cuh57xppax3yjdlwyl6wr3mutjzqlek4h4u45au6lm7kbv4bxmxd.py":83:33)
#loc124 = loc("./.inductor_cache\\uh\\cuh57xppax3yjdlwyl6wr3mutjzqlek4h4u45au6lm7kbv4bxmxd.py":83:38)
#loc125 = loc("./.inductor_cache\\uh\\cuh57xppax3yjdlwyl6wr3mutjzqlek4h4u45au6lm7kbv4bxmxd.py":84:33)
#loc126 = loc("./.inductor_cache\\uh\\cuh57xppax3yjdlwyl6wr3mutjzqlek4h4u45au6lm7kbv4bxmxd.py":84:38)
#loc127 = loc("./.inductor_cache\\uh\\cuh57xppax3yjdlwyl6wr3mutjzqlek4h4u45au6lm7kbv4bxmxd.py":85:33)
#loc128 = loc("./.inductor_cache\\uh\\cuh57xppax3yjdlwyl6wr3mutjzqlek4h4u45au6lm7kbv4bxmxd.py":85:38)
#loc129 = loc("./.inductor_cache\\uh\\cuh57xppax3yjdlwyl6wr3mutjzqlek4h4u45au6lm7kbv4bxmxd.py":86:33)
#loc130 = loc("./.inductor_cache\\uh\\cuh57xppax3yjdlwyl6wr3mutjzqlek4h4u45au6lm7kbv4bxmxd.py":86:38)
#loc131 = loc("./.inductor_cache\\uh\\cuh57xppax3yjdlwyl6wr3mutjzqlek4h4u45au6lm7kbv4bxmxd.py":87:33)
#loc132 = loc("./.inductor_cache\\uh\\cuh57xppax3yjdlwyl6wr3mutjzqlek4h4u45au6lm7kbv4bxmxd.py":87:38)
#loc133 = loc("./.inductor_cache\\uh\\cuh57xppax3yjdlwyl6wr3mutjzqlek4h4u45au6lm7kbv4bxmxd.py":88:33)
#loc134 = loc("./.inductor_cache\\uh\\cuh57xppax3yjdlwyl6wr3mutjzqlek4h4u45au6lm7kbv4bxmxd.py":88:38)
#loc135 = loc("./.inductor_cache\\uh\\cuh57xppax3yjdlwyl6wr3mutjzqlek4h4u45au6lm7kbv4bxmxd.py":89:33)
#loc136 = loc("./.inductor_cache\\uh\\cuh57xppax3yjdlwyl6wr3mutjzqlek4h4u45au6lm7kbv4bxmxd.py":89:38)
#loc137 = loc("./.inductor_cache\\uh\\cuh57xppax3yjdlwyl6wr3mutjzqlek4h4u45au6lm7kbv4bxmxd.py":90:33)
#loc138 = loc("./.inductor_cache\\uh\\cuh57xppax3yjdlwyl6wr3mutjzqlek4h4u45au6lm7kbv4bxmxd.py":90:38)
#loc139 = loc("./.inductor_cache\\uh\\cuh57xppax3yjdlwyl6wr3mutjzqlek4h4u45au6lm7kbv4bxmxd.py":91:33)
#loc140 = loc("./.inductor_cache\\uh\\cuh57xppax3yjdlwyl6wr3mutjzqlek4h4u45au6lm7kbv4bxmxd.py":91:38)
#loc141 = loc("./.inductor_cache\\uh\\cuh57xppax3yjdlwyl6wr3mutjzqlek4h4u45au6lm7kbv4bxmxd.py":92:33)
#loc142 = loc("./.inductor_cache\\uh\\cuh57xppax3yjdlwyl6wr3mutjzqlek4h4u45au6lm7kbv4bxmxd.py":92:38)
#loc143 = loc("./.inductor_cache\\uh\\cuh57xppax3yjdlwyl6wr3mutjzqlek4h4u45au6lm7kbv4bxmxd.py":93:33)
#loc144 = loc("./.inductor_cache\\uh\\cuh57xppax3yjdlwyl6wr3mutjzqlek4h4u45au6lm7kbv4bxmxd.py":93:38)
#loc145 = loc("./.inductor_cache\\uh\\cuh57xppax3yjdlwyl6wr3mutjzqlek4h4u45au6lm7kbv4bxmxd.py":94:33)
#loc146 = loc("./.inductor_cache\\uh\\cuh57xppax3yjdlwyl6wr3mutjzqlek4h4u45au6lm7kbv4bxmxd.py":94:38)
#loc147 = loc("./.inductor_cache\\uh\\cuh57xppax3yjdlwyl6wr3mutjzqlek4h4u45au6lm7kbv4bxmxd.py":95:33)
#loc148 = loc("./.inductor_cache\\uh\\cuh57xppax3yjdlwyl6wr3mutjzqlek4h4u45au6lm7kbv4bxmxd.py":95:38)
#loc149 = loc("./.inductor_cache\\uh\\cuh57xppax3yjdlwyl6wr3mutjzqlek4h4u45au6lm7kbv4bxmxd.py":96:33)
#loc150 = loc("./.inductor_cache\\uh\\cuh57xppax3yjdlwyl6wr3mutjzqlek4h4u45au6lm7kbv4bxmxd.py":96:38)
#loc151 = loc("./.inductor_cache\\uh\\cuh57xppax3yjdlwyl6wr3mutjzqlek4h4u45au6lm7kbv4bxmxd.py":97:33)
#loc152 = loc("./.inductor_cache\\uh\\cuh57xppax3yjdlwyl6wr3mutjzqlek4h4u45au6lm7kbv4bxmxd.py":97:38)
#loc153 = loc("./.inductor_cache\\uh\\cuh57xppax3yjdlwyl6wr3mutjzqlek4h4u45au6lm7kbv4bxmxd.py":98:33)
#loc154 = loc("./.inductor_cache\\uh\\cuh57xppax3yjdlwyl6wr3mutjzqlek4h4u45au6lm7kbv4bxmxd.py":98:38)
#loc155 = loc("./.inductor_cache\\uh\\cuh57xppax3yjdlwyl6wr3mutjzqlek4h4u45au6lm7kbv4bxmxd.py":99:33)
#loc156 = loc("./.inductor_cache\\uh\\cuh57xppax3yjdlwyl6wr3mutjzqlek4h4u45au6lm7kbv4bxmxd.py":99:38)
#loc157 = loc("./.inductor_cache\\uh\\cuh57xppax3yjdlwyl6wr3mutjzqlek4h4u45au6lm7kbv4bxmxd.py":100:33)
#loc158 = loc("./.inductor_cache\\uh\\cuh57xppax3yjdlwyl6wr3mutjzqlek4h4u45au6lm7kbv4bxmxd.py":100:38)
#loc159 = loc("./.inductor_cache\\uh\\cuh57xppax3yjdlwyl6wr3mutjzqlek4h4u45au6lm7kbv4bxmxd.py":101:33)
#loc160 = loc("./.inductor_cache\\uh\\cuh57xppax3yjdlwyl6wr3mutjzqlek4h4u45au6lm7kbv4bxmxd.py":101:38)
#loc161 = loc("./.inductor_cache\\uh\\cuh57xppax3yjdlwyl6wr3mutjzqlek4h4u45au6lm7kbv4bxmxd.py":102:33)
#loc162 = loc("./.inductor_cache\\uh\\cuh57xppax3yjdlwyl6wr3mutjzqlek4h4u45au6lm7kbv4bxmxd.py":102:38)
#loc163 = loc("./.inductor_cache\\uh\\cuh57xppax3yjdlwyl6wr3mutjzqlek4h4u45au6lm7kbv4bxmxd.py":103:33)
#loc164 = loc("./.inductor_cache\\uh\\cuh57xppax3yjdlwyl6wr3mutjzqlek4h4u45au6lm7kbv4bxmxd.py":103:38)
#loc165 = loc("./.inductor_cache\\uh\\cuh57xppax3yjdlwyl6wr3mutjzqlek4h4u45au6lm7kbv4bxmxd.py":104:33)
#loc166 = loc("./.inductor_cache\\uh\\cuh57xppax3yjdlwyl6wr3mutjzqlek4h4u45au6lm7kbv4bxmxd.py":104:38)
#loc167 = loc("./.inductor_cache\\uh\\cuh57xppax3yjdlwyl6wr3mutjzqlek4h4u45au6lm7kbv4bxmxd.py":105:33)
#loc168 = loc("./.inductor_cache\\uh\\cuh57xppax3yjdlwyl6wr3mutjzqlek4h4u45au6lm7kbv4bxmxd.py":105:38)
#loc169 = loc("./.inductor_cache\\uh\\cuh57xppax3yjdlwyl6wr3mutjzqlek4h4u45au6lm7kbv4bxmxd.py":106:33)
#loc170 = loc("./.inductor_cache\\uh\\cuh57xppax3yjdlwyl6wr3mutjzqlek4h4u45au6lm7kbv4bxmxd.py":106:38)
#loc171 = loc("./.inductor_cache\\uh\\cuh57xppax3yjdlwyl6wr3mutjzqlek4h4u45au6lm7kbv4bxmxd.py":107:33)
#loc172 = loc("./.inductor_cache\\uh\\cuh57xppax3yjdlwyl6wr3mutjzqlek4h4u45au6lm7kbv4bxmxd.py":107:38)
#loc173 = loc("./.inductor_cache\\uh\\cuh57xppax3yjdlwyl6wr3mutjzqlek4h4u45au6lm7kbv4bxmxd.py":108:33)
#loc174 = loc("./.inductor_cache\\uh\\cuh57xppax3yjdlwyl6wr3mutjzqlek4h4u45au6lm7kbv4bxmxd.py":108:38)
#loc175 = loc("./.inductor_cache\\uh\\cuh57xppax3yjdlwyl6wr3mutjzqlek4h4u45au6lm7kbv4bxmxd.py":109:33)
#loc176 = loc("./.inductor_cache\\uh\\cuh57xppax3yjdlwyl6wr3mutjzqlek4h4u45au6lm7kbv4bxmxd.py":109:38)
#loc177 = loc("./.inductor_cache\\uh\\cuh57xppax3yjdlwyl6wr3mutjzqlek4h4u45au6lm7kbv4bxmxd.py":110:33)
#loc178 = loc("./.inductor_cache\\uh\\cuh57xppax3yjdlwyl6wr3mutjzqlek4h4u45au6lm7kbv4bxmxd.py":110:38)
#loc179 = loc("./.inductor_cache\\uh\\cuh57xppax3yjdlwyl6wr3mutjzqlek4h4u45au6lm7kbv4bxmxd.py":111:33)
#loc180 = loc("./.inductor_cache\\uh\\cuh57xppax3yjdlwyl6wr3mutjzqlek4h4u45au6lm7kbv4bxmxd.py":111:38)
#loc181 = loc("./.inductor_cache\\uh\\cuh57xppax3yjdlwyl6wr3mutjzqlek4h4u45au6lm7kbv4bxmxd.py":112:33)
#loc182 = loc("./.inductor_cache\\uh\\cuh57xppax3yjdlwyl6wr3mutjzqlek4h4u45au6lm7kbv4bxmxd.py":112:38)
#loc183 = loc("./.inductor_cache\\uh\\cuh57xppax3yjdlwyl6wr3mutjzqlek4h4u45au6lm7kbv4bxmxd.py":113:33)
#loc184 = loc("./.inductor_cache\\uh\\cuh57xppax3yjdlwyl6wr3mutjzqlek4h4u45au6lm7kbv4bxmxd.py":113:38)
#loc185 = loc("./.inductor_cache\\uh\\cuh57xppax3yjdlwyl6wr3mutjzqlek4h4u45au6lm7kbv4bxmxd.py":114:33)
#loc186 = loc("./.inductor_cache\\uh\\cuh57xppax3yjdlwyl6wr3mutjzqlek4h4u45au6lm7kbv4bxmxd.py":114:38)
#loc187 = loc("./.inductor_cache\\uh\\cuh57xppax3yjdlwyl6wr3mutjzqlek4h4u45au6lm7kbv4bxmxd.py":115:33)
#loc188 = loc("./.inductor_cache\\uh\\cuh57xppax3yjdlwyl6wr3mutjzqlek4h4u45au6lm7kbv4bxmxd.py":115:38)
#loc189 = loc("./.inductor_cache\\uh\\cuh57xppax3yjdlwyl6wr3mutjzqlek4h4u45au6lm7kbv4bxmxd.py":116:33)
#loc190 = loc("./.inductor_cache\\uh\\cuh57xppax3yjdlwyl6wr3mutjzqlek4h4u45au6lm7kbv4bxmxd.py":116:38)
#loc191 = loc("./.inductor_cache\\uh\\cuh57xppax3yjdlwyl6wr3mutjzqlek4h4u45au6lm7kbv4bxmxd.py":117:33)
#loc192 = loc("./.inductor_cache\\uh\\cuh57xppax3yjdlwyl6wr3mutjzqlek4h4u45au6lm7kbv4bxmxd.py":117:38)
#loc193 = loc("./.inductor_cache\\uh\\cuh57xppax3yjdlwyl6wr3mutjzqlek4h4u45au6lm7kbv4bxmxd.py":118:33)
#loc194 = loc("./.inductor_cache\\uh\\cuh57xppax3yjdlwyl6wr3mutjzqlek4h4u45au6lm7kbv4bxmxd.py":118:38)
#loc195 = loc("./.inductor_cache\\uh\\cuh57xppax3yjdlwyl6wr3mutjzqlek4h4u45au6lm7kbv4bxmxd.py":119:33)
#loc196 = loc("./.inductor_cache\\uh\\cuh57xppax3yjdlwyl6wr3mutjzqlek4h4u45au6lm7kbv4bxmxd.py":119:38)
#loc197 = loc("./.inductor_cache\\uh\\cuh57xppax3yjdlwyl6wr3mutjzqlek4h4u45au6lm7kbv4bxmxd.py":120:33)
#loc198 = loc("./.inductor_cache\\uh\\cuh57xppax3yjdlwyl6wr3mutjzqlek4h4u45au6lm7kbv4bxmxd.py":120:38)
#loc199 = loc("./.inductor_cache\\uh\\cuh57xppax3yjdlwyl6wr3mutjzqlek4h4u45au6lm7kbv4bxmxd.py":121:33)
#loc200 = loc("./.inductor_cache\\uh\\cuh57xppax3yjdlwyl6wr3mutjzqlek4h4u45au6lm7kbv4bxmxd.py":121:38)
#loc201 = loc("./.inductor_cache\\uh\\cuh57xppax3yjdlwyl6wr3mutjzqlek4h4u45au6lm7kbv4bxmxd.py":122:33)
#loc202 = loc("./.inductor_cache\\uh\\cuh57xppax3yjdlwyl6wr3mutjzqlek4h4u45au6lm7kbv4bxmxd.py":122:38)
#loc203 = loc("./.inductor_cache\\uh\\cuh57xppax3yjdlwyl6wr3mutjzqlek4h4u45au6lm7kbv4bxmxd.py":123:33)
#loc204 = loc("./.inductor_cache\\uh\\cuh57xppax3yjdlwyl6wr3mutjzqlek4h4u45au6lm7kbv4bxmxd.py":123:38)
#loc205 = loc("./.inductor_cache\\uh\\cuh57xppax3yjdlwyl6wr3mutjzqlek4h4u45au6lm7kbv4bxmxd.py":124:33)
#loc206 = loc("./.inductor_cache\\uh\\cuh57xppax3yjdlwyl6wr3mutjzqlek4h4u45au6lm7kbv4bxmxd.py":124:38)
#loc207 = loc("./.inductor_cache\\uh\\cuh57xppax3yjdlwyl6wr3mutjzqlek4h4u45au6lm7kbv4bxmxd.py":125:33)
#loc208 = loc("./.inductor_cache\\uh\\cuh57xppax3yjdlwyl6wr3mutjzqlek4h4u45au6lm7kbv4bxmxd.py":125:38)
#loc209 = loc("./.inductor_cache\\uh\\cuh57xppax3yjdlwyl6wr3mutjzqlek4h4u45au6lm7kbv4bxmxd.py":126:34)
#loc210 = loc("./.inductor_cache\\uh\\cuh57xppax3yjdlwyl6wr3mutjzqlek4h4u45au6lm7kbv4bxmxd.py":126:39)
#loc211 = loc("./.inductor_cache\\uh\\cuh57xppax3yjdlwyl6wr3mutjzqlek4h4u45au6lm7kbv4bxmxd.py":127:34)
#loc212 = loc("./.inductor_cache\\uh\\cuh57xppax3yjdlwyl6wr3mutjzqlek4h4u45au6lm7kbv4bxmxd.py":127:39)
#loc213 = loc("./.inductor_cache\\uh\\cuh57xppax3yjdlwyl6wr3mutjzqlek4h4u45au6lm7kbv4bxmxd.py":128:34)
#loc214 = loc("./.inductor_cache\\uh\\cuh57xppax3yjdlwyl6wr3mutjzqlek4h4u45au6lm7kbv4bxmxd.py":128:39)
#loc215 = loc("./.inductor_cache\\uh\\cuh57xppax3yjdlwyl6wr3mutjzqlek4h4u45au6lm7kbv4bxmxd.py":129:34)
#loc216 = loc("./.inductor_cache\\uh\\cuh57xppax3yjdlwyl6wr3mutjzqlek4h4u45au6lm7kbv4bxmxd.py":129:39)
#loc217 = loc("./.inductor_cache\\uh\\cuh57xppax3yjdlwyl6wr3mutjzqlek4h4u45au6lm7kbv4bxmxd.py":130:34)
#loc218 = loc("./.inductor_cache\\uh\\cuh57xppax3yjdlwyl6wr3mutjzqlek4h4u45au6lm7kbv4bxmxd.py":130:39)
#loc219 = loc("./.inductor_cache\\uh\\cuh57xppax3yjdlwyl6wr3mutjzqlek4h4u45au6lm7kbv4bxmxd.py":131:34)
#loc220 = loc("./.inductor_cache\\uh\\cuh57xppax3yjdlwyl6wr3mutjzqlek4h4u45au6lm7kbv4bxmxd.py":131:39)
#loc221 = loc("./.inductor_cache\\uh\\cuh57xppax3yjdlwyl6wr3mutjzqlek4h4u45au6lm7kbv4bxmxd.py":132:34)
#loc222 = loc("./.inductor_cache\\uh\\cuh57xppax3yjdlwyl6wr3mutjzqlek4h4u45au6lm7kbv4bxmxd.py":132:39)
#loc223 = loc("./.inductor_cache\\uh\\cuh57xppax3yjdlwyl6wr3mutjzqlek4h4u45au6lm7kbv4bxmxd.py":133:34)
#loc224 = loc("./.inductor_cache\\uh\\cuh57xppax3yjdlwyl6wr3mutjzqlek4h4u45au6lm7kbv4bxmxd.py":133:39)
#loc225 = loc("./.inductor_cache\\uh\\cuh57xppax3yjdlwyl6wr3mutjzqlek4h4u45au6lm7kbv4bxmxd.py":134:34)
#loc226 = loc("./.inductor_cache\\uh\\cuh57xppax3yjdlwyl6wr3mutjzqlek4h4u45au6lm7kbv4bxmxd.py":134:39)
#loc227 = loc("./.inductor_cache\\uh\\cuh57xppax3yjdlwyl6wr3mutjzqlek4h4u45au6lm7kbv4bxmxd.py":135:34)
#loc228 = loc("./.inductor_cache\\uh\\cuh57xppax3yjdlwyl6wr3mutjzqlek4h4u45au6lm7kbv4bxmxd.py":135:39)
#loc229 = loc("./.inductor_cache\\uh\\cuh57xppax3yjdlwyl6wr3mutjzqlek4h4u45au6lm7kbv4bxmxd.py":136:34)
#loc230 = loc("./.inductor_cache\\uh\\cuh57xppax3yjdlwyl6wr3mutjzqlek4h4u45au6lm7kbv4bxmxd.py":136:39)
#loc231 = loc("./.inductor_cache\\uh\\cuh57xppax3yjdlwyl6wr3mutjzqlek4h4u45au6lm7kbv4bxmxd.py":137:34)
#loc232 = loc("./.inductor_cache\\uh\\cuh57xppax3yjdlwyl6wr3mutjzqlek4h4u45au6lm7kbv4bxmxd.py":137:39)
#loc233 = loc("./.inductor_cache\\uh\\cuh57xppax3yjdlwyl6wr3mutjzqlek4h4u45au6lm7kbv4bxmxd.py":138:34)
#loc234 = loc("./.inductor_cache\\uh\\cuh57xppax3yjdlwyl6wr3mutjzqlek4h4u45au6lm7kbv4bxmxd.py":138:39)
#loc235 = loc("./.inductor_cache\\uh\\cuh57xppax3yjdlwyl6wr3mutjzqlek4h4u45au6lm7kbv4bxmxd.py":139:34)
#loc236 = loc("./.inductor_cache\\uh\\cuh57xppax3yjdlwyl6wr3mutjzqlek4h4u45au6lm7kbv4bxmxd.py":139:39)
#loc237 = loc("./.inductor_cache\\uh\\cuh57xppax3yjdlwyl6wr3mutjzqlek4h4u45au6lm7kbv4bxmxd.py":140:34)
#loc238 = loc("./.inductor_cache\\uh\\cuh57xppax3yjdlwyl6wr3mutjzqlek4h4u45au6lm7kbv4bxmxd.py":140:39)
#loc239 = loc("./.inductor_cache\\uh\\cuh57xppax3yjdlwyl6wr3mutjzqlek4h4u45au6lm7kbv4bxmxd.py":141:34)
#loc240 = loc("./.inductor_cache\\uh\\cuh57xppax3yjdlwyl6wr3mutjzqlek4h4u45au6lm7kbv4bxmxd.py":141:39)
#loc241 = loc("./.inductor_cache\\uh\\cuh57xppax3yjdlwyl6wr3mutjzqlek4h4u45au6lm7kbv4bxmxd.py":142:34)
#loc242 = loc("./.inductor_cache\\uh\\cuh57xppax3yjdlwyl6wr3mutjzqlek4h4u45au6lm7kbv4bxmxd.py":142:39)
#loc243 = loc("./.inductor_cache\\uh\\cuh57xppax3yjdlwyl6wr3mutjzqlek4h4u45au6lm7kbv4bxmxd.py":143:34)
#loc244 = loc("./.inductor_cache\\uh\\cuh57xppax3yjdlwyl6wr3mutjzqlek4h4u45au6lm7kbv4bxmxd.py":143:39)
#loc245 = loc("./.inductor_cache\\uh\\cuh57xppax3yjdlwyl6wr3mutjzqlek4h4u45au6lm7kbv4bxmxd.py":144:34)
#loc246 = loc("./.inductor_cache\\uh\\cuh57xppax3yjdlwyl6wr3mutjzqlek4h4u45au6lm7kbv4bxmxd.py":144:39)
#loc247 = loc("./.inductor_cache\\uh\\cuh57xppax3yjdlwyl6wr3mutjzqlek4h4u45au6lm7kbv4bxmxd.py":145:34)
#loc248 = loc("./.inductor_cache\\uh\\cuh57xppax3yjdlwyl6wr3mutjzqlek4h4u45au6lm7kbv4bxmxd.py":145:39)
#loc249 = loc("./.inductor_cache\\uh\\cuh57xppax3yjdlwyl6wr3mutjzqlek4h4u45au6lm7kbv4bxmxd.py":146:34)
#loc250 = loc("./.inductor_cache\\uh\\cuh57xppax3yjdlwyl6wr3mutjzqlek4h4u45au6lm7kbv4bxmxd.py":146:39)
#loc251 = loc("./.inductor_cache\\uh\\cuh57xppax3yjdlwyl6wr3mutjzqlek4h4u45au6lm7kbv4bxmxd.py":147:34)
#loc252 = loc("./.inductor_cache\\uh\\cuh57xppax3yjdlwyl6wr3mutjzqlek4h4u45au6lm7kbv4bxmxd.py":147:39)
#loc253 = loc("./.inductor_cache\\uh\\cuh57xppax3yjdlwyl6wr3mutjzqlek4h4u45au6lm7kbv4bxmxd.py":148:34)
#loc254 = loc("./.inductor_cache\\uh\\cuh57xppax3yjdlwyl6wr3mutjzqlek4h4u45au6lm7kbv4bxmxd.py":148:39)
#loc255 = loc("./.inductor_cache\\uh\\cuh57xppax3yjdlwyl6wr3mutjzqlek4h4u45au6lm7kbv4bxmxd.py":149:34)
#loc256 = loc("./.inductor_cache\\uh\\cuh57xppax3yjdlwyl6wr3mutjzqlek4h4u45au6lm7kbv4bxmxd.py":149:39)
#loc257 = loc("./.inductor_cache\\uh\\cuh57xppax3yjdlwyl6wr3mutjzqlek4h4u45au6lm7kbv4bxmxd.py":150:34)
#loc258 = loc("./.inductor_cache\\uh\\cuh57xppax3yjdlwyl6wr3mutjzqlek4h4u45au6lm7kbv4bxmxd.py":150:39)
#loc259 = loc("./.inductor_cache\\uh\\cuh57xppax3yjdlwyl6wr3mutjzqlek4h4u45au6lm7kbv4bxmxd.py":151:34)
#loc260 = loc("./.inductor_cache\\uh\\cuh57xppax3yjdlwyl6wr3mutjzqlek4h4u45au6lm7kbv4bxmxd.py":151:39)
#loc261 = loc("./.inductor_cache\\uh\\cuh57xppax3yjdlwyl6wr3mutjzqlek4h4u45au6lm7kbv4bxmxd.py":152:34)
#loc262 = loc("./.inductor_cache\\uh\\cuh57xppax3yjdlwyl6wr3mutjzqlek4h4u45au6lm7kbv4bxmxd.py":152:39)
#loc263 = loc("./.inductor_cache\\uh\\cuh57xppax3yjdlwyl6wr3mutjzqlek4h4u45au6lm7kbv4bxmxd.py":153:34)
#loc264 = loc("./.inductor_cache\\uh\\cuh57xppax3yjdlwyl6wr3mutjzqlek4h4u45au6lm7kbv4bxmxd.py":153:39)
#loc265 = loc("./.inductor_cache\\uh\\cuh57xppax3yjdlwyl6wr3mutjzqlek4h4u45au6lm7kbv4bxmxd.py":156:19)
#loc266 = loc("./.inductor_cache\\uh\\cuh57xppax3yjdlwyl6wr3mutjzqlek4h4u45au6lm7kbv4bxmxd.py":158:32)
#loc267 = loc("./.inductor_cache\\uh\\cuh57xppax3yjdlwyl6wr3mutjzqlek4h4u45au6lm7kbv4bxmxd.py":160:19)
#loc268 = loc("./.inductor_cache\\uh\\cuh57xppax3yjdlwyl6wr3mutjzqlek4h4u45au6lm7kbv4bxmxd.py":161:32)
#loc269 = loc("./.inductor_cache\\uh\\cuh57xppax3yjdlwyl6wr3mutjzqlek4h4u45au6lm7kbv4bxmxd.py":162:19)
#loc270 = loc("./.inductor_cache\\uh\\cuh57xppax3yjdlwyl6wr3mutjzqlek4h4u45au6lm7kbv4bxmxd.py":164:20)
#loc271 = loc("./.inductor_cache\\uh\\cuh57xppax3yjdlwyl6wr3mutjzqlek4h4u45au6lm7kbv4bxmxd.py":165:35)
#loc272 = loc("./.inductor_cache\\uh\\cuh57xppax3yjdlwyl6wr3mutjzqlek4h4u45au6lm7kbv4bxmxd.py":166:20)
#loc273 = loc("./.inductor_cache\\uh\\cuh57xppax3yjdlwyl6wr3mutjzqlek4h4u45au6lm7kbv4bxmxd.py":168:20)
#loc274 = loc("./.inductor_cache\\uh\\cuh57xppax3yjdlwyl6wr3mutjzqlek4h4u45au6lm7kbv4bxmxd.py":169:35)
#loc275 = loc("./.inductor_cache\\uh\\cuh57xppax3yjdlwyl6wr3mutjzqlek4h4u45au6lm7kbv4bxmxd.py":170:20)
#loc276 = loc("./.inductor_cache\\uh\\cuh57xppax3yjdlwyl6wr3mutjzqlek4h4u45au6lm7kbv4bxmxd.py":172:20)
#loc277 = loc("./.inductor_cache\\uh\\cuh57xppax3yjdlwyl6wr3mutjzqlek4h4u45au6lm7kbv4bxmxd.py":173:35)
#loc278 = loc("./.inductor_cache\\uh\\cuh57xppax3yjdlwyl6wr3mutjzqlek4h4u45au6lm7kbv4bxmxd.py":174:20)
#loc279 = loc("./.inductor_cache\\uh\\cuh57xppax3yjdlwyl6wr3mutjzqlek4h4u45au6lm7kbv4bxmxd.py":176:20)
#loc280 = loc("./.inductor_cache\\uh\\cuh57xppax3yjdlwyl6wr3mutjzqlek4h4u45au6lm7kbv4bxmxd.py":177:35)
#loc281 = loc("./.inductor_cache\\uh\\cuh57xppax3yjdlwyl6wr3mutjzqlek4h4u45au6lm7kbv4bxmxd.py":178:20)
#loc282 = loc("./.inductor_cache\\uh\\cuh57xppax3yjdlwyl6wr3mutjzqlek4h4u45au6lm7kbv4bxmxd.py":180:20)
#loc283 = loc("./.inductor_cache\\uh\\cuh57xppax3yjdlwyl6wr3mutjzqlek4h4u45au6lm7kbv4bxmxd.py":181:35)
#loc284 = loc("./.inductor_cache\\uh\\cuh57xppax3yjdlwyl6wr3mutjzqlek4h4u45au6lm7kbv4bxmxd.py":182:20)
#loc285 = loc("./.inductor_cache\\uh\\cuh57xppax3yjdlwyl6wr3mutjzqlek4h4u45au6lm7kbv4bxmxd.py":184:20)
#loc286 = loc("./.inductor_cache\\uh\\cuh57xppax3yjdlwyl6wr3mutjzqlek4h4u45au6lm7kbv4bxmxd.py":185:35)
#loc287 = loc("./.inductor_cache\\uh\\cuh57xppax3yjdlwyl6wr3mutjzqlek4h4u45au6lm7kbv4bxmxd.py":186:20)
#loc288 = loc("./.inductor_cache\\uh\\cuh57xppax3yjdlwyl6wr3mutjzqlek4h4u45au6lm7kbv4bxmxd.py":188:20)
#loc289 = loc("./.inductor_cache\\uh\\cuh57xppax3yjdlwyl6wr3mutjzqlek4h4u45au6lm7kbv4bxmxd.py":189:35)
#loc290 = loc("./.inductor_cache\\uh\\cuh57xppax3yjdlwyl6wr3mutjzqlek4h4u45au6lm7kbv4bxmxd.py":190:20)
#loc291 = loc("./.inductor_cache\\uh\\cuh57xppax3yjdlwyl6wr3mutjzqlek4h4u45au6lm7kbv4bxmxd.py":192:20)
#loc292 = loc("./.inductor_cache\\uh\\cuh57xppax3yjdlwyl6wr3mutjzqlek4h4u45au6lm7kbv4bxmxd.py":193:35)
#loc293 = loc("./.inductor_cache\\uh\\cuh57xppax3yjdlwyl6wr3mutjzqlek4h4u45au6lm7kbv4bxmxd.py":194:20)
#loc294 = loc("./.inductor_cache\\uh\\cuh57xppax3yjdlwyl6wr3mutjzqlek4h4u45au6lm7kbv4bxmxd.py":196:20)
#loc295 = loc("./.inductor_cache\\uh\\cuh57xppax3yjdlwyl6wr3mutjzqlek4h4u45au6lm7kbv4bxmxd.py":197:35)
#loc296 = loc("./.inductor_cache\\uh\\cuh57xppax3yjdlwyl6wr3mutjzqlek4h4u45au6lm7kbv4bxmxd.py":198:20)
#loc297 = loc("./.inductor_cache\\uh\\cuh57xppax3yjdlwyl6wr3mutjzqlek4h4u45au6lm7kbv4bxmxd.py":200:20)
#loc298 = loc("./.inductor_cache\\uh\\cuh57xppax3yjdlwyl6wr3mutjzqlek4h4u45au6lm7kbv4bxmxd.py":201:35)
#loc299 = loc("./.inductor_cache\\uh\\cuh57xppax3yjdlwyl6wr3mutjzqlek4h4u45au6lm7kbv4bxmxd.py":202:20)
#loc300 = loc("./.inductor_cache\\uh\\cuh57xppax3yjdlwyl6wr3mutjzqlek4h4u45au6lm7kbv4bxmxd.py":204:20)
#loc301 = loc("./.inductor_cache\\uh\\cuh57xppax3yjdlwyl6wr3mutjzqlek4h4u45au6lm7kbv4bxmxd.py":205:35)
#loc302 = loc("./.inductor_cache\\uh\\cuh57xppax3yjdlwyl6wr3mutjzqlek4h4u45au6lm7kbv4bxmxd.py":206:20)
#loc303 = loc("./.inductor_cache\\uh\\cuh57xppax3yjdlwyl6wr3mutjzqlek4h4u45au6lm7kbv4bxmxd.py":208:20)
#loc304 = loc("./.inductor_cache\\uh\\cuh57xppax3yjdlwyl6wr3mutjzqlek4h4u45au6lm7kbv4bxmxd.py":209:35)
#loc305 = loc("./.inductor_cache\\uh\\cuh57xppax3yjdlwyl6wr3mutjzqlek4h4u45au6lm7kbv4bxmxd.py":210:20)
#loc306 = loc("./.inductor_cache\\uh\\cuh57xppax3yjdlwyl6wr3mutjzqlek4h4u45au6lm7kbv4bxmxd.py":212:20)
#loc307 = loc("./.inductor_cache\\uh\\cuh57xppax3yjdlwyl6wr3mutjzqlek4h4u45au6lm7kbv4bxmxd.py":213:35)
#loc308 = loc("./.inductor_cache\\uh\\cuh57xppax3yjdlwyl6wr3mutjzqlek4h4u45au6lm7kbv4bxmxd.py":214:20)
#loc309 = loc("./.inductor_cache\\uh\\cuh57xppax3yjdlwyl6wr3mutjzqlek4h4u45au6lm7kbv4bxmxd.py":216:20)
#loc310 = loc("./.inductor_cache\\uh\\cuh57xppax3yjdlwyl6wr3mutjzqlek4h4u45au6lm7kbv4bxmxd.py":217:35)
#loc311 = loc("./.inductor_cache\\uh\\cuh57xppax3yjdlwyl6wr3mutjzqlek4h4u45au6lm7kbv4bxmxd.py":218:20)
#loc312 = loc("./.inductor_cache\\uh\\cuh57xppax3yjdlwyl6wr3mutjzqlek4h4u45au6lm7kbv4bxmxd.py":220:20)
#loc313 = loc("./.inductor_cache\\uh\\cuh57xppax3yjdlwyl6wr3mutjzqlek4h4u45au6lm7kbv4bxmxd.py":221:35)
#loc314 = loc("./.inductor_cache\\uh\\cuh57xppax3yjdlwyl6wr3mutjzqlek4h4u45au6lm7kbv4bxmxd.py":222:20)
#loc315 = loc("./.inductor_cache\\uh\\cuh57xppax3yjdlwyl6wr3mutjzqlek4h4u45au6lm7kbv4bxmxd.py":224:20)
#loc316 = loc("./.inductor_cache\\uh\\cuh57xppax3yjdlwyl6wr3mutjzqlek4h4u45au6lm7kbv4bxmxd.py":225:35)
#loc317 = loc("./.inductor_cache\\uh\\cuh57xppax3yjdlwyl6wr3mutjzqlek4h4u45au6lm7kbv4bxmxd.py":226:20)
#loc318 = loc("./.inductor_cache\\uh\\cuh57xppax3yjdlwyl6wr3mutjzqlek4h4u45au6lm7kbv4bxmxd.py":228:20)
#loc319 = loc("./.inductor_cache\\uh\\cuh57xppax3yjdlwyl6wr3mutjzqlek4h4u45au6lm7kbv4bxmxd.py":229:35)
#loc320 = loc("./.inductor_cache\\uh\\cuh57xppax3yjdlwyl6wr3mutjzqlek4h4u45au6lm7kbv4bxmxd.py":230:20)
#loc321 = loc("./.inductor_cache\\uh\\cuh57xppax3yjdlwyl6wr3mutjzqlek4h4u45au6lm7kbv4bxmxd.py":232:20)
#loc322 = loc("./.inductor_cache\\uh\\cuh57xppax3yjdlwyl6wr3mutjzqlek4h4u45au6lm7kbv4bxmxd.py":233:35)
#loc323 = loc("./.inductor_cache\\uh\\cuh57xppax3yjdlwyl6wr3mutjzqlek4h4u45au6lm7kbv4bxmxd.py":234:21)
#loc324 = loc("./.inductor_cache\\uh\\cuh57xppax3yjdlwyl6wr3mutjzqlek4h4u45au6lm7kbv4bxmxd.py":236:21)
#loc325 = loc("./.inductor_cache\\uh\\cuh57xppax3yjdlwyl6wr3mutjzqlek4h4u45au6lm7kbv4bxmxd.py":237:38)
#loc326 = loc("./.inductor_cache\\uh\\cuh57xppax3yjdlwyl6wr3mutjzqlek4h4u45au6lm7kbv4bxmxd.py":238:22)
#loc327 = loc("./.inductor_cache\\uh\\cuh57xppax3yjdlwyl6wr3mutjzqlek4h4u45au6lm7kbv4bxmxd.py":240:21)
#loc328 = loc("./.inductor_cache\\uh\\cuh57xppax3yjdlwyl6wr3mutjzqlek4h4u45au6lm7kbv4bxmxd.py":241:38)
#loc329 = loc("./.inductor_cache\\uh\\cuh57xppax3yjdlwyl6wr3mutjzqlek4h4u45au6lm7kbv4bxmxd.py":242:22)
#loc330 = loc("./.inductor_cache\\uh\\cuh57xppax3yjdlwyl6wr3mutjzqlek4h4u45au6lm7kbv4bxmxd.py":244:21)
#loc331 = loc("./.inductor_cache\\uh\\cuh57xppax3yjdlwyl6wr3mutjzqlek4h4u45au6lm7kbv4bxmxd.py":245:38)
#loc332 = loc("./.inductor_cache\\uh\\cuh57xppax3yjdlwyl6wr3mutjzqlek4h4u45au6lm7kbv4bxmxd.py":246:22)
#loc333 = loc("./.inductor_cache\\uh\\cuh57xppax3yjdlwyl6wr3mutjzqlek4h4u45au6lm7kbv4bxmxd.py":248:21)
#loc334 = loc("./.inductor_cache\\uh\\cuh57xppax3yjdlwyl6wr3mutjzqlek4h4u45au6lm7kbv4bxmxd.py":249:38)
#loc335 = loc("./.inductor_cache\\uh\\cuh57xppax3yjdlwyl6wr3mutjzqlek4h4u45au6lm7kbv4bxmxd.py":250:22)
#loc336 = loc("./.inductor_cache\\uh\\cuh57xppax3yjdlwyl6wr3mutjzqlek4h4u45au6lm7kbv4bxmxd.py":252:21)
#loc337 = loc("./.inductor_cache\\uh\\cuh57xppax3yjdlwyl6wr3mutjzqlek4h4u45au6lm7kbv4bxmxd.py":253:38)
#loc338 = loc("./.inductor_cache\\uh\\cuh57xppax3yjdlwyl6wr3mutjzqlek4h4u45au6lm7kbv4bxmxd.py":254:22)
#loc339 = loc("./.inductor_cache\\uh\\cuh57xppax3yjdlwyl6wr3mutjzqlek4h4u45au6lm7kbv4bxmxd.py":256:21)
#loc340 = loc("./.inductor_cache\\uh\\cuh57xppax3yjdlwyl6wr3mutjzqlek4h4u45au6lm7kbv4bxmxd.py":257:38)
#loc341 = loc("./.inductor_cache\\uh\\cuh57xppax3yjdlwyl6wr3mutjzqlek4h4u45au6lm7kbv4bxmxd.py":258:22)
#loc342 = loc("./.inductor_cache\\uh\\cuh57xppax3yjdlwyl6wr3mutjzqlek4h4u45au6lm7kbv4bxmxd.py":260:21)
#loc343 = loc("./.inductor_cache\\uh\\cuh57xppax3yjdlwyl6wr3mutjzqlek4h4u45au6lm7kbv4bxmxd.py":261:38)
#loc344 = loc("./.inductor_cache\\uh\\cuh57xppax3yjdlwyl6wr3mutjzqlek4h4u45au6lm7kbv4bxmxd.py":262:22)
#loc345 = loc("./.inductor_cache\\uh\\cuh57xppax3yjdlwyl6wr3mutjzqlek4h4u45au6lm7kbv4bxmxd.py":264:21)
#loc346 = loc("./.inductor_cache\\uh\\cuh57xppax3yjdlwyl6wr3mutjzqlek4h4u45au6lm7kbv4bxmxd.py":265:38)
#loc347 = loc("./.inductor_cache\\uh\\cuh57xppax3yjdlwyl6wr3mutjzqlek4h4u45au6lm7kbv4bxmxd.py":266:22)
#loc348 = loc("./.inductor_cache\\uh\\cuh57xppax3yjdlwyl6wr3mutjzqlek4h4u45au6lm7kbv4bxmxd.py":268:21)
#loc349 = loc("./.inductor_cache\\uh\\cuh57xppax3yjdlwyl6wr3mutjzqlek4h4u45au6lm7kbv4bxmxd.py":269:38)
#loc350 = loc("./.inductor_cache\\uh\\cuh57xppax3yjdlwyl6wr3mutjzqlek4h4u45au6lm7kbv4bxmxd.py":270:22)
#loc351 = loc("./.inductor_cache\\uh\\cuh57xppax3yjdlwyl6wr3mutjzqlek4h4u45au6lm7kbv4bxmxd.py":272:21)
#loc352 = loc("./.inductor_cache\\uh\\cuh57xppax3yjdlwyl6wr3mutjzqlek4h4u45au6lm7kbv4bxmxd.py":273:38)
#loc353 = loc("./.inductor_cache\\uh\\cuh57xppax3yjdlwyl6wr3mutjzqlek4h4u45au6lm7kbv4bxmxd.py":274:22)
#loc354 = loc("./.inductor_cache\\uh\\cuh57xppax3yjdlwyl6wr3mutjzqlek4h4u45au6lm7kbv4bxmxd.py":276:21)
#loc355 = loc("./.inductor_cache\\uh\\cuh57xppax3yjdlwyl6wr3mutjzqlek4h4u45au6lm7kbv4bxmxd.py":277:38)
#loc356 = loc("./.inductor_cache\\uh\\cuh57xppax3yjdlwyl6wr3mutjzqlek4h4u45au6lm7kbv4bxmxd.py":278:22)
#loc357 = loc("./.inductor_cache\\uh\\cuh57xppax3yjdlwyl6wr3mutjzqlek4h4u45au6lm7kbv4bxmxd.py":280:21)
#loc358 = loc("./.inductor_cache\\uh\\cuh57xppax3yjdlwyl6wr3mutjzqlek4h4u45au6lm7kbv4bxmxd.py":281:38)
#loc359 = loc("./.inductor_cache\\uh\\cuh57xppax3yjdlwyl6wr3mutjzqlek4h4u45au6lm7kbv4bxmxd.py":282:22)
#loc360 = loc("./.inductor_cache\\uh\\cuh57xppax3yjdlwyl6wr3mutjzqlek4h4u45au6lm7kbv4bxmxd.py":283:36)
#loc361 = loc("./.inductor_cache\\uh\\cuh57xppax3yjdlwyl6wr3mutjzqlek4h4u45au6lm7kbv4bxmxd.py":284:22)
#loc362 = loc("./.inductor_cache\\uh\\cuh57xppax3yjdlwyl6wr3mutjzqlek4h4u45au6lm7kbv4bxmxd.py":285:36)
#loc363 = loc("./.inductor_cache\\uh\\cuh57xppax3yjdlwyl6wr3mutjzqlek4h4u45au6lm7kbv4bxmxd.py":286:22)
#loc364 = loc("./.inductor_cache\\uh\\cuh57xppax3yjdlwyl6wr3mutjzqlek4h4u45au6lm7kbv4bxmxd.py":287:37)
#loc365 = loc("./.inductor_cache\\uh\\cuh57xppax3yjdlwyl6wr3mutjzqlek4h4u45au6lm7kbv4bxmxd.py":288:22)
#loc366 = loc("./.inductor_cache\\uh\\cuh57xppax3yjdlwyl6wr3mutjzqlek4h4u45au6lm7kbv4bxmxd.py":289:37)
#loc367 = loc("./.inductor_cache\\uh\\cuh57xppax3yjdlwyl6wr3mutjzqlek4h4u45au6lm7kbv4bxmxd.py":290:22)
#loc368 = loc("./.inductor_cache\\uh\\cuh57xppax3yjdlwyl6wr3mutjzqlek4h4u45au6lm7kbv4bxmxd.py":291:37)
#loc369 = loc("./.inductor_cache\\uh\\cuh57xppax3yjdlwyl6wr3mutjzqlek4h4u45au6lm7kbv4bxmxd.py":292:22)
#loc370 = loc("./.inductor_cache\\uh\\cuh57xppax3yjdlwyl6wr3mutjzqlek4h4u45au6lm7kbv4bxmxd.py":293:37)
#loc371 = loc("./.inductor_cache\\uh\\cuh57xppax3yjdlwyl6wr3mutjzqlek4h4u45au6lm7kbv4bxmxd.py":294:22)
#loc372 = loc("./.inductor_cache\\uh\\cuh57xppax3yjdlwyl6wr3mutjzqlek4h4u45au6lm7kbv4bxmxd.py":295:37)
#loc373 = loc("./.inductor_cache\\uh\\cuh57xppax3yjdlwyl6wr3mutjzqlek4h4u45au6lm7kbv4bxmxd.py":296:22)
#loc374 = loc("./.inductor_cache\\uh\\cuh57xppax3yjdlwyl6wr3mutjzqlek4h4u45au6lm7kbv4bxmxd.py":297:37)
#loc375 = loc("./.inductor_cache\\uh\\cuh57xppax3yjdlwyl6wr3mutjzqlek4h4u45au6lm7kbv4bxmxd.py":298:22)
#loc376 = loc("./.inductor_cache\\uh\\cuh57xppax3yjdlwyl6wr3mutjzqlek4h4u45au6lm7kbv4bxmxd.py":299:37)
#loc377 = loc("./.inductor_cache\\uh\\cuh57xppax3yjdlwyl6wr3mutjzqlek4h4u45au6lm7kbv4bxmxd.py":300:22)
#loc378 = loc("./.inductor_cache\\uh\\cuh57xppax3yjdlwyl6wr3mutjzqlek4h4u45au6lm7kbv4bxmxd.py":301:37)
#loc379 = loc("./.inductor_cache\\uh\\cuh57xppax3yjdlwyl6wr3mutjzqlek4h4u45au6lm7kbv4bxmxd.py":302:22)
#loc380 = loc("./.inductor_cache\\uh\\cuh57xppax3yjdlwyl6wr3mutjzqlek4h4u45au6lm7kbv4bxmxd.py":303:37)
#loc381 = loc("./.inductor_cache\\uh\\cuh57xppax3yjdlwyl6wr3mutjzqlek4h4u45au6lm7kbv4bxmxd.py":304:22)
#loc382 = loc("./.inductor_cache\\uh\\cuh57xppax3yjdlwyl6wr3mutjzqlek4h4u45au6lm7kbv4bxmxd.py":305:37)
#loc383 = loc("./.inductor_cache\\uh\\cuh57xppax3yjdlwyl6wr3mutjzqlek4h4u45au6lm7kbv4bxmxd.py":306:22)
#loc384 = loc("./.inductor_cache\\uh\\cuh57xppax3yjdlwyl6wr3mutjzqlek4h4u45au6lm7kbv4bxmxd.py":307:37)
#loc385 = loc("./.inductor_cache\\uh\\cuh57xppax3yjdlwyl6wr3mutjzqlek4h4u45au6lm7kbv4bxmxd.py":308:22)
#loc386 = loc("./.inductor_cache\\uh\\cuh57xppax3yjdlwyl6wr3mutjzqlek4h4u45au6lm7kbv4bxmxd.py":309:37)
#loc387 = loc("./.inductor_cache\\uh\\cuh57xppax3yjdlwyl6wr3mutjzqlek4h4u45au6lm7kbv4bxmxd.py":310:22)
#loc388 = loc("./.inductor_cache\\uh\\cuh57xppax3yjdlwyl6wr3mutjzqlek4h4u45au6lm7kbv4bxmxd.py":311:37)
#loc389 = loc("./.inductor_cache\\uh\\cuh57xppax3yjdlwyl6wr3mutjzqlek4h4u45au6lm7kbv4bxmxd.py":312:22)
#loc390 = loc("./.inductor_cache\\uh\\cuh57xppax3yjdlwyl6wr3mutjzqlek4h4u45au6lm7kbv4bxmxd.py":313:37)
#loc391 = loc("./.inductor_cache\\uh\\cuh57xppax3yjdlwyl6wr3mutjzqlek4h4u45au6lm7kbv4bxmxd.py":314:22)
#loc392 = loc("./.inductor_cache\\uh\\cuh57xppax3yjdlwyl6wr3mutjzqlek4h4u45au6lm7kbv4bxmxd.py":315:37)
#loc393 = loc("./.inductor_cache\\uh\\cuh57xppax3yjdlwyl6wr3mutjzqlek4h4u45au6lm7kbv4bxmxd.py":316:22)
#loc394 = loc("./.inductor_cache\\uh\\cuh57xppax3yjdlwyl6wr3mutjzqlek4h4u45au6lm7kbv4bxmxd.py":317:37)
#loc395 = loc("./.inductor_cache\\uh\\cuh57xppax3yjdlwyl6wr3mutjzqlek4h4u45au6lm7kbv4bxmxd.py":318:22)
#loc396 = loc("./.inductor_cache\\uh\\cuh57xppax3yjdlwyl6wr3mutjzqlek4h4u45au6lm7kbv4bxmxd.py":319:37)
#loc397 = loc("./.inductor_cache\\uh\\cuh57xppax3yjdlwyl6wr3mutjzqlek4h4u45au6lm7kbv4bxmxd.py":320:22)
#loc398 = loc("./.inductor_cache\\uh\\cuh57xppax3yjdlwyl6wr3mutjzqlek4h4u45au6lm7kbv4bxmxd.py":321:37)
#loc399 = loc("./.inductor_cache\\uh\\cuh57xppax3yjdlwyl6wr3mutjzqlek4h4u45au6lm7kbv4bxmxd.py":322:22)
#loc400 = loc("./.inductor_cache\\uh\\cuh57xppax3yjdlwyl6wr3mutjzqlek4h4u45au6lm7kbv4bxmxd.py":323:38)
#loc401 = loc("./.inductor_cache\\uh\\cuh57xppax3yjdlwyl6wr3mutjzqlek4h4u45au6lm7kbv4bxmxd.py":324:22)
#loc402 = loc("./.inductor_cache\\uh\\cuh57xppax3yjdlwyl6wr3mutjzqlek4h4u45au6lm7kbv4bxmxd.py":325:38)
#loc403 = loc("./.inductor_cache\\uh\\cuh57xppax3yjdlwyl6wr3mutjzqlek4h4u45au6lm7kbv4bxmxd.py":326:22)
#loc404 = loc("./.inductor_cache\\uh\\cuh57xppax3yjdlwyl6wr3mutjzqlek4h4u45au6lm7kbv4bxmxd.py":327:38)
#loc405 = loc("./.inductor_cache\\uh\\cuh57xppax3yjdlwyl6wr3mutjzqlek4h4u45au6lm7kbv4bxmxd.py":328:22)
#loc406 = loc("./.inductor_cache\\uh\\cuh57xppax3yjdlwyl6wr3mutjzqlek4h4u45au6lm7kbv4bxmxd.py":329:38)
#loc407 = loc("./.inductor_cache\\uh\\cuh57xppax3yjdlwyl6wr3mutjzqlek4h4u45au6lm7kbv4bxmxd.py":330:22)
#loc408 = loc("./.inductor_cache\\uh\\cuh57xppax3yjdlwyl6wr3mutjzqlek4h4u45au6lm7kbv4bxmxd.py":331:38)
#loc409 = loc("./.inductor_cache\\uh\\cuh57xppax3yjdlwyl6wr3mutjzqlek4h4u45au6lm7kbv4bxmxd.py":332:22)
#loc410 = loc("./.inductor_cache\\uh\\cuh57xppax3yjdlwyl6wr3mutjzqlek4h4u45au6lm7kbv4bxmxd.py":333:38)
#loc411 = loc("./.inductor_cache\\uh\\cuh57xppax3yjdlwyl6wr3mutjzqlek4h4u45au6lm7kbv4bxmxd.py":334:22)
#loc412 = loc("./.inductor_cache\\uh\\cuh57xppax3yjdlwyl6wr3mutjzqlek4h4u45au6lm7kbv4bxmxd.py":335:38)
#loc413 = loc("./.inductor_cache\\uh\\cuh57xppax3yjdlwyl6wr3mutjzqlek4h4u45au6lm7kbv4bxmxd.py":336:22)
#loc414 = loc("./.inductor_cache\\uh\\cuh57xppax3yjdlwyl6wr3mutjzqlek4h4u45au6lm7kbv4bxmxd.py":337:38)
#loc415 = loc("./.inductor_cache\\uh\\cuh57xppax3yjdlwyl6wr3mutjzqlek4h4u45au6lm7kbv4bxmxd.py":338:22)
#loc416 = loc("./.inductor_cache\\uh\\cuh57xppax3yjdlwyl6wr3mutjzqlek4h4u45au6lm7kbv4bxmxd.py":339:38)
#loc417 = loc("./.inductor_cache\\uh\\cuh57xppax3yjdlwyl6wr3mutjzqlek4h4u45au6lm7kbv4bxmxd.py":340:22)
#loc418 = loc("./.inductor_cache\\uh\\cuh57xppax3yjdlwyl6wr3mutjzqlek4h4u45au6lm7kbv4bxmxd.py":341:38)
#loc419 = loc("./.inductor_cache\\uh\\cuh57xppax3yjdlwyl6wr3mutjzqlek4h4u45au6lm7kbv4bxmxd.py":342:22)
#loc420 = loc("./.inductor_cache\\uh\\cuh57xppax3yjdlwyl6wr3mutjzqlek4h4u45au6lm7kbv4bxmxd.py":343:38)
#loc421 = loc("./.inductor_cache\\uh\\cuh57xppax3yjdlwyl6wr3mutjzqlek4h4u45au6lm7kbv4bxmxd.py":344:22)
#loc422 = loc("./.inductor_cache\\uh\\cuh57xppax3yjdlwyl6wr3mutjzqlek4h4u45au6lm7kbv4bxmxd.py":345:38)
#loc423 = loc("./.inductor_cache\\uh\\cuh57xppax3yjdlwyl6wr3mutjzqlek4h4u45au6lm7kbv4bxmxd.py":346:22)
#loc424 = loc("./.inductor_cache\\uh\\cuh57xppax3yjdlwyl6wr3mutjzqlek4h4u45au6lm7kbv4bxmxd.py":347:36)
#loc425 = loc("./.inductor_cache\\uh\\cuh57xppax3yjdlwyl6wr3mutjzqlek4h4u45au6lm7kbv4bxmxd.py":348:22)
#loc426 = loc("./.inductor_cache\\uh\\cuh57xppax3yjdlwyl6wr3mutjzqlek4h4u45au6lm7kbv4bxmxd.py":349:36)
#loc427 = loc("./.inductor_cache\\uh\\cuh57xppax3yjdlwyl6wr3mutjzqlek4h4u45au6lm7kbv4bxmxd.py":350:22)
#loc428 = loc("./.inductor_cache\\uh\\cuh57xppax3yjdlwyl6wr3mutjzqlek4h4u45au6lm7kbv4bxmxd.py":351:37)
#loc429 = loc("./.inductor_cache\\uh\\cuh57xppax3yjdlwyl6wr3mutjzqlek4h4u45au6lm7kbv4bxmxd.py":352:22)
#loc430 = loc("./.inductor_cache\\uh\\cuh57xppax3yjdlwyl6wr3mutjzqlek4h4u45au6lm7kbv4bxmxd.py":353:37)
#loc431 = loc("./.inductor_cache\\uh\\cuh57xppax3yjdlwyl6wr3mutjzqlek4h4u45au6lm7kbv4bxmxd.py":354:22)
#loc432 = loc("./.inductor_cache\\uh\\cuh57xppax3yjdlwyl6wr3mutjzqlek4h4u45au6lm7kbv4bxmxd.py":355:37)
#loc433 = loc("./.inductor_cache\\uh\\cuh57xppax3yjdlwyl6wr3mutjzqlek4h4u45au6lm7kbv4bxmxd.py":356:22)
#loc434 = loc("./.inductor_cache\\uh\\cuh57xppax3yjdlwyl6wr3mutjzqlek4h4u45au6lm7kbv4bxmxd.py":357:37)
#loc435 = loc("./.inductor_cache\\uh\\cuh57xppax3yjdlwyl6wr3mutjzqlek4h4u45au6lm7kbv4bxmxd.py":358:22)
#loc436 = loc("./.inductor_cache\\uh\\cuh57xppax3yjdlwyl6wr3mutjzqlek4h4u45au6lm7kbv4bxmxd.py":359:37)
#loc437 = loc("./.inductor_cache\\uh\\cuh57xppax3yjdlwyl6wr3mutjzqlek4h4u45au6lm7kbv4bxmxd.py":360:22)
#loc438 = loc("./.inductor_cache\\uh\\cuh57xppax3yjdlwyl6wr3mutjzqlek4h4u45au6lm7kbv4bxmxd.py":361:37)
#loc439 = loc("./.inductor_cache\\uh\\cuh57xppax3yjdlwyl6wr3mutjzqlek4h4u45au6lm7kbv4bxmxd.py":362:22)
#loc440 = loc("./.inductor_cache\\uh\\cuh57xppax3yjdlwyl6wr3mutjzqlek4h4u45au6lm7kbv4bxmxd.py":363:37)
#loc441 = loc("./.inductor_cache\\uh\\cuh57xppax3yjdlwyl6wr3mutjzqlek4h4u45au6lm7kbv4bxmxd.py":364:22)
#loc442 = loc("./.inductor_cache\\uh\\cuh57xppax3yjdlwyl6wr3mutjzqlek4h4u45au6lm7kbv4bxmxd.py":365:37)
#loc443 = loc("./.inductor_cache\\uh\\cuh57xppax3yjdlwyl6wr3mutjzqlek4h4u45au6lm7kbv4bxmxd.py":366:22)
#loc444 = loc("./.inductor_cache\\uh\\cuh57xppax3yjdlwyl6wr3mutjzqlek4h4u45au6lm7kbv4bxmxd.py":367:37)
#loc445 = loc("./.inductor_cache\\uh\\cuh57xppax3yjdlwyl6wr3mutjzqlek4h4u45au6lm7kbv4bxmxd.py":368:22)
#loc446 = loc("./.inductor_cache\\uh\\cuh57xppax3yjdlwyl6wr3mutjzqlek4h4u45au6lm7kbv4bxmxd.py":369:37)
#loc447 = loc("./.inductor_cache\\uh\\cuh57xppax3yjdlwyl6wr3mutjzqlek4h4u45au6lm7kbv4bxmxd.py":370:22)
#loc448 = loc("./.inductor_cache\\uh\\cuh57xppax3yjdlwyl6wr3mutjzqlek4h4u45au6lm7kbv4bxmxd.py":371:37)
#loc449 = loc("./.inductor_cache\\uh\\cuh57xppax3yjdlwyl6wr3mutjzqlek4h4u45au6lm7kbv4bxmxd.py":372:22)
#loc450 = loc("./.inductor_cache\\uh\\cuh57xppax3yjdlwyl6wr3mutjzqlek4h4u45au6lm7kbv4bxmxd.py":373:37)
#loc451 = loc("./.inductor_cache\\uh\\cuh57xppax3yjdlwyl6wr3mutjzqlek4h4u45au6lm7kbv4bxmxd.py":374:22)
#loc452 = loc("./.inductor_cache\\uh\\cuh57xppax3yjdlwyl6wr3mutjzqlek4h4u45au6lm7kbv4bxmxd.py":375:37)
#loc453 = loc("./.inductor_cache\\uh\\cuh57xppax3yjdlwyl6wr3mutjzqlek4h4u45au6lm7kbv4bxmxd.py":376:22)
#loc454 = loc("./.inductor_cache\\uh\\cuh57xppax3yjdlwyl6wr3mutjzqlek4h4u45au6lm7kbv4bxmxd.py":377:37)
#loc455 = loc("./.inductor_cache\\uh\\cuh57xppax3yjdlwyl6wr3mutjzqlek4h4u45au6lm7kbv4bxmxd.py":378:22)
#loc456 = loc("./.inductor_cache\\uh\\cuh57xppax3yjdlwyl6wr3mutjzqlek4h4u45au6lm7kbv4bxmxd.py":379:37)
#loc457 = loc("./.inductor_cache\\uh\\cuh57xppax3yjdlwyl6wr3mutjzqlek4h4u45au6lm7kbv4bxmxd.py":380:22)
#loc458 = loc("./.inductor_cache\\uh\\cuh57xppax3yjdlwyl6wr3mutjzqlek4h4u45au6lm7kbv4bxmxd.py":381:37)
#loc459 = loc("./.inductor_cache\\uh\\cuh57xppax3yjdlwyl6wr3mutjzqlek4h4u45au6lm7kbv4bxmxd.py":382:22)
#loc460 = loc("./.inductor_cache\\uh\\cuh57xppax3yjdlwyl6wr3mutjzqlek4h4u45au6lm7kbv4bxmxd.py":383:37)
#loc461 = loc("./.inductor_cache\\uh\\cuh57xppax3yjdlwyl6wr3mutjzqlek4h4u45au6lm7kbv4bxmxd.py":384:22)
#loc462 = loc("./.inductor_cache\\uh\\cuh57xppax3yjdlwyl6wr3mutjzqlek4h4u45au6lm7kbv4bxmxd.py":385:37)
#loc463 = loc("./.inductor_cache\\uh\\cuh57xppax3yjdlwyl6wr3mutjzqlek4h4u45au6lm7kbv4bxmxd.py":386:22)
#loc464 = loc("./.inductor_cache\\uh\\cuh57xppax3yjdlwyl6wr3mutjzqlek4h4u45au6lm7kbv4bxmxd.py":387:38)
#loc465 = loc("./.inductor_cache\\uh\\cuh57xppax3yjdlwyl6wr3mutjzqlek4h4u45au6lm7kbv4bxmxd.py":388:22)
#loc466 = loc("./.inductor_cache\\uh\\cuh57xppax3yjdlwyl6wr3mutjzqlek4h4u45au6lm7kbv4bxmxd.py":389:38)
#loc467 = loc("./.inductor_cache\\uh\\cuh57xppax3yjdlwyl6wr3mutjzqlek4h4u45au6lm7kbv4bxmxd.py":390:22)
#loc468 = loc("./.inductor_cache\\uh\\cuh57xppax3yjdlwyl6wr3mutjzqlek4h4u45au6lm7kbv4bxmxd.py":391:38)
#loc469 = loc("./.inductor_cache\\uh\\cuh57xppax3yjdlwyl6wr3mutjzqlek4h4u45au6lm7kbv4bxmxd.py":392:22)
#loc470 = loc("./.inductor_cache\\uh\\cuh57xppax3yjdlwyl6wr3mutjzqlek4h4u45au6lm7kbv4bxmxd.py":393:38)
#loc471 = loc("./.inductor_cache\\uh\\cuh57xppax3yjdlwyl6wr3mutjzqlek4h4u45au6lm7kbv4bxmxd.py":394:22)
#loc472 = loc("./.inductor_cache\\uh\\cuh57xppax3yjdlwyl6wr3mutjzqlek4h4u45au6lm7kbv4bxmxd.py":395:38)
#loc473 = loc("./.inductor_cache\\uh\\cuh57xppax3yjdlwyl6wr3mutjzqlek4h4u45au6lm7kbv4bxmxd.py":396:22)
#loc474 = loc("./.inductor_cache\\uh\\cuh57xppax3yjdlwyl6wr3mutjzqlek4h4u45au6lm7kbv4bxmxd.py":397:38)
#loc475 = loc("./.inductor_cache\\uh\\cuh57xppax3yjdlwyl6wr3mutjzqlek4h4u45au6lm7kbv4bxmxd.py":398:22)
#loc476 = loc("./.inductor_cache\\uh\\cuh57xppax3yjdlwyl6wr3mutjzqlek4h4u45au6lm7kbv4bxmxd.py":399:38)
#loc477 = loc("./.inductor_cache\\uh\\cuh57xppax3yjdlwyl6wr3mutjzqlek4h4u45au6lm7kbv4bxmxd.py":400:22)
#loc478 = loc("./.inductor_cache\\uh\\cuh57xppax3yjdlwyl6wr3mutjzqlek4h4u45au6lm7kbv4bxmxd.py":401:38)
#loc479 = loc("./.inductor_cache\\uh\\cuh57xppax3yjdlwyl6wr3mutjzqlek4h4u45au6lm7kbv4bxmxd.py":402:22)
#loc480 = loc("./.inductor_cache\\uh\\cuh57xppax3yjdlwyl6wr3mutjzqlek4h4u45au6lm7kbv4bxmxd.py":403:38)
#loc481 = loc("./.inductor_cache\\uh\\cuh57xppax3yjdlwyl6wr3mutjzqlek4h4u45au6lm7kbv4bxmxd.py":404:22)
#loc482 = loc("./.inductor_cache\\uh\\cuh57xppax3yjdlwyl6wr3mutjzqlek4h4u45au6lm7kbv4bxmxd.py":405:38)
#loc483 = loc("./.inductor_cache\\uh\\cuh57xppax3yjdlwyl6wr3mutjzqlek4h4u45au6lm7kbv4bxmxd.py":406:22)
#loc484 = loc("./.inductor_cache\\uh\\cuh57xppax3yjdlwyl6wr3mutjzqlek4h4u45au6lm7kbv4bxmxd.py":407:38)
#loc485 = loc("./.inductor_cache\\uh\\cuh57xppax3yjdlwyl6wr3mutjzqlek4h4u45au6lm7kbv4bxmxd.py":408:22)
#loc486 = loc("./.inductor_cache\\uh\\cuh57xppax3yjdlwyl6wr3mutjzqlek4h4u45au6lm7kbv4bxmxd.py":409:38)
#loc487 = loc("./.inductor_cache\\uh\\cuh57xppax3yjdlwyl6wr3mutjzqlek4h4u45au6lm7kbv4bxmxd.py":410:22)
#loc488 = loc("./.inductor_cache\\uh\\cuh57xppax3yjdlwyl6wr3mutjzqlek4h4u45au6lm7kbv4bxmxd.py":411:36)
#loc489 = loc("./.inductor_cache\\uh\\cuh57xppax3yjdlwyl6wr3mutjzqlek4h4u45au6lm7kbv4bxmxd.py":412:22)
#loc490 = loc("./.inductor_cache\\uh\\cuh57xppax3yjdlwyl6wr3mutjzqlek4h4u45au6lm7kbv4bxmxd.py":413:36)
#loc491 = loc("./.inductor_cache\\uh\\cuh57xppax3yjdlwyl6wr3mutjzqlek4h4u45au6lm7kbv4bxmxd.py":414:22)
#loc492 = loc("./.inductor_cache\\uh\\cuh57xppax3yjdlwyl6wr3mutjzqlek4h4u45au6lm7kbv4bxmxd.py":415:37)
#loc493 = loc("./.inductor_cache\\uh\\cuh57xppax3yjdlwyl6wr3mutjzqlek4h4u45au6lm7kbv4bxmxd.py":416:22)
#loc494 = loc("./.inductor_cache\\uh\\cuh57xppax3yjdlwyl6wr3mutjzqlek4h4u45au6lm7kbv4bxmxd.py":417:37)
#loc495 = loc("./.inductor_cache\\uh\\cuh57xppax3yjdlwyl6wr3mutjzqlek4h4u45au6lm7kbv4bxmxd.py":418:22)
#loc496 = loc("./.inductor_cache\\uh\\cuh57xppax3yjdlwyl6wr3mutjzqlek4h4u45au6lm7kbv4bxmxd.py":419:37)
#loc497 = loc("./.inductor_cache\\uh\\cuh57xppax3yjdlwyl6wr3mutjzqlek4h4u45au6lm7kbv4bxmxd.py":420:22)
#loc498 = loc("./.inductor_cache\\uh\\cuh57xppax3yjdlwyl6wr3mutjzqlek4h4u45au6lm7kbv4bxmxd.py":421:37)
#loc499 = loc("./.inductor_cache\\uh\\cuh57xppax3yjdlwyl6wr3mutjzqlek4h4u45au6lm7kbv4bxmxd.py":422:22)
#loc500 = loc("./.inductor_cache\\uh\\cuh57xppax3yjdlwyl6wr3mutjzqlek4h4u45au6lm7kbv4bxmxd.py":423:37)
#loc501 = loc("./.inductor_cache\\uh\\cuh57xppax3yjdlwyl6wr3mutjzqlek4h4u45au6lm7kbv4bxmxd.py":424:22)
#loc502 = loc("./.inductor_cache\\uh\\cuh57xppax3yjdlwyl6wr3mutjzqlek4h4u45au6lm7kbv4bxmxd.py":425:37)
#loc503 = loc("./.inductor_cache\\uh\\cuh57xppax3yjdlwyl6wr3mutjzqlek4h4u45au6lm7kbv4bxmxd.py":426:22)
#loc504 = loc("./.inductor_cache\\uh\\cuh57xppax3yjdlwyl6wr3mutjzqlek4h4u45au6lm7kbv4bxmxd.py":427:37)
#loc505 = loc("./.inductor_cache\\uh\\cuh57xppax3yjdlwyl6wr3mutjzqlek4h4u45au6lm7kbv4bxmxd.py":428:22)
#loc506 = loc("./.inductor_cache\\uh\\cuh57xppax3yjdlwyl6wr3mutjzqlek4h4u45au6lm7kbv4bxmxd.py":429:37)
#loc507 = loc("./.inductor_cache\\uh\\cuh57xppax3yjdlwyl6wr3mutjzqlek4h4u45au6lm7kbv4bxmxd.py":430:22)
#loc508 = loc("./.inductor_cache\\uh\\cuh57xppax3yjdlwyl6wr3mutjzqlek4h4u45au6lm7kbv4bxmxd.py":431:37)
#loc509 = loc("./.inductor_cache\\uh\\cuh57xppax3yjdlwyl6wr3mutjzqlek4h4u45au6lm7kbv4bxmxd.py":432:22)
#loc510 = loc("./.inductor_cache\\uh\\cuh57xppax3yjdlwyl6wr3mutjzqlek4h4u45au6lm7kbv4bxmxd.py":433:37)
#loc511 = loc("./.inductor_cache\\uh\\cuh57xppax3yjdlwyl6wr3mutjzqlek4h4u45au6lm7kbv4bxmxd.py":434:22)
#loc512 = loc("./.inductor_cache\\uh\\cuh57xppax3yjdlwyl6wr3mutjzqlek4h4u45au6lm7kbv4bxmxd.py":435:37)
#loc513 = loc("./.inductor_cache\\uh\\cuh57xppax3yjdlwyl6wr3mutjzqlek4h4u45au6lm7kbv4bxmxd.py":436:22)
#loc514 = loc("./.inductor_cache\\uh\\cuh57xppax3yjdlwyl6wr3mutjzqlek4h4u45au6lm7kbv4bxmxd.py":437:37)
#loc515 = loc("./.inductor_cache\\uh\\cuh57xppax3yjdlwyl6wr3mutjzqlek4h4u45au6lm7kbv4bxmxd.py":438:22)
#loc516 = loc("./.inductor_cache\\uh\\cuh57xppax3yjdlwyl6wr3mutjzqlek4h4u45au6lm7kbv4bxmxd.py":439:37)
#loc517 = loc("./.inductor_cache\\uh\\cuh57xppax3yjdlwyl6wr3mutjzqlek4h4u45au6lm7kbv4bxmxd.py":440:22)
#loc518 = loc("./.inductor_cache\\uh\\cuh57xppax3yjdlwyl6wr3mutjzqlek4h4u45au6lm7kbv4bxmxd.py":441:37)
#loc519 = loc("./.inductor_cache\\uh\\cuh57xppax3yjdlwyl6wr3mutjzqlek4h4u45au6lm7kbv4bxmxd.py":442:22)
#loc520 = loc("./.inductor_cache\\uh\\cuh57xppax3yjdlwyl6wr3mutjzqlek4h4u45au6lm7kbv4bxmxd.py":443:37)
#loc521 = loc("./.inductor_cache\\uh\\cuh57xppax3yjdlwyl6wr3mutjzqlek4h4u45au6lm7kbv4bxmxd.py":444:22)
#loc522 = loc("./.inductor_cache\\uh\\cuh57xppax3yjdlwyl6wr3mutjzqlek4h4u45au6lm7kbv4bxmxd.py":445:37)
#loc523 = loc("./.inductor_cache\\uh\\cuh57xppax3yjdlwyl6wr3mutjzqlek4h4u45au6lm7kbv4bxmxd.py":446:22)
#loc524 = loc("./.inductor_cache\\uh\\cuh57xppax3yjdlwyl6wr3mutjzqlek4h4u45au6lm7kbv4bxmxd.py":447:37)
#loc525 = loc("./.inductor_cache\\uh\\cuh57xppax3yjdlwyl6wr3mutjzqlek4h4u45au6lm7kbv4bxmxd.py":448:22)
#loc526 = loc("./.inductor_cache\\uh\\cuh57xppax3yjdlwyl6wr3mutjzqlek4h4u45au6lm7kbv4bxmxd.py":449:37)
#loc527 = loc("./.inductor_cache\\uh\\cuh57xppax3yjdlwyl6wr3mutjzqlek4h4u45au6lm7kbv4bxmxd.py":450:22)
#loc528 = loc("./.inductor_cache\\uh\\cuh57xppax3yjdlwyl6wr3mutjzqlek4h4u45au6lm7kbv4bxmxd.py":451:38)
#loc529 = loc("./.inductor_cache\\uh\\cuh57xppax3yjdlwyl6wr3mutjzqlek4h4u45au6lm7kbv4bxmxd.py":452:22)
#loc530 = loc("./.inductor_cache\\uh\\cuh57xppax3yjdlwyl6wr3mutjzqlek4h4u45au6lm7kbv4bxmxd.py":453:38)
#loc531 = loc("./.inductor_cache\\uh\\cuh57xppax3yjdlwyl6wr3mutjzqlek4h4u45au6lm7kbv4bxmxd.py":454:22)
#loc532 = loc("./.inductor_cache\\uh\\cuh57xppax3yjdlwyl6wr3mutjzqlek4h4u45au6lm7kbv4bxmxd.py":455:38)
#loc533 = loc("./.inductor_cache\\uh\\cuh57xppax3yjdlwyl6wr3mutjzqlek4h4u45au6lm7kbv4bxmxd.py":456:22)
#loc534 = loc("./.inductor_cache\\uh\\cuh57xppax3yjdlwyl6wr3mutjzqlek4h4u45au6lm7kbv4bxmxd.py":457:38)
#loc535 = loc("./.inductor_cache\\uh\\cuh57xppax3yjdlwyl6wr3mutjzqlek4h4u45au6lm7kbv4bxmxd.py":458:22)
#loc536 = loc("./.inductor_cache\\uh\\cuh57xppax3yjdlwyl6wr3mutjzqlek4h4u45au6lm7kbv4bxmxd.py":459:38)
#loc537 = loc("./.inductor_cache\\uh\\cuh57xppax3yjdlwyl6wr3mutjzqlek4h4u45au6lm7kbv4bxmxd.py":460:22)
#loc538 = loc("./.inductor_cache\\uh\\cuh57xppax3yjdlwyl6wr3mutjzqlek4h4u45au6lm7kbv4bxmxd.py":461:38)
#loc539 = loc("./.inductor_cache\\uh\\cuh57xppax3yjdlwyl6wr3mutjzqlek4h4u45au6lm7kbv4bxmxd.py":462:22)
#loc540 = loc("./.inductor_cache\\uh\\cuh57xppax3yjdlwyl6wr3mutjzqlek4h4u45au6lm7kbv4bxmxd.py":463:38)
#loc541 = loc("./.inductor_cache\\uh\\cuh57xppax3yjdlwyl6wr3mutjzqlek4h4u45au6lm7kbv4bxmxd.py":464:22)
#loc542 = loc("./.inductor_cache\\uh\\cuh57xppax3yjdlwyl6wr3mutjzqlek4h4u45au6lm7kbv4bxmxd.py":465:38)
#loc543 = loc("./.inductor_cache\\uh\\cuh57xppax3yjdlwyl6wr3mutjzqlek4h4u45au6lm7kbv4bxmxd.py":466:22)
#loc544 = loc("./.inductor_cache\\uh\\cuh57xppax3yjdlwyl6wr3mutjzqlek4h4u45au6lm7kbv4bxmxd.py":467:38)
#loc545 = loc("./.inductor_cache\\uh\\cuh57xppax3yjdlwyl6wr3mutjzqlek4h4u45au6lm7kbv4bxmxd.py":468:22)
#loc546 = loc("./.inductor_cache\\uh\\cuh57xppax3yjdlwyl6wr3mutjzqlek4h4u45au6lm7kbv4bxmxd.py":469:38)
#loc547 = loc("./.inductor_cache\\uh\\cuh57xppax3yjdlwyl6wr3mutjzqlek4h4u45au6lm7kbv4bxmxd.py":470:22)
#loc548 = loc("./.inductor_cache\\uh\\cuh57xppax3yjdlwyl6wr3mutjzqlek4h4u45au6lm7kbv4bxmxd.py":471:38)
#loc549 = loc("./.inductor_cache\\uh\\cuh57xppax3yjdlwyl6wr3mutjzqlek4h4u45au6lm7kbv4bxmxd.py":472:22)
#loc550 = loc("./.inductor_cache\\uh\\cuh57xppax3yjdlwyl6wr3mutjzqlek4h4u45au6lm7kbv4bxmxd.py":473:38)
#loc551 = loc("./.inductor_cache\\uh\\cuh57xppax3yjdlwyl6wr3mutjzqlek4h4u45au6lm7kbv4bxmxd.py":474:22)
#loc552 = loc("./.inductor_cache\\uh\\cuh57xppax3yjdlwyl6wr3mutjzqlek4h4u45au6lm7kbv4bxmxd.py":475:28)
#loc553 = loc("./.inductor_cache\\uh\\cuh57xppax3yjdlwyl6wr3mutjzqlek4h4u45au6lm7kbv4bxmxd.py":475:41)
#loc554 = loc("./.inductor_cache\\uh\\cuh57xppax3yjdlwyl6wr3mutjzqlek4h4u45au6lm7kbv4bxmxd.py":475:4)
